data/embD/hoc4/model_3/hoc4_best.pt (torch, 341645 bytes, 87 tensors)

embedding.weight f4 [6, 20]
00000000: 0000 0000 0000 0000 0000 0000 0000 0000
00000010: 0000 0000 0000 0000 0000 0000 0000 0000
00000020: 0000 0000 0000 0000 0000 0000 0000 0000
00000030: 0000 0000 0000 0000 0000 0000 0000 0000
00000040: 0000 0000 0000 0000 0000 0000 0000 0000
00000050: 363b 793f fb9d 103e 82eb b4bf 827e 8e3f
00000060: e0a3 b3bf 3f4a 0f3f 96ce d0bf 7d98 513f
00000070: 3bcc 9dbf afa7 2f3f d2df 373f f47b 4f3e
00000080: 5d53 85bf 996c 4e3e e407 c73e ab54 963f
00000090: e3d9 403f 0a10 72bf 5d6f ad3e 654c cfbf
000000a0: fc99 253f 4c11 98bf f6e7 e63f 246c c33f
000000b0: 2556 573f 8377 91be 9c89 d2bd 0d2c 653f
000000c0: 0358 d23e 6e75 76bd 58e8 1ec0 6ac9 ac3d
000000d0: fcb4 80bf 5c27 e23f 202a 48bf 44a3 d1be
000000e0: c21a 89be e83d 00bf 7ddb 263f 593b 02c0
000000f0: f0f8 2cbf 5030 d33e 70f5 633f 78d2 bc3f
00000100: dc88 333f cd50 1abf 5cde 26c0 99ea 90bf
00000110: 37d0 21bf 792c 3fbf cd80 c33f 86c1 fbbe
00000120: a5d8 65bf a570 933b 5f3b 11be f1d6 48bd
00000130: d634 fbbf 3b27 0440 2e46 c73f 7f90 76bf
00000140: 6dad 5a3e eca7 c1bf 83ee 87bf 37ee 40bf
00000150: 19ca 533e a181 a9bf 8a8d c93d 23fa 1c3f
00000160: 9c3c 19bf 4ef3 743f 7f11 f5bf 3de0 16bf
00000170: a705 1940 6af1 a83f 07fb 9bbf 1c96 7a3f
00000180: 8e6c bb3f 2eaa 50bf 9939 033d 0031 b53f
00000190: 15c2 a3bf f5d3 b23f 976c 52bf f873 a1be
000001a0: 56b1 893c 78c8 743e 3746 94bf bede f7bd
000001b0: 5782 64be fada 34bf b7f2 ed3d ef06 c9bd
000001c0: ec8e aa3e 5bd2 233f 4d20 9c3f f353 0bc0
000001d0: 1cce 02bf 0dfa 923e 44a5 cc3e 8c0e 28bf
0.0 0.0 0.0 0.0 0.0 0.0 0.0 0.0
0.0 0.0 0.0 0.0 0.0 0.0 0.0 0.0
0.0 0.0 0.0 0.0 0.97355974 0.14122765 -1.4134371 1.1132357
-1.4034386 0.55972666 -1.6313045 0.81873304 -1.2327951 0.6861524 0.718259 0.20262128
-1.0416065 0.20158614 0.38873208 1.1744589 0.7533247 -0.94555724 0.33874026 -1.6195189
0.64688087 -1.1880279 1.8039539 1.5267377 0.8411582 -0.28411493 -0.10280153 0.8952034
0.41082773 -0.060170583 -2.4829311 0.08436854 -1.0055232 1.7668262 -0.7818928 -0.40944874
-0.26778227 -0.5009446 0.6517866 -2.0348723 -0.6756735 0.41247797 0.8904638 1.475173
0.70130706 -0.6027954 -2.6073217 -1.1321594 -0.63208336 -0.74677235 1.5273682 -0.49171084
-0.897837 0.0044995123 -0.14182805 -0.04903311 -1.9625499 2.0648944 1.5568292 -0.96314234
0.21355219 -1.5129371 -1.0619663 -0.75363487 0.20682563 -1.3242685 0.098414496 0.6131918
-0.5985811 0.95683753 -1.9145964 -0.5893591 2.39097 1.3198674 -1.2185982 0.978853
1.4642503 -0.81509674 0.03203735 1.4155579 -1.2793604 1.3970934 -0.82196945 -0.3153379
0.016808193 0.23904598 -1.1583928 -0.121030316 -0.22315346 -0.7064663 0.1161856 -0.098157756
0.33312166 0.6399285 1.2197357 -2.1769989 -0.5109575 0.287064 0.39969838 -0.65647197

lstm.weight_ih_l0 f4 [80, 20]
00000000: 0390 573e b91f adbd a300 a4bd 560d 473c
00000010: 5173 9ebd 0cef 063e 3e9f e3bc 3101 823e
00000020: 7dc0 7bbe 81c3 5f3e 6871 a3bd 35af 6d3d
00000030: fca2 ef3b cac9 de3e 9c30 273e e820 b3bd
00000040: aa9f 513e a487 cb3d 2cb7 183e fe17 95be
00000050: 3bb6 133e 089d 643e 38e0 283e 4642 a63d
00000060: 5c1f ffbd 426c 853e 75b4 113d 5c08 df3c
00000070: adcd 313e 2e23 36be b145 74be 2bbd 07bc
00000080: 42a7 5fbe 07fc 48be ec11 37bb 7af9 0bbe
00000090: e1c0 0f3e 5b7a 5b3e 8160 ec3a 560d 40be
000000a0: 3edd 0b3e 4743 143e b36f 1d3e eef0 2dbe
000000b0: 258a 59be 0f7d 783e e7bd 61be 9196 e4bd
000000c0: bc5b 83bd d32e 383e 160b b9bc 7192 323e
000000d0: 3707 4fbc a006 41be 3aab 583e dbd9 60be
000000e0: fc01 833c 63b1 423d b8ac efbd 8b9c 013e
000000f0: 6a22 28be ac18 393d c7a3 02be c43c 233e
00000100: b0d8 01bd ddf3 893c d004 5ebe 5677 abbd
00000110: 09bd 5b3d ea2c d53b fc98 a23d 1643 3d3a
00000120: 9c59 6ebe f874 b03d c64c 443e 194c 453d
00000130: 4b86 303e 595d ad3d 0fb0 f0bd 7580 7abe
00000140: 64a4 62bd ee65 433d aced 27be 4f11 4d3e
00000150: c0b3 4bbe 36be 34be 05af 51be fa8a c7bd
00000160: 0eb2 bf3d d0d5 6ebe ae0a 95bc 2d35 483e
00000170: e8cf 50be 6cda febd f6d7 f53d a0cd 543c
00000180: 1b39 743d 3def 193e 514b 603e 29c5 373e
00000190: 5e3d 4fbd fb45 053b a81c 4ebc 44c3 343e
000001a0: e4be 69be 4f52 463e e0b3 76be 1f6f 5cbd
000001b0: e84d 3cbe cda9 cb3d 547b 76bd 5bd4 b3bd
000001c0: a614 8dbe 2305 853d b7bf fe3d fb47 61be
000001d0: e8f2 bfbd 382b 81bd 3e9b ce3d 104a 97bc
000001e0: 9b6d 0e3e 0525 e9bd 45c5 413e 1267 09be
000001f0: 5a48 063e cd8a 90bd 3dae 90bd 8613 113e
00000200: b549 c4bd 1eee 0e3e 45e7 1dbc 348a 17bd
00000210: a533 4ebe e47f 7b3e e20d ccbd 62b8 84bd
00000220: dc08 2d3e 2ae0 fc3d c5f1 443e f124 183c
00000230: 95af 26be 4c4a 13bd 5b19 573c 74ea 46be
00000240: a0c5 813d d2c2 743d 9b2c 683d 852c e43d
00000250: f339 12be fb0f 46be 866e 36bd 1954 b03d
00000260: 1008 07bd 87a8 033e 7ab0 b43d 3116 05be
00000270: 4d09 16bb 00eb 223b 32a2 5b3e 63c8 e03d
00000280: ba95 7e3e 29ed 013e 3b78 e1bc 5f83 cb3d
00000290: 311f 5f3d 90c8 1b3e c031 673d 451d 5d3e
000002a0: 95e2 4f3c 57a8 123c c05f 96bc ea4f 33bd
000002b0: ba82 9dbd e200 0cbe 5a11 72be ec25 74bc
000002c0: 64f0 11be 52df 4ebe 5781 4c3d 3ace 6d3e
000002d0: 04d4 cdbd 2ece aabd 2cf5 793e 2e1c 383e
000002e0: d463 633e 4f55 b13d e0d5 80be 5888 cbbc
000002f0: 2453 34be 0d57 6cbc d7ce 65be 6861 c7bd
00000300: c000 a73c 835f 443e 350b d33d 60aa 083e
00000310: f3a3 96bd 6115 70bd 99a4 8ebc 49a2 32bd
00000320: 1f2a 293e da21 c13d 6418 9abd 13f3 863c
00000330: 9d11 20be bb1d 5abc 8ae2 47be 5bf4 253e
00000340: 94ca 80be d7ab 17be e793 57be 194a 683c
00000350: 8806 53bd 941c 18be fa7c 0b3d fef2 d33d
00000360: 92fc cdbd 6172 533e 2074 833c 2889 113d
00000370: 5263 9ebe a603 2abe f714 b73d ec14 873e
00000380: d7b7 a83e e676 02bd 271e 00be a1b5 f8bd
00000390: db07 6b3e c071 3bbd 87c5 d8bd c004 6f3b
000003a0: 9597 b9bd f07b 023e b2b9 883d cc77 bfbd
000003b0: 5db4 33be fc25 b93e 6b02 823d 826e 39be
000003c0: 3373 5c3e 51ac 14bc bc9e a0bd 7eb6 613e
000003d0: 469b 673e 7272 a4bd fc49 033d 7ef4 74be
000003e0: 2767 b2be e1bb c6bd aec8 10bd 76be f6bd
000003f0: efe7 0fbd d6cf e83d 95fc 5ebd 2223 363e
0.2105103 -0.08453316 -0.08007934 0.012149176 -0.077368386 0.13177127 -0.027785894 0.25391534
-0.24585147 0.21851923 -0.07980615 0.05802842 0.0073131304 0.43513328 0.16327137 -0.08746511
0.20471063 0.09937981 0.14913625 -0.29119867 0.14424984 0.22325528 0.16491783 0.081181094
-0.12457153 0.26059157 0.035572488 0.027225666 0.17363615 -0.17786857 -0.2385471 -0.008284847
-0.21841148 -0.19627391 -0.0027934266 -0.13669387 0.14038421 0.21433394 0.0018034131 -0.18755087
0.13658616 0.1447879 0.15374641 -0.16986439 -0.21244104 0.24266456 -0.22045098 -0.11161531
-0.06413981 0.17986612 -0.022588294 0.17438675 -0.0126359975 -0.18850183 0.21159068 -0.21958105
0.015992157 0.04753245 -0.11702865 0.12657373 -0.16419378 0.045189545 -0.12757789 0.15941149
-0.03170079 0.016839916 -0.21681523 -0.08372371 0.053647075 0.0065055983 0.07939336 0.00072197744
-0.23276371 0.0861606 0.19169912 0.048168276 0.17238729 0.0846507 -0.117523305 -0.24463065
-0.055332556 0.04770463 -0.16399258 0.20026134 -0.19892788 -0.17650685 -0.20476921 -0.097433046
0.09360133 -0.2332375 -0.018193569 0.19551535 -0.2039181 -0.124440044 0.12004082 0.012988478
0.059624773 0.15032668 0.21903731 0.17946304 -0.050595634 0.00203359 -0.012580074 0.17652613
-0.22826725 0.19367336 -0.24092054 -0.05381691 -0.18389094 0.09944496 -0.06017621 -0.08780738
-0.27554816 0.064951204 0.124389105 -0.22000115 -0.093725026 -0.063070714 0.10088204 -0.018467933
0.13908999 -0.11384014 0.18922909 -0.13418224 0.13113537 -0.07057724 -0.07064483 0.14167604
-0.09584371 0.13958022 -0.0096376585 -0.036997035 -0.20136888 0.24560505 -0.099635854 -0.06480481
0.16897911 0.123474434 0.19232853 0.009286151 -0.16277917 -0.035959527 0.013128604 -0.19425374
0.06336522 0.059756108 0.056683164 0.11141304 -0.14279918 -0.19342034 -0.044538997 0.0860979
-0.032966673 0.12857257 0.08822723 -0.12996747 -0.0022893727 0.002485931 0.21448591 0.10975721
0.24861804 0.12688126 -0.02752315 0.099371664 0.054473106 0.15213227 0.05644393 0.21593197
0.012688299 0.008951268 -0.018356204 -0.043777384 -0.0769095 -0.13672212 -0.23639432 -0.014901619
-0.14251858 -0.20202377 0.049928036 0.232232 -0.100502044 -0.08340107 0.24409932 0.179795
0.2220605 0.086588494 -0.25163174 -0.024845287 -0.1760984 -0.014425051 -0.22442184 -0.09735376
0.0203861 0.1917706 0.10304872 0.13346243 -0.073554896 -0.05861414 -0.01741247 -0.0436118
0.16519974 0.09430285 -0.075241834 0.016473329 -0.15631719 -0.013312752 -0.19520012 0.16206495
-0.25154555 -0.14811645 -0.21052514 0.0141778225 -0.0515199 -0.14854652 0.034054734 0.103490815
-0.100579396 0.20649101 0.016046584 0.035531193 -0.3093515 -0.16602954 0.089395456 0.2638315
0.3295276 -0.03185167 -0.12511502 -0.12144018 0.22952215 -0.045762777 -0.1058455 0.0036471337
-0.09062115 0.12742591 0.066760436 -0.09349021 -0.17549272 0.36161792 0.063481174 -0.18108562
0.2152832 -0.009074287 -0.07842776 0.22042271 0.22617826 -0.08029641 0.03205298 -0.23921391
-0.34844324 -0.09703804 -0.035347633 -0.12048046 -0.0351333 0.113677666 -0.0544401 0.1778684

lstm.weight_hh_l0 f4 [80, 20]
00000000: fe0e 813e bacc 083d 8e6f 86bd b6eb db3e
00000010: f843 983d 512e 513d f1c2 5dbe e897 12bd
00000020: 1516 043d 4aaf 09bf 13ee 41be f92c a2bd
00000030: e3ca 123f 8ebc c33d 16e0 d13e 5962 003e
00000040: 6cd9 1cbe eb25 24bd f7b6 13bd 4086 d23e
00000050: e7ba 133e 1adb 1bbe 2c11 ba3d 1566 d03d
00000060: fb84 833e 75df 793c d02b 133d 9fc4 cd3d
00000070: 607e 49be f1ed 14be 6ff3 65bd 883b 0cbe
00000080: 09ce 4bbe fdf3 c33d 2e38 4f3e a4d8 223d
00000090: 5011 c8be b372 b13e 17a1 66be b31f a5be
000000a0: e9ac 493e e392 1bbe 7c69 6bbd 359f 6f3e
000000b0: 9416 93bd 7422 f43d 2612 483e a061 0abe
000000c0: e249 583e 850a 05be e425 ffbd b5ea 3e3e
000000d0: 8bef 04be 41aa 3d3e 9d25 5c3e f015 81be
000000e0: 683f 8abe b0e1 143e 70c4 253e 5780 9539
000000f0: 18dd 4dbd 2673 e4bd b72c 86be 2240 e4bd
00000100: 04ca 0a3d c1d8 a73d 696a 043f 6ee4 f13c
00000110: 86f9 54bd 61b4 983d 8473 93bd eb70 f5bd
00000120: 176b 7fbe a316 263e 764d cf3d 2acf 96be
00000130: 5ada 223e e59e 273e 39ff d9bd 2c26 4ebd
00000140: c53b 7d3d 5b99 833b 7433 6b3c 3b96 793e
00000150: 2a01 94bd f191 b1bd 7384 533d bccf ecbc
00000160: 3534 dc3c 6b7c c73d 2a64 82bc 4d8c 6b3e
00000170: 8a92 b93d 3172 edbd 3d45 fabd 78a0 f2bd
00000180: debe 74be 711d 8d3e f590 8a3d cb17 823e
00000190: 7db8 6dbe efce ab3c 683d 2dbe c26e c6bc
000001a0: 3f72 f8bd 0f86 94bd 3b2b 37bd c612 8dbe
000001b0: e2cf d3bd 8642 9f3c b585 8ebc 4a2a a63c
000001c0: bc38 9dbd df5d 783d 8e73 17bd 2482 69be
000001d0: ed8e a1be 44c7 473e db0e abbe 0bc7 083e
000001e0: 34f6 18be 0ba2 03be 8d3d 8bbe 797c cf3d
000001f0: 60db 49be e709 acbd e924 c43d c1d9 58be
00000200: 70d4 fa3c 137f 183d d1db e83d 0698 643e
00000210: 34c4 32be 8d22 32bc e954 82be 7b8b 0abd
00000220: 62f5 673d 9b43 113e e96b 51bd fe54 803e
00000230: a71a c93d 01ea 02be 8d98 803e d4eb 9abd
00000240: 15e1 23be 487a 0d3e a5b5 d9bd 091f 39be
00000250: ce7e 243e 8b60 153d a0fa 4bbe 4fe5 333e
00000260: 76d6 643d a6ef 723d e0cb c63d 06e0 8b3e
00000270: 6eac 93be 23b0 4dbd 5212 85bc 3eea ac3d
00000280: 5e06 943e e340 d73b a18f 0f3e bd64 373e
00000290: 914e 5b3e ba79 24be eadd 99bd c496 c03d
000002a0: 8369 65be 2c44 2bbe 00f2 c3be f95e 12bd
000002b0: b0c2 093e 2ced 213e b195 ba3e e243 e83d
000002c0: 6104 9bba 56cb 253e 4a71 b5be 4ec7 e2bd
000002d0: 876c eb3d ff51 713e 1d8f 9cbe a850 423d
000002e0: a036 2cbd 90d7 93bd bb58 bc3d 3365 133d
000002f0: e029 063e ccb0 a7be bb92 973e c369 9a3d
00000300: 3e97 503a 2a7a 48be 3b9a 0c3e ef94 f9bd
00000310: 13c8 f83d 0e35 593e 572b b4bd a1b0 49be
00000320: f6c9 053e 497d a73c 57ce 50be 5ebb e03d
00000330: e19a d03c 9058 f1bb b16b 9bbc 32c0 fe3c
00000340: d74d 6e3e e157 44be ff3e e3bc 7bf9 13be
00000350: 2c1f 023e 9e3b a2bd f13a 50be d7b3 d2bc
00000360: a34e 87be 0c51 3f3e 1f40 a3bd 66f1 e8bd
00000370: 3001 59be a9be 5f3d 8886 68be ca1c 7fbd
00000380: 1fc0 b53d 489a f13c 9201 ee3e 68bc 443e
00000390: cb0a e83d d8e5 1f3e 7683 243e c585 12be
000003a0: 1b17 b2bd 3093 e5ba 2b81 0fbe bd16 5dbd
000003b0: 537c 223d bf38 513e f29e 803e 1fcf cb3d
000003c0: ab54 aa3e f747 133e 4f6e 42be 1377 e83d
000003d0: b6df 7dbe 3bfe 1a3e fc9b ff3d 78c3 a5bd
000003e0: 10b2 223e 962c cf3d bc1b 04be 57e6 b6be
000003f0: f01b e1bc c7f2 103e ae84 873e a32a d6bc
0.2520675 0.033398367 -0.06564246 0.4295327 0.07434839 0.05106956 -0.21656395 -0.0357894
0.03224762 -0.53783095 -0.18938474 -0.07918734 0.5734083 0.09557448 0.40991277 0.12537517
-0.15317315 -0.040075224 -0.03606316 0.4111805 0.14426766 -0.152203 0.090853065 0.101757206
0.25687394 0.01525103 0.035930455 0.10047268 -0.19677114 -0.14543892 -0.05614036 -0.13694584
-0.19902815 0.095680214 0.20236275 0.039757386 -0.39075708 0.3465782 -0.22522388 -0.32250747
0.19694866 -0.15192752 -0.057473645 0.23400576 -0.07182041 0.11920634 0.19538173 -0.13513803
0.21121934 -0.12992294 -0.12458399 0.18644221 -0.12982003 0.18521978 0.21498723 -0.2521205
-0.270015 0.14539218 0.16188216 0.00028515115 -0.05025968 -0.11154775 -0.2620599 -0.11145045
0.033884063 0.081956394 0.5172487 0.02952787 -0.051995777 0.074562795 -0.07199767 -0.11984428
-0.24943195 0.16219573 0.101221964 -0.2945493 0.15903607 0.16369207 -0.10644383 -0.050329372
0.06182458 0.004016084 0.014355529 0.24373715 -0.072267845 -0.08670414 0.051639985 -0.02890765
0.026880363 0.09740528 -0.015916903 0.23002739 0.09061153 -0.11594046 -0.122202374 -0.11847013
-0.23900935 0.27561525 0.067659296 0.25408778 -0.23214908 0.020972697 -0.16917956 -0.024222735
-0.12131166 -0.07252132 -0.044718962 -0.27553385 -0.10342385 0.0194409 -0.01739774 0.020283837
-0.07676837 0.060636397 -0.036975436 -0.22803551 -0.31554356 0.19509608 -0.3340977 0.13357179
-0.14937669 -0.12854783 -0.27195397 0.10131163 -0.19712591 -0.08400326 0.095773526 -0.21176817
0.030618876 0.037230562 0.11370052 0.22323617 -0.17457658 -0.010872495 -0.25455406 -0.033824425
0.0566305 0.14185946 -0.0511283 0.25064844 0.09819537 -0.12784578 0.25116387 -0.07564512
-0.1600383 0.13816178 -0.10630349 -0.18078245 0.16063997 0.036469024 -0.19919825 0.17567943
0.05586859 0.059310578 0.09706855 0.27319354 -0.2884249 -0.050216805 -0.016244087 0.08443116
0.28911108 0.0065690144 0.14019634 0.17909522 0.2141669 -0.1606206 -0.0751303 0.09403756
-0.22403531 -0.16725224 -0.3827057 -0.035735104 0.13453174 0.1581313 0.3644233 0.113410726
-0.0011826867 0.16190848 -0.35437995 -0.110731706 0.11495309 0.23566435 -0.30577937 0.0474402
-0.042044282 -0.0721885 0.091966115 0.035985183 0.13101912 -0.32752073 0.29604134 0.07539704
0.0007957107 -0.19577852 0.13730709 -0.1218661 0.12147536 0.21211645 -0.08797329 -0.19696285
0.13065323 0.020445483 -0.20391212 0.109732375 0.025464477 -0.007365294 -0.01897225 0.031097505
0.23271881 -0.19174148 -0.02774 -0.14450638 0.12707204 -0.07921527 -0.20334984 -0.02572052
-0.26427183 0.1868326 -0.079712145 -0.11374168 -0.21191859 0.054625187 -0.2270757 -0.062283315
0.08874535 0.029492512 0.46485573 0.19212496 0.113301836 0.15615022 0.16065773 -0.14308842
-0.08695813 -0.0017515179 -0.14014117 -0.053976763 0.039669346 0.20431803 0.25121266 0.099516146
0.33267722 0.14382921 -0.18987392 0.113508366 -0.2479237 0.15136044 0.124809235 -0.08093923
0.15888238 0.10115926 -0.12901205 -0.3572261 -0.027479142 0.14155112 0.26468414 -0.026143378

lstm.bias_ih_l0 f4 [80]
00000000: 1339 ab3e 09f5 9bbe 8697 213c 5770 1a3e
00000010: 183c 6d3e bd47 8a3d d7eb 6d3d 9d44 46bd
00000020: 61a0 29be 2a56 f83d 54ea 28be e47a 01bd
00000030: cf5f 3c3e 7342 cb3d 2626 593d ad6e 34bd
00000040: 20e1 a43c 56bb 083d fff7 723e c4c5 843e
00000050: 272c a93e 5b80 88bd e83d 7c3e fad4 053e
00000060: cdff 39be c284 813e fb2e 273e e79a 713e
00000070: 5cf2 3ebe 66f9 43bd 9be6 f83d 5846 3b3e
00000080: 5e55 2d3e 0e1d f13d 5a04 d4ba 8775 a1bd
00000090: 80b3 9e3e 5b7a ac3d 4ccb 11be bf30 053d
000000a0: 7ee2 d5bd d295 373c 4041 1a3e 2412 bdbd
000000b0: 204e 453e 4626 bc3d 760e fe3d d4e6 f53b
000000c0: ba60 0dbe 55ca 873d 9612 33be 4df0 f6bd
000000d0: 3c55 e33d 3835 b83d c704 2cba 19a1 23bb
000000e0: c8df c23d a6e5 3d3e 3f71 573e c17e 06bd
000000f0: 4471 7f3e 7333 453e 9806 c4bc 4eb6 ac3e
00000100: 7184 2a3e 9ad7 793d 772e ca3d 3f3e a0bd
00000110: 6e18 ccbd a777 9b3e 4985 ab3c 74ed 95bd
00000120: 2794 0dbd 963e 813e 0b30 c33d 6adc 6cbb
00000130: ca96 b13e 5434 ab3d 570f 5f3e 3381 8d3e
0.33441982 -0.30460384 0.009862786 0.15081917 0.23167455 0.06751964 0.058086243 -0.04840528
-0.16565086 0.121258095 -0.16495639 -0.03161134 0.18395923 0.099247836 0.053014897 -0.04405086
0.02012688 0.033381782 0.23727416 0.25932133 0.33041498 -0.06665107 0.2463299 0.13069525
-0.18163987 0.252966 0.16326515 0.23594247 -0.1864714 -0.047845267 0.121533595 0.18288553
0.16927096 0.1177312 -0.0016175613 -0.07883745 0.30996323 0.08421775 -0.14237708 0.03251719
-0.104435906 0.011205154 0.15063953 -0.09231976 0.19268084 0.091869876 0.12405102 0.0075043235
-0.1380643 0.06630389 -0.17487559 -0.120575525 0.111002415 0.08994526 -0.0006561991 -0.0024967848
0.09515339 0.18544635 0.21039294 -0.032835726 0.24945551 0.19257908 -0.023928925 0.33732837
0.16652085 0.06099663 0.09872144 -0.078243725 -0.09965597 0.30364725 0.020937579 -0.07320681
-0.034565117 0.25243062 0.09530648 -0.003614212 0.34685355 0.0835959 0.21783195 0.27637634

lstm.bias_hh_l0 f4 [80]
00000000: 5c49 b83d 592e 653d 6b43 97bd 3269 973c
00000010: 9613 2f3e bced 7ebc 2c6b ecbd 10a4 813d
00000020: 760d 0bbe 5c83 933d 1e0f b23d 0019 acbd
00000030: 69ad 0abe 3dd3 2abe 3dfd 253e dbcc 8c3e
00000040: 983c 013d 8db0 3d3e 1e34 d7bd ba7f 583e
00000050: 62f1 b13e ea01 633c 61f8 2e3e 6c98 2d3e
00000060: 53ec 3bbe 4287 0c3d 12d6 933e 8933 493d
00000070: 61b1 863c a35a 353e ac13 14be f637 dc3d
00000080: 385e 483e 5174 d4bd cb5b 913e 83f6 08be
00000090: 62e4 91bd 49af 523e 49f0 a03d fb39 973c
000000a0: 4b15 5dbe 93d2 033e 083f 35bd 93ae a53d
000000b0: 2dc1 35be 3119 43bd 4997 5abc 190e 1e3e
000000c0: 6cc9 5c3d 8ddf 263b 9b91 a7bd 2b70 06be
000000d0: 7b9e 163d acc2 19be 7b2c e2bd 4adc f9bd
000000e0: 07c1 31be 301b 48be 6ff8 4bbe 15f3 d93d
000000f0: a4c0 e13d d7ac 0cbe d430 833d cda4 b43d
00000100: b3c8 69bd 8948 0b3e 6ce6 a8bd 2b83 a6bd
00000110: d011 0cbe e522 693e 75c3 99bd c061 a13c
00000120: 47cd b53b 804f 31bd 0aa7 ad3d 12d2 9b3b
00000130: efff a83e 94cb 8f3e 6db3 923e 9445 7f3c
0.08998367 0.055952404 -0.07385906 0.018482778 0.17097315 -0.01555961 -0.11543879 0.063301206
-0.13579354 0.07202789 0.086942896 -0.08403206 -0.13542713 -0.16682144 0.16209884 0.27500042
0.031551927 0.1852438 -0.105079874 0.21142474 0.34754473 0.013855437 0.17086937 0.16952676
-0.1835187 0.03430868 0.2887426 0.049121413 0.016442003 0.17710356 -0.14460629 0.10752861
0.19567192 -0.10373748 0.28390345 -0.13375287 -0.07123639 0.20574678 0.07858331 0.018460264
-0.21590154 0.12873296 -0.044249564 0.08089938 -0.17749472 -0.047631446 -0.013341733 0.15435065
0.05390303 0.0025462836 -0.08182069 -0.13128726 0.036772233 -0.15015668 -0.1104364 -0.1220022
-0.1735879 -0.19541621 -0.19918989 0.10642067 0.110230714 -0.13737808 0.064057976 0.08820496
-0.057076167 0.13601889 -0.082470745 -0.08130487 -0.1367867 0.22767217 -0.075079836 0.019699931
0.0055481526 -0.043288708 0.08479126 0.004755267 0.33007762 0.28085005 0.28652516 0.015580554

lstm.weight_ih_l0_reverse f4 [80, 20]
00000000: a3d3 99bd fb7e 79be b23e fe3d 0283 47bd
00000010: 7e41 c43b 80be 93be 366a 54be 1823 81bd
00000020: c55f 39be b287 233e 85eb 95be 65dc 0cbe
00000030: ade6 9e3c 6c5b 40bc 7b97 00be 6716 46be
00000040: 595d 653e 0499 2e3d 5fa7 22be 6620 9a3d
00000050: a6f1 193e eb8f 5ebd 1cde 433e 33b3 873e
00000060: 7b2b 403e aa4c 053d 8dfd b1bd a523 61b9
00000070: 703c 7bbe 3478 dabc 2189 66be bc84 363e
00000080: ea06 0cbe b9df 75ba 98d7 123d 9c58 18be
00000090: 4d0e 4e3e 682b 4ebe d254 f7bd 52bd 4ebe
000000a0: 2a48 dfbd ae5b aebb 079a 50be 9661 533e
000000b0: ad60 1f3e 639d 003d 44b0 f43d 70ff 48be
000000c0: 86b0 1dbe 8c17 1cbd 0e12 e4bd 7bf7 a1bd
000000d0: 989f 56be e632 64bd 4331 c13d 4f83 6abe
000000e0: 1bc4 5fbe 5495 0abe 34c0 273d d8ca ab3d
000000f0: 3498 5a3e 6e0d 8b3a c473 43be 4340 05be
00000100: 86d1 b1bd 4d19 4abe a9c9 89bd b5aa e1bd
00000110: 92b5 c53c 881c 123d ceb1 d0bd b400 b6bc
00000120: 3f89 ac3c 7270 4c3e 678c 27be d1f5 47be
00000130: bae6 653e 1435 c9bb bf2f 57be ba4b 25be
00000140: 4633 02bc 53f0 01bd f4c9 5abe ad3a 28be
00000150: 5405 383d e600 49be bef2 86bd 9e8a 4e3e
00000160: 5770 72bd 88f2 3abe 6c42 a2bd 39c6 1f3e
00000170: c04c 3fbd a3a0 883d 8a78 513e e4a6 b63c
00000180: ac73 8abe 71db a3bd 37cd 653e 3c6d 113d
00000190: e052 6b3e 1f1a 82be 28bb b83d a157 2c3e
000001a0: ca06 31be c238 acbd 591a 373c b20d 93bd
000001b0: 40d5 163e a614 1fbe 6fb1 2bbe 4be9 11be
000001c0: 2125 143e 59bb ebbd 7a44 1e3d 0be8 2b3e
000001d0: 815f 663d b550 28be e48f 393d 7c45 2b3e
000001e0: ba7e c1bc 1179 18be c387 413d e47e 593e
000001f0: 73a1 91bd 352d 463e 9ea7 d6bd 8f20 e0bd
00000200: 3d7c d23d 03f7 93bd 0634 493e c6d2 4ebe
00000210: 2d16 c4bd c42a 643d 2f49 d73d 9227 c03d
00000220: 2287 79be fe23 c33d ce10 393d 81ed 59be
00000230: cb0f 60bd 1cee ff3d 3446 7cbe 0f06 ebbc
00000240: f36b 84bd a025 19be 39e8 e4bc 9a6a d5bd
00000250: bb2b 28be 0e76 6c3c 717e 9cbd 83c9 9f3d
00000260: 47bc 9cbc 526a 00be 2ba3 f3bd 589c e1bd
00000270: 2f7f 513e be18 723d 4f40 3fbe 25f0 153c
00000280: 5289 90bd f823 003d 3e58 a43d 9beb 2a3e
00000290: 2cd9 503e bdb7 1d3e 9bfe 893d 89de d2bc
000002a0: f8c4 29bc e5f8 7bbd 2681 453e a013 483e
000002b0: 6b76 6ebe 3a4f a3bc 500c 73be ad35 f93d
000002c0: 9da9 88be 360a 393e 673c 473d 388a f1bd
000002d0: 0e29 86be d0f8 0bbc fbc3 0f3e 40cb 4d3e
000002e0: af86 c5bd 4c0d 6d3d fe36 e93d dd83 03be
000002f0: a6e6 a0be 0373 14be c12e 503e 9a0b 1fbe
00000300: 7f83 4b3c 1b71 c23d 8e42 143e 0490 abbd
00000310: 54b4 f03d f04e e93d c7f6 b83d 9801 f3bd
00000320: 2414 1bbe 5346 b73d 8f48 d63c 55d9 0e3e
00000330: 189b 6a3e 3b61 07be 8dfc 46bc 4457 a4be
00000340: 0d37 a8bd 5108 9f3c 593b 6abd 31ce 02bd
00000350: cace db3c 23b3 103e 0c35 83bd ed33 4abe
00000360: 5b69 d0bd 0e8c 513e c0fb c43d 88af 353e
00000370: 5167 eb3c 64a7 45bd 5172 9d3d 2ebe 5c3e
00000380: 5803 87bd 3e24 483c 870b fabd 937a babd
00000390: 9986 c73d b661 05be 2696 fd3d 6757 98bd
000003a0: 1661 4d3d 9198 9cbd af40 51bd 0d16 f4bc
000003b0: 433d 99bc 8fce fd3d 673f 44bd 44e3 1fbe
000003c0: 769e 5b3d c759 b03d 7d5f 4b3d 7a85 50be
000003d0: 37b2 95bd 7cc6 f53d 18c2 37be 679d 083e
000003e0: 5410 7e3d 664a 173e fcd1 73be 4775 7abd
000003f0: be40 233e f59f 413e 9795 cabd 4b9b 803d
-0.075110696 -0.24364845 0.12414302 -0.048708923 0.0059892526 -0.28856277 -0.20743641 -0.06305522
-0.1810294 0.15969732 -0.2928125 -0.13755949 0.019397104 -0.011740547 -0.12557785 -0.19344483
0.2239889 0.042626396 -0.1588416 0.07525711 0.15033588 -0.05433647 0.19127697 0.26503906
0.18766586 0.032543816 -0.08690939 -0.00021470951 -0.24534774 -0.026668645 -0.22513248 0.17824072
-0.13674513 -0.00093793456 0.035850137 -0.14877552 0.20122643 -0.20133746 -0.12076725 -0.20189407
-0.10902436 -0.0053209877 -0.20371257 0.20642695 0.15564223 0.031400096 0.119476825 -0.19628692
-0.1539937 -0.038108394 -0.11136256 -0.07908531 -0.20959318 -0.055712603 0.09433224 -0.22901653
-0.21852152 -0.13533527 0.040954784 0.08388299 0.21347123 0.0010608861 -0.1908713 -0.13012795
-0.086825415 -0.19736214 -0.06727917 -0.11018888 0.024134431 0.03567174 -0.101901636 -0.022217132
0.021061538 0.1996477 -0.16362153 -0.19527365 0.22451296 -0.0061403606 -0.21014307 -0.16142169
-0.007946795 -0.03172333 -0.21366102 -0.16428633 0.044926956 -0.19629249 -0.06589268 0.20170066
-0.059189167 -0.18256581 -0.07922825 0.1560296 -0.046704054 0.06671264 0.20456138 0.022296377
-0.27041376 -0.080008395 0.22441565 0.035504565 0.22980833 -0.25410554 0.09020072 0.16830303
-0.17287746 -0.08409263 0.011175715 -0.071803465 0.14729786 -0.1553522 -0.16766904 -0.1424915
0.14467289 -0.11510343 0.038639523 0.16787736 0.056243423 -0.16437037 0.04530324 0.16725725
-0.023619998 -0.14889933 0.047248613 0.21239811 -0.07110872 0.19353183 -0.10481189 -0.1094371
0.10277603 -0.07224848 0.19648752 -0.20197591 -0.09574542 0.055704847 0.105120055 0.093825474
-0.24367955 0.09528349 0.04518204 -0.21282007 -0.05470256 0.12496588 -0.24636155 -0.028689412
-0.06465902 -0.14955759 -0.027942764 -0.10420723 -0.16422932 0.014432443 -0.07641304 0.07802107
-0.019132746 -0.12540558 -0.11896356 -0.11016148 0.20458673 0.059105627 -0.18676876 0.009151493
-0.07057442 0.031284302 0.08024643 0.16691439 0.20395344 0.15402122 0.06738015 -0.025740879
-0.010361902 -0.06151666 0.19287547 0.19538736 -0.2328736 -0.01993524 -0.23735166 0.12168441
-0.26691905 0.18070301 0.04864159 -0.11793941 -0.26203197 -0.008543208 0.14039604 0.20097065
-0.096448295 0.05787401 0.11387442 -0.1284327 -0.3142597 -0.14496998 0.20330335 -0.1553177
0.012421488 0.094942294 0.14478514 -0.08377078 0.11753145 0.11392009 0.09031444 -0.11865538
-0.15144402 0.0894896 0.026157646 0.13950093 0.22910726 -0.13220684 -0.012145174 -0.32097828
-0.08213625 0.019413145 -0.057185505 -0.03193492 0.026832003 0.14130835 -0.06406602 -0.1974637
-0.10176345 0.20463583 0.0961833 0.17742741 0.028735789 -0.04825534 0.0768782 0.21556923
-0.06592435 0.012215672 -0.1220923 -0.091054104 0.09742469 -0.13025555 0.12382154 -0.07438546
0.050141416 -0.07646287 -0.051087078 -0.02979567 -0.01870597 0.123929136 -0.047912028 -0.15614039
0.053617917 0.08610874 0.04965161 -0.20363417 -0.073093824 0.120007485 -0.17945135 0.13341294
0.06202729 0.14774475 -0.23810571 -0.061147 0.15942666 0.18908675 -0.09891813 0.0627962

lstm.weight_hh_l0_reverse f4 [80, 20]
00000000: ee77 3fbe 2a1e 1f3e 8124 913e c18f 88be
00000010: fc3d 69be 33a0 37be 451f 43be ad96 eebe
00000020: 35f9 bbbd 4f54 bcbd 87e1 9b3e 9254 843e
00000030: 35fc 7cbe 6ca9 adbe 6301 09be ae29 acbe
00000040: 51d3 e13d 5391 823e 9530 293e 53cb de3d
00000050: 711b 9dbe 69c7 85be ae1a 87be 7cd0 9f3e
00000060: 0a79 0bbe 58b0 ab3d 4331 89be bf8a 1b3e
00000070: a433 cd3d 468b 2c3e 4484 87bd fae5 a93d
00000080: 6312 563d 726f e3bd 3c5d 95bc 6f03 913d
00000090: eb03 d03d d86e 733e 094f c13d 9278 da3c
000000a0: e151 cbbc eb39 8cbe 39c8 a6bd e855 68be
000000b0: 20b8 b23c c2a7 24be 8b6d 08bd 195f 95bc
000000c0: 79d1 973e 721b b4be cf4e 863e 5a36 603e
000000d0: daa5 eabd 7f59 093e c041 9b3d b75d 77be
000000e0: 6d89 43bd 77c2 e73d 6096 13be d494 aebd
000000f0: 28c0 4b3e b1c1 123e 3fe1 043e 5a95 1cbe
00000100: 4250 58be a078 3c3e cd26 bb3d 0989 6a3d
00000110: 37e7 d0be dd43 55bc 6249 5cbd aac2 f7bc
00000120: 5ac5 98be bd53 d4bd 37f7 2fbe 137a 69bb
00000130: 0c46 9abd 0d1e ee3d a749 263e bdc8 873e
00000140: 34ae 6dbe 3693 a63d e3b6 27be 8b79 71bc
00000150: 7d92 43bd 34ab ba3d c2fa 7c3d 023c f13d
00000160: b8d3 a5bd 305a 09be 966e 5ebd 698d be3d
00000170: a1d2 663e 47ab 9dbe 69e2 dc3d 969b 5cbd
00000180: 3a6d a53e e1de 6e3e 7dd3 e03d 8aef 59be
00000190: b971 6f3d 851e 86bd 2fc6 2b3e 20eb 13be
000001a0: 93be 84be 68ca 4ebb 33e9 b3bd 9e37 c9bc
000001b0: 7a4a 94bd 29fe 4dbe 58e7 3f3e fe18 61be
000001c0: 3775 adbe 389e e0bd 5051 5bbe 6144 1fbe
000001d0: 5494 273c ba13 90be 6b5b 8c3d 807e 0e3e
000001e0: 823e c23d cc47 073e 7b6d 693d 5c18 023e
000001f0: eb98 1abd 7b7c f83e 4c63 473e 5fe9 24be
00000200: ad61 b2be b3bd 44be 9f2e 6abd 8633 063e
00000210: 4ad9 f23d 4c38 9fbd 16b1 94bd 7299 6cbd
00000220: 2cb2 14be e930 cf3e fbfe c53e 9c51 b53e
00000230: fb8a 8dbc f636 b7be b622 07be 4af4 893e
00000240: bfbe 1cbe d395 adbd b70b 203c fb16 193e
00000250: bfd0 41bd e3f4 f1bd e6af dc3b 2b13 593e
00000260: 3c91 313e 06c2 853d fa55 9f3d 1a61 a6bd
00000270: f060 85bc ee0e 7fbd d58f 55bd 5d68 53be
00000280: 2aa7 a0bd f69d 62be 1434 87be c413 323e
00000290: 28fa 34be 670d 3abe 013f e9bd cb78 23bc
000002a0: 6084 a93b d9c6 82be 8042 1abe 1e5d b23c
000002b0: 80bd 763c 63f5 afbe 257b f63c 0e97 c2be
000002c0: ff67 8d3e 593c 413e 11f3 90be e71d 1e3e
000002d0: bb30 ce3d 9f02 4d3e 6346 60be 868f ef3c
000002e0: 3bab 453d a37e 98bd 7394 4fbd 7c41 efbd
000002f0: 4dd8 053d 0aa6 23be 7e92 523e acda ad3d
00000300: 2887 ccbc 6d8b b1bd 76ac 64bd 1389 903d
00000310: 9222 e43d e272 2e3d c21a e83d 47cf 553e
00000320: bc8d a9bc 469b 983e af37 5e3d 0f1c b93c
00000330: 5e3d 113e 4606 01be 23eb c63e 3fa4 55bd
00000340: f324 a6bd 6edd 693e f571 293c 2390 1b3e
00000350: a0fb cbbc 661e be3d 28b1 3cbd ae12 0bbe
00000360: 2728 9f3d b0b8 d0be 5c44 a13d 1810 acbd
00000370: fe33 4dbe 3a4b 543e 9599 8dbc 517c 87be
00000380: f778 85be ec4a af3e a9ce f8bd 1fea 0fbe
00000390: 546b ebbc b9b8 e33c 789b b43d c0c3 24be
000003a0: 8393 a5be 4f78 a7be 42e8 c1be 0598 83be
000003b0: 8ca1 6d3d 299b bc3e fd23 523e 2dcb 953e
000003c0: ea70 16be 6f9c 333e db98 c73e 7c5c 7dbe
000003d0: 2b32 55be 4560 95bd 7441 7f3e 1afb b6be
000003e0: 36da bcbe 1da9 dfbd e11f 4d3d 2c08 283e
000003f0: 1208 a1be b21f 94be 4e88 b6bd 9941 00bf
-0.18698093 0.1553885 0.28348163 -0.26672176 -0.22777551 -0.17932205 -0.19054897 -0.46599331
-0.09178392 -0.09195768 0.304455 0.25845772 -0.24705584 -0.3391832 -0.13379435 -0.3362555
0.110266335 0.255015 0.16522439 0.10878625 -0.30685 -0.261287 -0.26387542 0.31213748
-0.13620391 0.08383244 -0.26795396 0.15189646 0.10019615 0.16850004 -0.066170245 0.08295818
0.05226363 -0.11105241 -0.018232934 0.07080733 0.10156997 0.23772752 0.09438903 0.02666882
-0.024819316 -0.27387938 -0.08143658 -0.2268902 0.021816313 -0.1607962 -0.033307593 -0.018233823
0.29652002 -0.3517719 0.26232 0.21895733 -0.11457415 0.13413046 0.075809 -0.24156843
-0.04773848 0.11316388 -0.14412832 -0.085244805 0.1989752 0.143317 0.1297655 -0.15291348
-0.21124366 0.1840539 0.0913826 0.057259593 -0.40801403 -0.013016668 -0.05378092 -0.03024419
-0.29838067 -0.10367534 -0.17184149 -0.003562574 -0.07532892 0.116268255 0.16239034 0.2652034
-0.23210984 0.08133547 -0.1637836 -0.014738451 -0.047747124 0.09114686 0.06176258 0.11779024
-0.08097023 -0.1341331 -0.05430468 0.093043156 0.22541286 -0.30794737 0.10785372 -0.053859316
0.32309896 0.23327209 0.10977838 -0.21282783 0.058458064 -0.0654879 0.1677482 -0.14445162
-0.25926647 -0.003155375 -0.087847136 -0.024562653 -0.07240768 -0.20116486 0.18740594 -0.2198219
-0.3387849 -0.10967678 -0.21417737 -0.15553428 0.010228235 -0.2814005 0.06853374 0.13915443
0.09484579 0.13210982 0.056989174 0.12704605 -0.03774349 0.4853247 0.19471473 -0.16104649
-0.34840146 -0.1921299 -0.057173368 0.13105592 0.11857851 -0.0777441 -0.07260339 -0.057763524
-0.14521092 0.40467003 0.38671097 0.35413826 -0.017278185 -0.3578412 -0.13196835 0.2694419
-0.15307139 -0.08475842 0.009768418 0.14950173 -0.047318216 -0.118142866 0.006734836 0.21198718
0.17340559 0.06531148 0.077800706 -0.081239894 -0.016281575 -0.062270097 -0.052139122 -0.2064528
-0.07844384 -0.2213057 -0.2640692 0.17390352 -0.17673552 -0.18169175 -0.1138897 -0.00997753
0.005173251 -0.25542334 -0.1506443 0.021772917 0.015059829 -0.34366903 0.030088017 -0.3800587
0.27618405 0.18870677 -0.28310445 0.15441094 0.10067888 0.20020531 -0.2190185 0.029243242
0.048259 -0.07446029 -0.05067868 -0.11682412 0.032676984 -0.15981308 0.20563695 0.08488974
-0.024966791 -0.086691715 -0.055828534 0.07057395 0.11139406 0.04259003 0.11333229 0.20879851
-0.020697467 0.29805964 0.054252323 0.022596387 0.14183566 -0.1260005 0.3885127 -0.05215859
-0.08112516 0.22838375 0.010342111 0.15191703 -0.024900258 0.09283142 -0.046067387 -0.13581344
0.0777133 -0.40765905 0.07874367 -0.08401507 -0.20039365 0.20731822 -0.017285148 -0.26462033
-0.2606885 0.34236848 -0.12148792 -0.14054154 -0.028737701 0.027798044 0.08818716 -0.16090298
-0.32339105 -0.32708976 -0.3787251 -0.2570192 0.05801539 0.36837128 0.20521541 0.29256573
-0.14691511 0.17540143 0.38983807 -0.24742311 -0.20819919 -0.072937526 0.24927312 -0.3573845
-0.36885232 -0.10920928 0.05007923 0.16409367 -0.3145147 -0.28930432 -0.08912717 -0.50100094

lstm.bias_ih_l0_reverse f4 [80]
00000000: d852 f23d 1604 393e 49da 713e 9a07 d4bd
00000010: c772 453d 0411 a8bd 720a b33d b362 f23d
00000020: 8860 3fbe 64db 13be c9bf 853e 7b35 73bd
00000030: fc03 4c3c c935 11be f0f8 573e 07db 963d
00000040: bae4 403e 2198 acbd 9cc7 023e 99d2 043e
00000050: ead2 0cbe 2197 f43d dbe7 b33d 990b ff3a
00000060: 3e83 babd 77b3 c1bb 283c 2d3d 0330 02be
00000070: bd50 e1bb c473 173e b1e6 d5bc 4bb8 923d
00000080: 93c4 343d 21ed 813e 3d15 e73d 909f 413e
00000090: 55ac 193b f656 58be b3da 873c 5925 49be
000000a0: 548a 023e 4847 e9bd 4eb2 5e3d 8188 dd3d
000000b0: 8695 9dbd c9aa 123c df96 64be 4741 653e
000000c0: e8ba e63d 66a5 b5bd b2bb 2d3e 049e 37bc
000000d0: c2b0 643e d35d fe3c 3fe9 b43d 81f3 dfbc
000000e0: e334 e7bd 2459 2bbe aa0e 0a3e 8aef 0ebc
000000f0: 5491 263e a5c9 8d3e e4db 17be eee8 cebc
00000100: d480 403e 9ad0 653e 54c7 cabd 9cc0 7c3e
00000110: eeca 0e3e 5495 03be 0407 01bd 61f0 683d
00000120: a65d 8abd ebbd 92bd d1dd 0ebe a74d 15be
00000130: 6a87 7f3e 2e8a 183e 7ec7 b6bb 4a8a c63d
0.118322074 0.18067965 0.23618425 -0.103530124 0.048205163 -0.082063705 0.08742227 0.11835232
-0.18689167 -0.1443916 0.26122883 -0.059377175 0.012452122 -0.14180674 0.21091056 0.07365995
0.18837252 -0.08427454 0.12771457 0.12970962 -0.13752332 0.11942888 0.08784457 0.0019458412
-0.09107064 -0.0059112865 0.042293698 -0.12713628 -0.00687608 0.14790255 -0.026110979 0.07164057
0.04413278 0.25376227 0.11283348 0.18908525 0.0023448665 -0.21126923 0.016583776 -0.19643153
0.1274808 -0.11390549 0.054369263 0.10817052 -0.07694535 0.008951851 -0.22323178 0.22388183
0.11266118 -0.08869438 0.16966131 -0.011207107 0.22333053 0.031050598 0.08833551 -0.027337791
-0.11289384 -0.16733223 0.13482156 -0.008724103 0.16266376 0.27692905 -0.14829975 -0.025257554
0.18799144 0.22442856 -0.099013 0.2468285 0.13944599 -0.12849933 -0.03150083 0.05686987
-0.06756143 -0.0716513 -0.13951804 -0.14580403 0.24954 0.14896461 -0.0055779805 0.09694345

lstm.bias_hh_l0_reverse f4 [80]
00000000: e960 c23d f808 2d3e ac67 633e 5d38 0e3e
00000010: 1dc6 41be 1cec 5f3e 6b56 993e e8bd 8d3e
00000020: 475c 10be d803 36bd 3c20 273e 9036 823e
00000030: c06f 12bd aa4c 3cbd 2d6e 4d3e c15e 0dbd
00000040: fcf4 2bbe 2d50 2dbe 92d9 e33d fb72 2d3e
00000050: b884 333e 2805 2fbd 0da0 383e c57e 0dbe
00000060: 806c 6c3e 0702 993e 27cd 0abd 2975 0d3d
00000070: 4843 48be 8b37 0ebd 21fe 673e 595f 3ebe
00000080: 7955 9f3d 2b8d 84bd b554 123e adae f0bd
00000090: c89c 323e 449c 50bd 374d b8bd 5a90 ccbd
000000a0: 9bf6 a93d 38e7 49be 9f87 20be 3495 f13d
000000b0: db74 81bd 67c3 043d b434 d13d ee06 82bc
000000c0: 784b 46be fb25 35be 65be 003e ee60 e7bd
000000d0: 5262 133e d545 36be d428 2abe c5d9 683e
000000e0: 74c0 9239 e990 80bc 720f 09be ef8b edbd
000000f0: c602 e83d b004 5b3d 8c21 113e 2489 c9bb
00000100: 0498 793e 8a8c 3b3d 9b59 92bd 95c0 833e
00000110: 23bf 11be 9877 1c3e deab b2bc 771d 8abd
00000120: 6149 6d3c a9e2 29bd 20bd 5fbe d863 ddbd
00000130: 675b 423e ae76 04be 818b 073e 909e 6f3d
0.094911404 0.16897953 0.22207516 0.13888688 -0.1892323 0.21867412 0.29948744 0.2768395
-0.14097701 -0.04443726 0.1632089 0.25432253 -0.035751104 -0.04597155 0.2006156 -0.034514192
-0.16792673 -0.16925116 0.111254826 0.16938393 0.17531097 -0.042729527 0.18029805 -0.1381789
0.23088264 0.2988436 -0.033887055 0.03453556 -0.19556916 -0.03472094 0.22655536 -0.1859106
0.077799745 -0.06472238 0.14290126 -0.11752067 0.1744262 -0.050930277 -0.089991026 -0.099884704
0.082989894 -0.19717109 -0.15676735 0.11796036 -0.063211165 0.032412913 0.102151304 -0.015872445
-0.19364727 -0.1769027 0.1257263 -0.11297785 0.14392975 -0.17800076 -0.16617137 0.22739322
0.0002799068 -0.015694099 -0.13384798 -0.11598956 0.11328654 0.053471267 0.14172953 -0.0061503816
0.24374396 0.045788325 -0.07145997 0.25732866 -0.14233069 0.15279996 -0.021810468 -0.06743901
0.014482827 -0.041475926 -0.21849489 -0.10810059 0.1898018 -0.12935898 0.1323681 0.058500826

lstm.weight_ih_l1 f4 [80, 40]
00000000: 56d6 893e 8aad 82bd 7a55 173e 4fe4 18be
00000010: f41d 8ebc 6566 163e eace f8bb 126c 75be
00000020: 94f9 0a3e 4e21 a6bd d095 73bd 7220 bcbd
00000030: 1a37 9d3e dff8 4d3e fd57 a03b 57b4 923c
00000040: 713d aabe 5746 6bbc 6eb4 8dbe 9515 59be
00000050: 6c28 4d3e 6d54 afbd acb2 93bc 6e76 9a3d
00000060: 24dd 0fbe e7a8 033e 5c47 3d3d 7618 e43d
00000070: ef5d 613e b7bf a0bd e4a5 553d 4688 003e
00000080: b896 3c3e 43c2 d93a b1b0 543e 49e1 c13c
00000090: cdc9 b43e 7bf0 1fbd dc17 15bd ccb5 34be
000000a0: 6979 223d a6ae 95be 2a87 9bbe 93da c83d
000000b0: 3e02 da3e 8475 84be 4c66 263e b10f c53d
000000c0: 7f1f 7abc 35ed 8bbc dc5f 74bd 1b82 653e
000000d0: b7eb 69be 1a29 9e3e 7acd 14be f1d7 aa3d
000000e0: f115 203e f525 bc3d 3026 0fbe 1f13 763e
000000f0: 5380 8dbe 7aef 76bd d24f 023c 3a8a 21be
00000100: 2053 1b3d 7e62 49be a108 613c 258c 323e
00000110: f311 afbd 19f0 82be ba2d 4abc b3ce 483d
00000120: 9817 1dbe 440b 1e3d aa5f 553e 8666 22bc
00000130: 1957 e73d 9553 c83d 9ac8 74be 9bb0 89bd
00000140: 4277 3ebe 13c8 cebd 7b98 db3c 8b8b dbbd
00000150: 9a43 2ebd 021b 96bd 652b 0a3e a98d 24be
00000160: e6ab 83be 95fd 04be 1eb0 c53d 2380 203e
00000170: 099f 713e 2a3d 513d 702b acbc 9e9d 4bbc
00000180: 2522 54bd c85a 573e 0e5d 6d3e 2655 81be
00000190: 098b 61bd 676a ecbd 3607 b3be 1627 19be
000001a0: a718 593e f496 dcbe 181b e9bd 09ef d63b
000001b0: d24f 6b3d 44d6 2ebb 7c3b 453e 39d0 9bbd
000001c0: af09 13be 8d7f 80be d431 34be 3063 a43c
000001d0: f0f9 973d b752 3a3e fdc5 ab3d 3fd0 9fbe
000001e0: af9c 40be 8331 01be e7e6 8cbc 8088 c93d
000001f0: 31d0 d73c 8aa2 0f3c b38f c4bd 4a92 213d
00000200: 31e8 9a3c 6c92 d33d dc54 81be 2f17 2c3e
00000210: 3f8a f53c 7a9c 9d3e 1fed e6bd 7627 7abe
00000220: fd03 77be 6191 323c 1b48 13bd fefa 913e
00000230: 8e8f 24be 7380 2cbe f749 d6bc 52e7 49be
00000240: e44b c9bc 1118 35be e3ef 8f3d 36ae 6fbe
00000250: 4d2d da3d 7b86 36be ecd5 833d 3a66 04be
00000260: cbd2 ddbd f949 75be 03ec d53d 5b8a 46be
00000270: dc6a 533d bbf7 d0be c300 1dbe 3bf3 84be
00000280: f82d ec3d 3791 383d 179f 88be 56dc fabd
00000290: 1a4f a7bd fed7 133e 508f 853d 6f9f 1b3e
000002a0: cc61 a73d 7496 c13d 0280 2bbe 8005 3c3c
000002b0: fcd4 59bd a83c 633e 23c2 13be ec2a 24be
000002c0: 156c 1fbe f10f 4f3e 3d9c 323a d12e 58bd
000002d0: 7e47 123d f63e 4dbe d4f0 55bd ccba 833e
000002e0: c85b aebd 824e 36be e70b 563e 303a 7ebd
000002f0: 1604 833e 77e1 f0bd 6ab0 1ebe e919 313d
00000300: 3f7c 80bd 35bb 49be 0d3f 5c3e 15fd c6bd
00000310: 7333 913e 26ec 6f3e 9360 92be 15ad 16be
00000320: 89f2 98bd 92f7 c73c 6c5e 59be 182a 0cbe
00000330: 0de7 123e 1af8 563e 210a b4bd f22b 173d
00000340: 5bfb 80be a18e 1abd 7a5c a5bc 5e62 103e
00000350: 144a e5bd fec8 a53d 2e77 acbe 9f59 8cbd
00000360: 9be1 813d 894b fa3d 7ddb bd3e 8c38 6dbd
00000370: 4239 263e aea4 5fbd cdbe 2c3e 600c 423e
00000380: afe3 03be f7af 113e 29ae c33e 0b20 39be
00000390: 886c 1f3e 1c41 43be 991e 743e e16a ee3c
000003a0: b96a f4bd 8255 57be 6564 0b3d 1edd 02be
000003b0: b1b6 34bd b2a0 ed3e 7345 6ebe 839d 2b3e
000003c0: cd81 f9bc 5ac3 123d a7b1 61be 1442 42bb
000003d0: 25d1 053d d715 5c3c e0c7 6e3d 6d85 503d
000003e0: 5801 2c3e 8504 12be 7ac3 713e 39aa 213e
000003f0: 276e 66bd d83c 393e b141 403d c5e8 2c3e
0.26921338 -0.06380756 0.147787 -0.14930843 -0.017348267 0.14687498 -0.0075930255 -0.23967007
0.13571769 -0.08111821 -0.059469044 -0.09185876 0.30706102 0.20114468 0.0048933015 0.017908258
-0.3325 -0.014360032 -0.2767672 -0.21199639 0.20034951 -0.08561025 -0.018029533 0.0754212
-0.14049202 0.128574 0.04621063 0.11137478 0.22008489 -0.07849067 0.05216016 0.12551984
0.1841687 0.0016613681 0.20770527 0.023666995 0.35310212 -0.0390477 -0.036399707 -0.17647475
0.039666567 -0.2923481 -0.3037656 0.09807315 0.42579836 -0.25870907 0.1624996 0.096221335
-0.015266298 -0.017080883 -0.05966173 0.22412913 -0.22843824 0.30890733 -0.14531508 0.08341969
0.1563337 0.09186927 -0.13979411 0.24030732 -0.27636966 -0.060286976 0.007953601 -0.15775385
0.03792107 -0.19666478 0.013734967 0.17436273 -0.085483454 -0.25573805 -0.012340004 0.04902525
-0.15341032 0.038584962 0.20837274 -0.009912139 0.112959094 0.09781567 -0.23904648 -0.06723138
-0.18600181 -0.10096755 0.026806107 -0.10719975 -0.04254494 -0.0732937 0.13493116 -0.16069664
-0.25717086 -0.12987359 0.09652732 0.1567388 0.23595823 0.05108372 -0.021016806 -0.012427716
-0.051790375 0.21030724 0.23180029 -0.25260276 -0.055064235 -0.11543732 -0.3496644 -0.14956316
0.2120081 -0.43083918 -0.11382121 0.006559257 0.05744917 -0.0026678005 0.19260973 -0.07608075
-0.14359163 -0.25097314 -0.17597133 0.020066828 0.07420719 0.18195616 0.08387373 -0.31213567
-0.1880977 -0.12616543 -0.017199947 0.098404884 0.02634439 0.00876678 -0.09597721 0.039446153
0.018909546 0.10330662 -0.25260055 0.16805719 0.029973147 0.30783445 -0.11275696 -0.24429116
-0.24122615 0.010898919 -0.035957437 0.28511804 -0.16070387 -0.16845874 -0.026158316 -0.19717148
-0.02457232 -0.17684962 0.07028177 -0.234063 0.10653172 -0.17824738 0.06437287 -0.12929621
-0.10831221 -0.23954 0.10445406 -0.19388716 0.05161558 -0.40814003 -0.15332322 -0.2596682
0.11532205 0.045060363 -0.26683876 -0.12249057 -0.08169384 0.14437863 0.06521475 0.15197538
0.0817295 0.09452525 -0.1674805 0.011475921 -0.053181633 0.22191107 -0.14429526 -0.16031998
-0.15568574 0.20220925 0.00068134425 -0.052779023 0.03571271 -0.20043549 -0.052231625 0.25728452
-0.085136 -0.17803386 0.20902978 -0.06206721 0.25589055 -0.11761754 -0.15496984 0.0432376
-0.06273698 -0.1970032 0.21508427 -0.0971624 0.28359565 0.23429927 -0.28589305 -0.14714463
-0.07468135 0.024410043 -0.21227425 -0.13687932 0.14345951 0.2099308 -0.087909944 0.036907144
-0.2519177 -0.037733678 -0.020185698 0.14100024 -0.1119577 0.08094977 -0.33684677 -0.06853031
0.06341859 0.122214384 0.3708152 -0.057915255 0.1623278 -0.05460041 0.1686966 0.18950033
-0.12879823 0.14227282 0.3821881 -0.1807863 0.15568745 -0.19067806 0.23839797 0.029103698
-0.11934418 -0.21028712 0.03403129 -0.12779662 -0.04411954 0.46411663 -0.2326868 0.16759305
-0.030457402 0.035830833 -0.22040425 -0.0029641436 0.03267016 0.013432941 0.058296084 0.050908495
0.16797388 -0.14259537 0.23609725 0.15787591 -0.056257393 0.18089616 0.04693765 0.1688567

lstm.weight_hh_l1 f4 [80, 20]
00000000: c64d 44bd c4d9 643d 0803 df3e 5fd5 9d3b
00000010: 1b04 6dbd 667b a33d 4307 72bd 8b93 8bbe
00000020: 3eb1 3abe 53e5 0d3e 8acb 613e ad11 c53d
00000030: 2667 39be bb2a 613c 3ab5 82be ebdf 663e
00000040: 864f 5bbe 571a 0cbe aa0a 24be 49c8 723d
00000050: 9abd 32be c1f1 6dbd 685a f6bc 18b7 16bc
00000060: 55cd eebd dbaf a83e 3013 883e 09a5 00be
00000070: 0ecb f5bb d646 82bd 9e1a d83d ceac d8bd
00000080: 3e27 7e3e 57ca 82be b075 4dbe d921 aebd
00000090: b2f9 51bc e9bf a3bd 3600 653e f34c d73d
000000a0: fa7e 973e 5cf8 e83d b347 9f3e 1150 58be
000000b0: 254f 6bbd 18ff b53e 0e2f 25be bf56 34be
000000c0: 8d40 1b3c 9eb8 843e d6dd 25bc f009 3abe
000000d0: f09f 42be 9200 5ebe 0f6f 72be 4e41 ca3c
000000e0: bee9 83bd 8565 96bc 5e77 1bbe 274c 10be
000000f0: 56e5 2bbd 332b 963e 72b8 b3bc c4e2 023e
00000100: 8690 173d 8dc0 333e 000d e8bd 12d0 42bd
00000110: 064c ad3d 8008 4a3e 8278 b33c bb33 ae3d
00000120: 2145 11be 2805 b83a 24cb 87be 68d2 b8be
00000130: 9dbe 4dbd c923 b13e f3c4 b1bc 02aa 103e
00000140: 95b6 323e 3a5e c83d 4cab dc3d a86b 793c
00000150: 9524 b0bd 6027 933e eb66 47bd 3691 c03d
00000160: 49ee 62be 1445 c8bd dce3 27bd d3fc a3bd
00000170: de3c 1dbe 5985 96bd 18dc 4dbe 44f4 ea3c
00000180: 85a3 babd 3f25 7e3d 136a 003d 8958 1bbe
00000190: 7724 61be 2e8b 77be c822 da3d 45dc dbbc
000001a0: 473d a1bd a1d5 cb3e ee32 b53d 3817 823e
000001b0: 572f 83be 6925 6c3e eb27 e83e e0e7 48bd
000001c0: 57db 5e3e 30e6 1abe 548b f6bd 28fc 263e
000001d0: 8e61 de3d 5665 933c 7946 e0be c600 e1bd
000001e0: 9123 7d3e a23e 78bd f9f3 783d 7315 11be
000001f0: c7a5 2f3d 2fe5 753e f1a6 21be 83b1 6c3e
00000200: 0e90 953e f6f5 79be 3fdf 843e 9ec5 d7bd
00000210: 15ea eebc e36e 84bd bcfe 8bbd 70ab 973d
00000220: ec7a fa3d 33c4 723e 6dc7 babe f400 36be
00000230: 97ba 3f3d 4dd1 8dbd 1f5c 6d3e a758 cd3c
00000240: 2d5d 8e3c 70c7 50be a8a2 edbd f4f5 a1bd
00000250: 5cb6 25be 9d1d 233d 0e35 593e 0850 42be
00000260: 2764 0c3d da3a edbc 5bb4 5fbe f09b 89bd
00000270: 20f2 193e 3172 2b3e 7767 8abd 8157 da3d
00000280: 122a f13d 4768 02be 22ef 023b df23 103e
00000290: 4872 723e c5f7 6b3d c238 72be 0f44 803e
000002a0: b0d3 5b3e 5f93 123e bcca c53d 8fb9 94be
000002b0: 5414 5ebe 800b c83d 20e8 aa3d 0f92 25be
000002c0: 7d89 bb3d 4d63 bdbb 85fe 8bbd bb10 b73d
000002d0: acef 203d 89b1 a33d de3a a9be 7342 d5bd
000002e0: c320 a2bd 64b3 a4bd 68cf 593d 8f52 0a3e
000002f0: c62c 7fbe a270 b3bd 3ccd 9a3e 9578 953e
00000300: d09a 393c a404 0d3e a4b4 0cbe e18a 80be
00000310: 81ab cbbd ddf7 6e3d 4744 0dbf 819e 143d
00000320: 5cbc 3f3e 8963 82be 64ee 893d 60ce a33c
00000330: 28b9 febc 4cda 363e 9901 fa3c 6938 b03c
00000340: 2d2a d7bd b439 4c3d 02f4 923e dffc 413e
00000350: 67f0 13be 9196 b1bd 0003 1bbe 88d2 9b3e
00000360: 0ca4 a13e 530a e1bd 8cd7 1d3d 7b8d 2cbe
00000370: 97a4 ff3d eaa4 0b3e 986f ca3d 0e57 a4be
00000380: fda4 213e c1f1 143a bd29 adbc effa adbd
00000390: f82f 973a 4a52 313e 8ed6 033e 4124 8b3e
000003a0: d2ca 953b b32d 84bc 7de7 16be 8f81 233d
000003b0: 2081 e93c baf4 7b3d 8a59 aebd 622d cc3b
000003c0: 5042 c53d 1a81 f93d bda8 28be 32bc 04bd
000003d0: 7e24 eebc 0670 123e fa30 29be 1771 483e
000003e0: a807 b1bd df92 c33e cce9 21bd c4d2 493e
000003f0: f284 18be 5ecb b1bb bcd5 bf3b 4a05 98bd
-0.047925733 0.05587174 0.43557 0.0048166956 -0.057865243 0.07982521 -0.059088957 -0.27261004
-0.18231675 0.13857011 0.220503 0.09622512 -0.18105754 0.013743098 -0.2552889 0.22546355
-0.21417055 -0.13681923 -0.16019693 0.059273038 -0.1745514 -0.058091883 -0.030072406 -0.009198926
-0.11660258 0.32946667 0.2657714 -0.12562956 -0.0075010126 -0.06361167 0.10551952 -0.10579835
0.24819657 -0.25544998 -0.20064425 -0.0850255 -0.01281588 -0.07995588 0.22363362 0.10512724
0.29589063 0.11375496 0.3110939 -0.21124293 -0.057448525 0.35546184 -0.16131231 -0.17611216
0.009475839 0.25922102 -0.010123691 -0.18167853 -0.19006324 -0.21679905 -0.23675178 0.024689343
-0.06441067 -0.018358955 -0.15182254 -0.1409155 -0.04196676 0.29329833 -0.021938536 0.12781817
0.037003063 0.17553921 -0.113306046 -0.047561713 0.08461766 0.19729805 0.021908049 0.085059606
-0.14186527 0.0014039623 -0.26522171 -0.36098027 -0.05023061 0.34597614 -0.021700358 0.14127353
0.17452462 0.09783597 0.1077486 0.015223421 -0.086007275 0.28740978 -0.048682135 0.09402697
-0.22161211 -0.097788006 -0.040988788 -0.08007207 -0.1535525 -0.07349653 -0.2010349 0.028680928
-0.0911322 0.06204724 0.03135116 -0.15170492 -0.21986566 -0.24174187 0.10651165 -0.026838431
-0.07873016 0.39811423 0.08847605 0.2540834 -0.25622055 0.23061146 0.45342955 -0.04904926
0.21763359 -0.15126872 -0.120382935 0.16307127 0.10858451 0.017992657 -0.43803766 -0.10986476
0.24720599 -0.060606606 0.060779545 -0.14168338 0.042882707 0.24013208 -0.1578634 0.2311459
0.29211468 -0.24410233 0.25951573 -0.10535739 -0.029164353 -0.064664625 -0.06835696 0.07405746
0.12230477 0.23707657 -0.36480275 -0.17773801 0.046808805 -0.069246866 0.23179673 0.025066687
0.017378414 -0.2038858 -0.1160329 -0.0790824 -0.16182846 0.039823163 0.21211645 -0.18975842
0.0342752 -0.028958727 -0.21846144 -0.06719196 0.1503377 0.1674278 -0.067580156 0.10661221
0.117756024 -0.12735091 0.001997896 0.14076184 0.23676407 0.05760934 -0.23654464 0.25051925
0.21467471 0.1431403 0.09657809 -0.2904782 -0.21687442 0.097678185 0.083450556 -0.16168998
0.09157083 -0.00577966 -0.06835655 0.08938738 0.03929107 0.079928465 -0.33052725 -0.10413065
-0.07916405 -0.080420285 0.053176314 0.13508056 -0.24919423 -0.087617174 0.30234706 0.2919356
0.011328414 0.13771302 -0.13740784 -0.25105956 -0.09944821 0.05834185 -0.5518231 0.036283974
0.18724197 -0.25466564 0.067349225 0.019995868 -0.031094149 0.17856711 0.03051834 0.021511273
-0.10506091 0.049859717 0.28701788 0.18944119 -0.14447175 -0.086712964 -0.15137863 0.3043406
0.3157047 -0.10988297 0.03853564 -0.16850846 0.12482565 0.13637128 0.09884566 -0.32097667
0.15785594 0.0005681776 -0.021138066 -0.084951274 0.0011534682 0.17316547 0.12874815 0.27176097
0.004571297 -0.016135072 -0.14736743 0.03991848 0.028503954 0.061512686 -0.08513172 0.006230996
0.09631789 0.12182827 -0.16470619 -0.03240604 -0.029070135 0.14300546 -0.1652259 0.1957439
-0.086440384 0.3819799 -0.039529607 0.19709307 -0.14894465 -0.0054258546 0.0058543365 -0.07422884

lstm.bias_ih_l1 f4 [80]
00000000: 0103 15be 1737 af3d 7a2c cdbd 3efc 043e
00000010: b3c7 e03d 4ae9 45bd 98db f1bc da59 a93c
00000020: eda3 1dbe 2ac6 20bd d517 38bd 9b35 38be
00000030: 596b 1dbe 39a7 82bd 44af 06bc e603 443e
00000040: c992 d3bc 6b7a 673e f6dd 40be 3c17 8fbc
00000050: df90 ca3d 65f5 5e3e f38c 3f3e 0e86 1e3d
00000060: 3270 f9bd 1ebc 3fbc 9994 213e f602 833e
00000070: 1514 863e b9fb 453e 87aa a1bd 2adb edbb
00000080: 669e 3ebd a440 833c cf4b 873d a1c2 353e
00000090: 7d9b 933e f5e8 85bd 2fd8 0c3e 8c37 cb3d
000000a0: c009 53bd 8f07 6abd bdf0 213e eeff 9e3d
000000b0: 0646 b5bd 314c e23c 672c 0f3e 8944 ed3d
000000c0: 4f38 2d3d 9166 2dbe 1dce 163e 9c6a 173e
000000d0: 3ddb bc3d e314 a6bd 7e72 09be d0eb 693e
000000e0: 0475 dfbd 8019 413e 1d49 0cbe 30c6 ed3d
000000f0: 71b2 033e 2c09 543e bb1d 093e 5b59 be3c
00000100: 0b51 a5bc ca2b 463e fa53 2abc 9600 543e
00000110: 7862 873d 03cb a53d a2aa ffbd ae6f 143e
00000120: 29ca 1cbd a16c 913d ad84 a03c 14e0 8d3e
00000130: f40b c43c 44b7 c5bd e349 283e 87e3 c23e
-0.14551927 0.085554294 -0.10018249 0.12986848 0.109755896 -0.048318185 -0.029523656 0.020672727
-0.15394564 -0.039251484 -0.044944603 -0.17989199 -0.15372981 -0.063795514 -0.0082204975 0.19142112
-0.025826829 0.22605292 -0.18834671 -0.017467134 0.09890913 0.21773298 0.18706112 0.038702063
-0.12179603 -0.0117025655 0.15779342 0.25588197 0.26187196 0.19334306 -0.07893854 -0.0072587924
-0.04653778 0.016022034 0.06606256 0.17750026 0.28829566 -0.06538574 0.13754342 0.09922704
-0.05152297 -0.057136115 0.1581449 0.077636585 -0.088512465 0.027624222 0.13981782 0.11585338
0.04229003 -0.16933657 0.14727063 0.14786762 0.09221504 -0.081094526 -0.13422582 0.22843862
-0.10910991 0.18857384 -0.13699766 0.11610067 0.12861039 0.20706624 0.13390248 0.023235967
-0.020180246 0.19352642 -0.010395998 0.20703349 0.06610578 0.08095362 -0.124837175 0.14495727
-0.038278732 0.071007974 0.019594515 0.2771002 0.023931481 -0.09654096 0.16434436 0.38064215
