data/embD/hoc4/model_2/hoc4_best.pt (torch, 341645 bytes, 87 tensors)

embedding.weight f4 [6, 20]
0	0x00000000	0.0
1	0x00000000	0.0
2	0x00000000	0.0
3	0x00000000	0.0
4	0x00000000	0.0
5	0x00000000	0.0
6	0x00000000	0.0
7	0x00000000	0.0
8	0x00000000	0.0
9	0x00000000	0.0
10	0x00000000	0.0
11	0x00000000	0.0
12	0x00000000	0.0
13	0x00000000	0.0
14	0x00000000	0.0
15	0x00000000	0.0
16	0x00000000	0.0
17	0x00000000	0.0
18	0x00000000	0.0
19	0x00000000	0.0
20	0x3fa0cbfc	1.2562251
21	0xbe42bfaa	-0.19018427
22	0xbf985631	-1.1901304
23	0x3ed77c3f	0.4208698
24	0x3f54b653	0.83090705
25	0x3df05318	0.11734599
26	0x3f9dd9f5	1.233214
27	0xbfdac016	-1.708987
28	0xbf7e290c	-0.9928138
29	0xbdbb06ef	-0.09132182
30	0x3eb6fa03	0.3573762
31	0x3e85cf58	0.26134753
32	0x3fcf6096	1.6201351
33	0x4009d568	2.1536503
34	0xbfcb5756	-1.5886028
35	0xbfbfea08	-1.4993296
36	0x3f23f75c	0.64049315
37	0xbf1b1833	-0.605838
38	0x3fcdbb07	1.6072701
39	0xbfc5929f	-1.543537
40	0xbf4c9dd3	-0.7992832
41	0x4000946a	2.0090585
42	0x3f496a51	0.7867785
43	0x3fa8d9ca	1.3191464
44	0xbf6b86f7	-0.92002815
45	0xbf4b1c5c	-0.7934015
46	0x3e794341	0.24342062
47	0x3f7d7079	0.98999745
48	0x3f81a42d	1.0128227
49	0x3fbc8f5a	1.4731247
50	0xbc8d9ae8	-0.01728578
51	0xbed374c3	-0.4130002
52	0xbf2c8c1b	-0.67401284
53	0xbee2a8ba	-0.44269353
54	0xbfff3aaa	-1.9939778
55	0x3f94efd1	1.1635686
56	0xbf1681b2	-0.5879165
57	0x3dbdb86b	0.092636906
58	0xbdeaaf5c	-0.114592284
59	0x3f55b356	0.8347677
60	0xbf408b30	-0.75212383
61	0xbff26b5f	-1.8939017
62	0xbf2a92ef	-0.6663045
63	0xbfb28447	-1.3946618
64	0x3ef8b69b	0.48576817
65	0xbf5a4c35	-0.8527253
66	0xbf197521	-0.5994435
67	0x3d7090f3	0.058731984
68	0xbf2a8f72	-0.6662513
69	0x3e5f5942	0.21811393
70	0xbedd1fcd	-0.43188325
71	0xbeef8920	-0.46784306
72	0x3f47dcc8	0.7807126
73	0xbee3e525	-0.4451076
74	0xbed93e99	-0.4243057
75	0x4001593f	2.0210721
76	0x3f1fed24	0.6247122
77	0xbe8fa5a5	-0.28056064
78	0xbf1bb1ae	-0.6081799
79	0xbe9af37c	-0.3026389
80	0x3f98ab36	1.192725
81	0xbfb9d4b0	-1.4518032
82	0xbdda1a9a	-0.10649605
83	0x3fcb6f5c	1.5893359
84	0xbefcd21e	-0.49379057
85	0xbe1e46cc	-0.15456694
86	0x3e6a4e19	0.22881354
87	0x4004f876	2.0776649
88	0xbfced7c4	-1.6159596
89	0xbdb5b2be	-0.08871983
90	0xc017325d	-2.362449
91	0xbf65ea89	-0.89811
92	0x3f947425	1.1597944
93	0x3e79ccc6	0.24394521
94	0xbede9688	-0.4347422
95	0xbed6eb2c	-0.41976297
96	0xbf11a957	-0.5689902
97	0x3f6552cf	0.8957948
98	0x3ed3fd13	0.41404018
99	0xbf354ef2	-0.70823586
100	0xbe1f2846	-0.15542707
101	0x3fff530f	1.9947222
102	0x3f2fe249	0.6870466
103	0xbec94da6	-0.39317054
104	0xbe2a0359	-0.1660284
105	0xbf79a670	-0.9751959
106	0xbdd7a1fc	-0.10528943
107	0x3f6ddf27	0.9291863
108	0xbe70dff6	-0.23522934
109	0xbf58f1df	-0.84744066
110	0xbf20053c	-0.6250799
111	0x3f118919	0.5684982
112	0xbd82d865	-0.0638893
113	0xbf15fe81	-0.5859147
114	0xbedd31c4	-0.4320203
115	0x3f107c16	0.5643934
116	0xbf2ffc42	-0.6874429
117	0x3fcfbab7	1.6228856
118	0xbedf68db	-0.43634686
119	0x3d43422d	0.047670532

lstm.weight_ih_l0 f4 [80, 20]
0	0xbe711c8c	-0.23546046
1	0x3da7c3d7	0.0819165
2	0xbe60a153	-0.2193654
3	0xbdce678e	-0.10078345
4	0xbe1b07bc	-0.15139669
5	0xbe1cb83c	-0.15304655
6	0x3dbcef1d	0.09225295
7	0xbd98fcd6	-0.074701
8	0x3dc11b4c	0.094290346
9	0xbdde1516	-0.108438656
10	0xbdc7166d	-0.09721074
11	0x3c903519	0.017603444
12	0xbe21d231	-0.15802838
13	0xbe4a8783	-0.19778256
14	0xbde96d06	-0.11397748
15	0xbe23678c	-0.15957469
16	0x3db0cdcd	0.086330034
17	0xbe5a774b	-0.21334569
18	0xbbc9f815	-0.006163607
19	0x3e54cb20	0.20780611
20	0x3e11cdb1	0.14238621
21	0x3b1682bc	0.0022966107
22	0x3d856a00	0.065143585
23	0xbd97895d	-0.07399247
24	0xbe26ff4f	-0.1630833
25	0x3de36973	0.11104097
26	0xbdd03655	-0.10166613
27	0x3e1fb739	0.15597238
28	0x3e20e18b	0.15711038
29	0xbdb7d75e	-0.08976625
30	0xbdf1c8d5	-0.11805884
31	0xbe06235b	-0.13099425
32	0xbde3b74b	-0.11118945
33	0xbcd98bfa	-0.026556004
34	0xbe7deb48	-0.24796784
35	0x3da7712b	0.08175882
36	0xbe358745	-0.17727382
37	0x3e0ad396	0.13557276
38	0x3e5d86c9	0.21633448
39	0xbdd7054f	-0.104990594
40	0x3e2cc402	0.16871646
41	0x3e09375c	0.13400024
42	0xbda52203	-0.08063128
43	0xbe0d984a	-0.13827625
44	0x3dbfb7b8	0.093612134
45	0xbe4f446c	-0.20240945
46	0x3da1fce1	0.07909561
47	0xbe44aca4	-0.19206482
48	0x3e7631ca	0.2404243
49	0xbd420aa1	-0.047373418
50	0x3e3af612	0.18257931
51	0xbd81b7ff	-0.063339226
52	0xbd297f43	-0.04138113
53	0xbe2fcbce	-0.17167589
54	0x3c25193d	0.010076818
55	0x3d749770	0.059714735
56	0x3d53aadd	0.05167662
57	0xbd463a2a	-0.048395313
58	0x3bcb9245	0.006212505
59	0x3deeda6a	0.11662753
60	0x3d80a35d	0.06281159
61	0xbc9db304	-0.0192504
62	0x3dc13746	0.09434371
63	0xbdbcfa2c	-0.09227404
64	0x3da207fa	0.07911678
65	0xbe6f1192	-0.23346546
66	0x3d798108	0.06091407
67	0x3a178e7a	0.00057814235
68	0xbe62f05d	-0.22162004
69	0x3e0e9c25	0.13926752
70	0xbdba5856	-0.0909888
71	0x3ddde7df	0.108352415
72	0x3df693f0	0.120399356
73	0x3c1d1766	0.009588098
74	0x3e332e84	0.17498213
75	0xbd16af80	-0.036788464
76	0xbdded2f1	-0.10880078
77	0x3e4341d9	0.19068088
78	0xbe521f1a	-0.20519677
79	0x3e3e2cc3	0.18571763
80	0x3c2cce95	0.0105473
81	0xbc45aadc	-0.012064662
82	0xbe4491fd	-0.19196315
83	0x3de13443	0.10996296
84	0x3e4f4c1a	0.20243874
85	0xbdc26772	-0.09492387
86	0x3e03c0a8	0.12866461
87	0xbdfd506f	-0.12368857
88	0x3daa177b	0.0830526
89	0x3e3d9bc5	0.18516453
90	0x3d9a2de0	0.07528281
91	0xbe3eef95	-0.18646081
92	0x3cec50e8	0.028847173
93	0x3e5fbe1b	0.21849863
94	0x3e0939ae	0.1340091
95	0xbd918bec	-0.07106766
96	0x3de7d0de	0.11319135
97	0x3d0468c8	0.03232649
98	0xbe060747	-0.13088714
99	0xbe8cdefa	-0.27513868
100	0xbe6ca957	-0.23111473
101	0xbe19a7f0	-0.1500547
102	0xbe300be3	-0.17192034
103	0xbe552238	-0.20813835
104	0xbd7c326f	-0.061571535
105	0xbd9597f0	-0.073043704
106	0x3e1466c4	0.14492327
107	0xbe174a5e	-0.14774463
108	0x3cbc06fc	0.02295255
109	0xbd9cc742	-0.07655193
110	0x3e0ad779	0.13558759
111	0x3dfca804	0.12336734
112	0xbdbee8d6	-0.09321754
113	0x3e6fcad3	0.23417215
114	0xbca5584e	-0.020183709
115	0x3e5f112e	0.21783897
116	0x3e7c7b0d	0.24656315
117	0x3e11041b	0.14161722
118	0xbd94d739	-0.07267613
119	0xbd7c5178	-0.061601132
120	0x3cb190e2	0.02167553
121	0xbe103113	-0.1408122
122	0x3ce36b1b	0.027761033
123	0xbb050329	-0.0020296073
124	0x3e3e2577	0.18568979
125	0xbe5192e0	-0.20466185
126	0x3d7c0a81	0.061533455
127	0xbcd2463f	-0.025668262
128	0xbe92ecbe	-0.28696245
129	0x3e354627	0.17702542
130	0xbd2dd7da	-0.04244218
131	0xbe080283	-0.13282208
132	0x3dddd6c7	0.10831981
133	0x3e3c04d2	0.18361214
134	0xbd7b4894	-0.061348513
135	0xbcbd47f4	-0.023105599
136	0x3d8860af	0.06659066
137	0x3d1b8583	0.037969124
138	0x3d44db68	0.048060805
139	0xbe8c03d6	-0.27346677
140	0x3c005058	0.007831655
141	0xbc30f060	-0.010799497
142	0xbe378e57	-0.17925392
143	0xbda758fa	-0.08171268
144	0xbded4ffe	-0.11587523
145	0x3d305126	0.04304614
146	0x3de28798	0.11061019
147	0xbd17786e	-0.036980085
148	0xbd384313	-0.044985842
149	0xbd77eb6a	-0.060527243
150	0x3e02a280	0.12757301
151	0xbe2d9830	-0.16952586
152	0xbdd40baf	-0.10353791
153	0xbd07e892	-0.03318078
154	0x3da56f1b	0.08077832
155	0x3cb545bf	0.022127984
156	0x3da71c28	0.08159667
157	0xbdfa88f1	-0.12233151
158	0xbe26da64	-0.16294247
159	0xbe34603b	-0.17614834
160	0xbca7dc69	-0.020490842
161	0xbde20599	-0.11036224
162	0xbd88fb96	-0.06688611
163	0x3dc6787d	0.0969095
164	0x3d25e72c	0.040503666
165	0xbe4649fb	-0.19364159
166	0x3e53d5c1	0.2068701
167	0x3e467758	0.19381464
168	0x3e395f9c	0.18102878
169	0xbd2f6645	-0.04282214
170	0xbe548ff5	-0.2075804
171	0xbc432733	-0.011911201
172	0x3d2381a3	0.039918553
173	0x3d190feb	0.037368696
174	0xbe8eda49	-0.27900913
175	0x3e9289ba	0.28620702
176	0x3e5431ce	0.20722124
177	0xbe17017d	-0.14746661
178	0xbdc09020	-0.0940249
179	0xbd144389	-0.03619722
180	0x3dbdfbbe	0.09276532
181	0xbd0b38f4	-0.03398986
182	0xbda3f84a	-0.08006342
183	0x3d941a49	0.07231576
184	0x3d8c4984	0.068499595
185	0xbd2ee34f	-0.042697247
186	0x3dc4cd98	0.096095264
187	0x3e5d5277	0.21613489
188	0xbcda0c85	-0.026617298
189	0x3d930296	0.071782276
190	0x3e1eb58b	0.1549894
191	0xbdfe44e9	-0.12415487
192	0xbdafecf7	-0.08590119
193	0xbe135bc3	-0.14390473
194	0xbe645717	-0.22298847
195	0x3d1fc258	0.0390037
196	0x3defea20	0.11714578
197	0xbe1f7e73	-0.1557558
198	0xbe3a08ec	-0.18167466
199	0x3d93fae3	0.07225587
200	0xbe028455	-0.12745793
201	0x3db67909	0.089098044
202	0x3de85a83	0.11345389
203	0xbe7618b0	-0.24032855
204	0xbd790eef	-0.060805257
205	0xbd8df339	-0.06931157
206	0xbd8a3e8c	-0.06750211
207	0xbda4f8e2	-0.08055283
208	0x3d39e951	0.045388523
209	0xbc93e220	-0.01805216
210	0xbdc32ff9	-0.095306344
211	0xbccd66a7	-0.025073363
212	0x3e04b327	0.12958966
213	0xbe6dcaa0	-0.23221827
214	0xbe88d8a3	-0.2672778
215	0x3da76fc8	0.081756175
216	0xbd0270ec	-0.031845972
217	0x3e55465a	0.20827618
218	0xbe02da8b	-0.1277868
219	0xbe5e5300	-0.2171135
220	0x3de5feab	0.11230215
221	0x3e54542f	0.20735238
222	0xbd07d0e0	-0.033158183
223	0x3d811c8c	0.06304273
224	0x3c5ad40f	0.013356223
225	0xbdb94e8c	-0.09048185
226	0x3e4670e9	0.1937901
227	0xbe43cfac	-0.1912219
228	0xbd91a9b2	-0.07112445
229	0x3e561616	0.20906863
230	0x3ebf2373	0.37331733
231	0x3bf06a45	0.007336887
232	0x3d6bbfe1	0.057556037
233	0xbde779b3	-0.11302509
234	0xbe3fc5fc	-0.18727869
235	0x3dc16877	0.09443753
236	0xbbb28648	-0.0054481365
237	0x3de15d17	0.110040836
238	0x3cc30211	0.023804696
239	0xbd89ee88	-0.06734949
240	0x3e2ac41a	0.1667637
241	0x3e5bbbe2	0.2145839
242	0xbd61add4	-0.055097416
243	0xbc4f3777	-0.012647501
244	0x3b7ecbf6	0.0038878894
245	0xbde2e5a3	-0.11078956
246	0x3e3b47c4	0.18289095
247	0xbc0ca114	-0.008583326
248	0x3d32ea44	0.043680444
249	0x3c7cb56a	0.015424112
250	0x3db1fa40	0.086903095
251	0x3e82fbf3	0.25582847
252	0x3ce45610	0.027873069
253	0x3dba9079	0.09109587
254	0x3e708f27	0.23492108
255	0xbe09b260	-0.13446951

lstm.weight_hh_l0 f4 [80, 20]
0	0xbe846457	-0.25857803
1	0x3c0aa98b	0.008463274
2	0xbdbdb2fb	-0.092626534
3	0x3d4bb2e0	0.049731135
4	0xbe8845e3	-0.2661582
5	0xbe239220	-0.15973711
6	0xbe39ee6d	-0.18157358
7	0xbd04c8b3	-0.032417964
8	0xbdff3d5a	-0.12462874
9	0xbe2533fa	-0.16133109
10	0x3e914ac0	0.28377342
11	0x3d7e8136	0.062134944
12	0x3ec8e27f	0.39235303
13	0xbda36eb2	-0.07980098
14	0x37c16760	2.305553e-05
15	0xbe746c66	-0.23869476
16	0xbdaefb0c	-0.08543977
17	0x3c93ca3c	0.018040769
18	0x3e6a3a73	0.22873859
19	0xbda85431	-0.08219183
20	0x3dc6fa04	0.097156554
21	0xbd0821a8	-0.033235222
22	0xbe480646	-0.19533643
23	0x3c5c8ec4	0.013461772
24	0x3d4dd787	0.05025437
25	0x3dcc0fb7	0.09963935
26	0x3e9e5c68	0.30929875
27	0x3e6db937	0.23215185
28	0x3e43b215	0.19110902
29	0x3ab0fec0	0.0013503656
30	0xbea10a22	-0.31453043
31	0xbdb72bcf	-0.08943903
32	0xbd19dd08	-0.037564307
33	0xbe67ac18	-0.22624242
34	0xbe0b8168	-0.13623583
35	0xbe58b692	-0.21163395
36	0x3d59a62c	0.05313699
37	0xbd5d0703	-0.053961765
38	0xbd3bc506	-0.045842193
39	0x3dbd38c3	0.09239342
40	0xbd6c91b4	-0.05775614
41	0xbda4232a	-0.080145195
42	0xbd8b892c	-0.06813273
43	0x3e0fd4d6	0.14046034
44	0x3be31301	0.0069297557
45	0xbcca8895	-0.02472333
46	0x3e80ed20	0.25180912
47	0xbdaef2de	-0.08542417
48	0x3d8df221	0.06930948
49	0xbdc1d053	-0.09463563
50	0xbd484152	-0.04889042
51	0x3e51dcd0	0.2049439
52	0xbcf7a8f6	-0.030231934
53	0xbb3425f5	-0.0027488444
54	0x3d687e6f	0.0567612
55	0xbda57f3b	-0.08080908
56	0xbe20ebfb	-0.1571502
57	0xb989f2d0	-0.00026311586
58	0x3cec9ba9	0.028882818
59	0xbe1db4e9	-0.15401043
60	0xbec11e7e	-0.37718576
61	0x3e192146	0.14954099
62	0xbed46841	-0.4148579
63	0x3d608111	0.054810587
64	0x3e2a12ea	0.16608778
65	0xbd36191c	-0.04445754
66	0x3e5b4f66	0.21417007
67	0xbe800d21	-0.25010017
68	0xbebc34e4	-0.36759102
69	0x3d580098	0.05273494
70	0x3e8913e3	0.26772985
71	0xbba8e731	-0.0051545133
72	0xbd10ae77	-0.035322633
73	0xbd4c1dae	-0.049832992
74	0x3e01be42	0.12670234
75	0x3ec98767	0.39361116
76	0xbe294620	-0.16530657
77	0x3e672714	0.22573501
78	0xbe271afa	-0.16318884
79	0xbe3b5710	-0.1829493
80	0x3e2eff4a	0.17089573
81	0x3e6409b0	0.2226932
82	0x3e436f60	0.19085455
83	0x3e172e47	0.14763747
84	0x3e101501	0.14070512
85	0xbdecc392	-0.115607396
86	0xbe542238	-0.20716178
87	0x3e60201e	0.21887252
88	0x3e027b74	0.12742406
89	0x3e6bbb40	0.23020649
90	0x3daf9f88	0.0857535
91	0xbe2943f6	-0.16529831
92	0xbd0ac5b1	-0.03387994
93	0xbd0f3d1d	-0.03497039
94	0xbe48ce64	-0.19609982
95	0xbe5c6c2c	-0.2152564
96	0xbe798c6e	-0.24369976
97	0xbe854ec9	-0.2603667
98	0x3ecf5167	0.40491793
99	0x3dcf6526	0.101267144
100	0xbd95c52e	-0.07313
101	0xbbf97df0	-0.00761389
102	0x3dcd0756	0.10011165
103	0x3c8e16e7	0.017344905
104	0xbdd01b72	-0.10161485
105	0x3e237972	0.15964296
106	0x3deaba9e	0.11461376
107	0xbd95f092	-0.07321276
108	0x3dbd36e8	0.09238988
109	0xbe3ea0ce	-0.1861603
110	0xbdcfc2aa	-0.10144551
111	0x3ceb8dcd	0.02875414
112	0xbe5635fa	-0.20919028
113	0xbce90de0	-0.028448999
114	0xbb926e82	-0.00446874
115	0xbd10a8f8	-0.03531739
116	0xbd5cd6b9	-0.053915713
117	0x3d872b0f	0.0660001
118	0x3c1d2605	0.009591584
119	0x3d4ca972	0.049966283
120	0x3ea8ad44	0.3294469
121	0xbe8743dd	-0.26418963
122	0x3e868767	0.2627518
123	0xbe51b5f8	-0.20479572
124	0xbe96dfb9	-0.29467562
125	0x3dc724b1	0.09723795
126	0x3e0cbdc1	0.1374426
127	0xbe3575af	-0.17720674
128	0x3c17b01e	0.009258298
129	0xbea96937	-0.33088085
130	0xbe0d95d3	-0.13826685
131	0xbddd0975	-0.107928194
132	0xbcd6843b	-0.0261861
133	0x3ebc3b3e	0.36763948
134	0x3ea46622	0.3210917
135	0xbefe2297	-0.49635765
136	0x3dca8c26	0.098900124
137	0xbdffce06	-0.12490468
138	0x3e842a08	0.25813317
139	0x3e88b8a3	0.26703367
140	0xbea6de53	-0.32591495
141	0xbc2ca1c4	-0.010536615
142	0xbded0d74	-0.115748316
143	0x3e30dc9a	0.17271653
144	0x3e1ec75a	0.15505734
145	0xbd7db3e5	-0.06193914
146	0xbe2d3b15	-0.1691707
147	0xbc92fac5	-0.017941842
148	0x3cc01a6e	0.023450103
149	0x3e487d71	0.19579102
150	0x3e4ee8ff	0.20206068
151	0xbea18370	-0.3154559
152	0x3ca0e7f1	0.019641848
153	0x3e6eaae7	0.23307382
154	0xbdcf8398	-0.101325214
155	0x3e94c01c	0.29052818
156	0x3c0e0e3c	0.008670386
157	0xbe52ec6d	-0.20598002
158	0xbe979070	-0.29602385
159	0xbe85df28	-0.26146817
160	0x3e52d9d3	0.20590906
161	0x3e16e8c4	0.1473723
162	0x3e3d2d95	0.1847442
163	0x3cc71bb7	0.024305208
164	0xbdaed422	-0.08536555
165	0xbe05a776	-0.13052163
166	0xbd2a45e8	-0.041570574
167	0xbe97fa5f	-0.29683205
168	0x3bf3a2c1	0.0074351733
169	0x3e521d40	0.2051897
170	0xbd0fc47e	-0.0350995
171	0x3cb0acfb	0.021566859
172	0x3da2b8bb	0.07945391
173	0x3dafe4bf	0.08588552
174	0x3d3de72c	0.04636304
175	0xbc946a2e	-0.018117037
176	0xbe1bd7ba	-0.15219012
177	0xbdd3d917	-0.10344141
178	0x3d818b57	0.06325405
179	0x3deba098	0.1150524
180	0x3dbb9879	0.09159941
181	0x3e2e1020	0.16998339
182	0x3d8caf7d	0.06869409
183	0xbdd37d1b	-0.10326596
184	0x3e8d31b6	0.2757699
185	0xbd1fd095	-0.03901728
186	0x3b20a3d4	0.0024511712
187	0xbdda50d8	-0.10659951
188	0xbe4e7e9d	-0.20165487
189	0x3e9c4611	0.30522206
190	0xbe2f9962	-0.17148355
191	0xbe6ea1fb	-0.23303978
192	0xbe77e441	-0.24208166
193	0x3e0bc5fe	0.13649747
194	0x3d9d7abf	0.076894276
195	0xbe27164d	-0.16317101
196	0xbd51163e	-0.051046602
197	0xbdc2497a	-0.09486671
198	0xbe48dc2d	-0.1961524
199	0x3e93c4a1	0.28860953
200	0xbeea89d6	-0.45808285
201	0x3ec6e323	0.38845167
202	0xbc51ece5	-0.012812828
203	0x3d8d073f	0.06886148
204	0x3e446eeb	0.19182937
205	0xbdeb37ac	-0.11485228
206	0xbded36e0	-0.11582732
207	0x3e511866	0.20419464
208	0xbd2a004f	-0.0415042
209	0x3e9b321e	0.30311674
210	0x3de56d56	0.11202495
211	0xbe4f9ec4	-0.20275408
212	0x3e691fc3	0.22766022
213	0x3e35b9bf	0.17746638
214	0xbda60bbe	-0.081077084
215	0x3ebea3e1	0.37234405
216	0xbed25365	-0.4107925
217	0xbd58bd95	-0.052915175
218	0xbe507c14	-0.20359832
219	0x3d0236c4	0.03179051
220	0x3d88b417	0.066749744
221	0x3e84dfef	0.25952098
222	0xbdbefd74	-0.09325686
223	0xbd30f62a	-0.04320351
224	0xbd9730d0	-0.07382357
225	0xbdca76be	-0.098859295
226	0xbd512f6f	-0.051070627
227	0xbc24fd35	-0.010070135
228	0xbe6220bf	-0.22082804
229	0xbd8f1216	-0.069858715
230	0x3d8a4535	0.067514814
231	0xbdfc6020	-0.12323022
232	0xbe222e30	-0.15837932
233	0x3e83a431	0.25711206
234	0x3da0707d	0.078339554
235	0x3e0db31e	0.13837859
236	0xbe88622a	-0.26637393
237	0xbd5047f5	-0.050849874
238	0x3e3cc00f	0.1843264
239	0xbd8babf7	-0.06819909
240	0xbdc03c32	-0.09386481
241	0x3ea26d11	0.31723836
242	0xbd1e015d	-0.03857552
243	0xbda03d50	-0.078241944
244	0xbe0eaa8e	-0.13932249
245	0x3e06d21b	0.13166086
246	0xbdd22c76	-0.102623865
247	0xbe81a82e	-0.25323623
248	0xbdc2c41f	-0.095100634
249	0x3e2cccad	0.16874953
250	0x3d9eb7c5	0.07749895
251	0x3d5eee67	0.054426577
252	0xbf2d6856	-0.6773733
253	0x3d1d3374	0.038379148
254	0xbc50115f	-0.012699454
255	0x3df26061	0.11834789

lstm.bias_ih_l0 f4 [80]
0	0x3e39fc1c	0.18162578
1	0x3e439e0a	0.19103256
2	0xbdeb6387	-0.11493593
3	0x3dea63ec	0.1144484
4	0x3d14ac1c	0.03629695
5	0x3e2f3201	0.17108919
6	0x3e5145ab	0.20436732
7	0xbcb56a65	-0.02214546
8	0x3e2d7d8a	0.1694242
9	0xbe4633ba	-0.1935567
10	0x3e062596	0.13100275
11	0xbe592853	-0.21206789
12	0x3e663b65	0.22483595
13	0x3e509ae7	0.2037159
14	0x3e2ea113	0.17053632
15	0xbdb647d9	-0.089004226
16	0x3e8c1b83	0.2736474
17	0x3e580852	0.21096924
18	0xbd3880eb	-0.04504482
19	0xbd968a44	-0.07350591
20	0x3d79a691	0.060949866
21	0xbe270313	-0.16309766
22	0x3e818ddf	0.25303552
23	0x3dfba03c	0.12286422
24	0x3dfa6f82	0.122283
25	0xbe06cb2b	-0.1316344
26	0x3e60e782	0.21963313
27	0x3d0f8e13	0.035047602
28	0xbe11a3a8	-0.14222586
29	0xbc40e476	-0.011773219
30	0xbe4ff95b	-0.20309965
31	0x3e49b5b5	0.19698222
32	0xbdac9518	-0.08426875
33	0x3e9a0082	0.30078512
34	0x3e26aa03	0.16275792
35	0x3e88a95d	0.26691714
36	0x3dc7771b	0.097395144
37	0xbe3a4a63	-0.18192439
38	0xbc8ad2eb	-0.016946277
39	0x3e25483b	0.16140835
40	0x3d359056	0.044327103
41	0xbd0c3088	-0.03422597
42	0x3dfce85a	0.12349005
43	0x3df560c0	0.11981344
44	0x3c0c3439	0.008557373
45	0x3c8b6ad6	0.017018717
46	0x3c947702	0.018123154
47	0x3e29cf2c	0.16582936
48	0xbe15a9cf	-0.14615558
49	0xbd75adcd	-0.059980202
50	0xbe1121e5	-0.14173086
51	0xba6991bb	-0.000890996
52	0x3da5a1ed	0.080875255
53	0xbe04528a	-0.12922111
54	0xbdc4a1b8	-0.09601158
55	0xbda3be49	-0.079952784
56	0xbbb1135c	-0.005403919
57	0xbe7495fd	-0.23885341
58	0xbe116a5d	-0.1420073
59	0x3e0185fc	0.12648767
60	0xbcec9bca	-0.02888288
61	0xbd0c4c7f	-0.03425264
62	0xbc7cc535	-0.015427877
63	0x3dbf7512	0.09348501
64	0x3e6a7496	0.22896037
65	0xbd7dc63b	-0.061956625
66	0x3d4abd8d	0.049497176
67	0xbe1b5ec8	-0.15172875
68	0x3e5c6f6e	0.21526882
69	0x3e1b9c13	0.15196256
70	0x3ce2d853	0.027691042
71	0x3e445f30	0.19176936
72	0x3e30f390	0.17280412
73	0xbd674639	-0.056463454
74	0xbc69689c	-0.014246132
75	0x3ebbfcaa	0.36716205
76	0x3dd03795	0.101668514
77	0x3eaec9b5	0.34138265
78	0xbdd6e53e	-0.10492943
79	0x3e7131df	0.2355418

lstm.bias_hh_l0 f4 [80]
0	0x3e126f70	0.14300323
1	0xbd8832ba	-0.066503
2	0x3df45a8d	0.11931334
3	0xbe0a63f6	-0.13514695
4	0xbe21c04d	-0.15796013
5	0xbe092798	-0.1339401
6	0x3d70034c	0.058596894
7	0x3e4691e4	0.1939159
8	0x3db0df96	0.08636396
9	0x3e3a6346	0.18201932
10	0x3c81befd	0.01583814
11	0xbe014135	-0.12622531
12	0x3e0869f2	0.13321665
13	0xbdb7d01c	-0.089752406
14	0xbd9643ac	-0.07337126
15	0x3df0efb8	0.11764473
16	0x3d772065	0.06033363
17	0x3e72a917	0.23697315
18	0xbd8737ec	-0.06602463
19	0x3e2be50d	0.16786595
20	0x3db8e0ad	0.090272285
21	0xbe072142	-0.1319628
22	0x3c4e9681	0.012609125
23	0x3e7d2f12	0.24724987
24	0x3d74b01e	0.05973827
25	0xbd5ca939	-0.05387232
26	0xbd8a6955	-0.06758372
27	0xbd80ecdd	-0.06295178
28	0x3e42b588	0.19014561
29	0x3dfc6cd7	0.12325447
30	0xbe49d20d	-0.19709034
31	0x3de532c4	0.111913234
32	0x3e4b4430	0.1985023
33	0xbe056b45	-0.13029201
34	0x3d54c8ba	0.05194924
35	0x3dcb7670	0.099346995
36	0x3e39e2dc	0.18152946
37	0xbd8514c4	-0.06498101
38	0x3e849e2e	0.25901932
39	0x3e75c6b5	0.24001582
40	0xbe4e91b0	-0.20172763
41	0x3e6bd59e	0.23030707
42	0xbd81904c	-0.063263506
43	0xbdca2183	-0.09869673
44	0xbd1f0ba5	-0.038829464
45	0x3c82d4dc	0.01597064
46	0x3e052bd6	0.13005003
47	0x3d71a898	0.058998674
48	0xbe510b03	-0.20414357
49	0x3e301cf8	0.1719855
50	0x3d9bfc8e	0.0761653
51	0xbdee3841	-0.11631823
52	0xbd1610de	-0.03663718
53	0x3d17fd2d	0.03710668
54	0xbe2e52f1	-0.17023827
55	0x3e353bff	0.17698668
56	0xbdd896f2	-0.105756655
57	0xbd9535cc	-0.072856516
58	0xbe351232	-0.17682722
59	0xbe5a897b	-0.21341507
60	0xbcf3c01b	-0.029754689
61	0x3e455462	0.1927047
62	0xbd9b946a	-0.07596667
63	0x3e70124d	0.23444481
64	0x3e81393e	0.25238985
65	0x3da17a57	0.078846626
66	0x3dd29a5f	0.1028335
67	0xbd179314	-0.0370055
68	0x3e76a53f	0.24086474
69	0x3e968dee	0.2940516
70	0xbcdddff4	-0.027084328
71	0x3d95051c	0.07276365
72	0xbd7cb2ff	-0.06169414
73	0x3e3a57f1	0.1819761
74	0xbcabecee	-0.020987
75	0x3eb957c3	0.3619977
76	0x3d676c8f	0.056500014
77	0x3e2e747e	0.17036626
78	0xbd374ad9	-0.044749115
79	0x3d9b2442	0.07575275

lstm.weight_ih_l0_reverse f4 [80, 20]
0	0xbd80fb4f	-0.06297933
1	0xbe529e40	-0.2056818
2	0xbcbb9e6e	-0.022902694
3	0xbe16240c	-0.14662188
4	0xbdf78bb1	-0.12087191
5	0xbe5356e9	-0.20638622
6	0xbc576b42	-0.013148131
7	0x3d89eb27	0.06734305
8	0xbe326aa3	-0.17423491
9	0x3e424965	0.1897331
10	0x3cd7f1d2	0.026360426
11	0xbe7d6899	-0.24746932
12	0xbd7e3239	-0.062059615
13	0xbe0f30fa	-0.13983527
14	0xbe2c9759	-0.1685461
15	0xbd3ff322	-0.04686273
16	0xbe772c43	-0.24137978
17	0xbe1742da	-0.14771596
18	0x3cd94cb6	0.026525836
19	0xbce3db6b	-0.027814588
20	0xbde23e79	-0.11047072
21	0xbe35b7e0	-0.17745924
22	0xbe2a7533	-0.1664627
23	0x3e1b7dd0	0.15184712
24	0xbe7197c9	-0.23593058
25	0x3d1629af	0.036660846
26	0x3e7aa64d	0.24477501
27	0x3e548108	0.20752347
28	0xbe68c9ed	-0.22733279
29	0xbd754f3a	-0.05989001
30	0x3be03817	0.006842624
31	0xbe195b31	-0.14976193
32	0x3e970880	0.29498672
33	0xbe4ed3f1	-0.20198037
34	0xbeaca5fa	-0.3372038
35	0x3de2b1b7	0.11069053
36	0xbd150b6e	-0.036387853
37	0x3df58777	0.119887285
38	0x3d0938b0	0.033501327
39	0xbe8bb599	-0.27286986
40	0xbe1ca2fc	-0.15296549
41	0x3d92291b	0.071367465
42	0xbe12cde3	-0.14336352
43	0x3e2cbe8c	0.16869563
44	0xbd9900a9	-0.07470829
45	0x3e05b931	0.13058926
46	0x3cc50f7b	0.024055233
47	0x3e917790	0.2841153
48	0x3c9ffde5	0.019530246
49	0xbda5c7b9	-0.08094735
50	0xbe8ab2b5	-0.27089468
51	0xbd89bcad	-0.0672544
52	0x3e50160f	0.20320915
53	0xbd03105c	-0.031998023
54	0xbd1ec304	-0.0387602
55	0xbd9f1413	-0.07767501
56	0xbe44617b	-0.19177811
57	0xbe61750d	-0.22017308
58	0x3e284b48	0.16434968
59	0x3d2dfc60	0.04247701
60	0xbdad2be5	-0.08455638
61	0xbe4c9a01	-0.19980623
62	0x3bff6122	0.0077935616
63	0x3e1aecfd	0.15129466
64	0xbdec5b9c	-0.115409106
65	0xbc1d1cf3	-0.009589422
66	0x3d279070	0.04090923
67	0xbe0846b3	-0.1330822
68	0xbe706e6e	-0.23479626
69	0x3cb3c4af	0.021944372
70	0xbe4954ef	-0.19661306
71	0x3e2954e0	0.16536283
72	0xbe07e8a4	-0.13272339
73	0x3e20dada	0.15708485
74	0xbd39faf1	-0.045405332
75	0x3de9d1de	0.11416982
76	0x3d51afec	0.051193163
77	0xbe305296	-0.17219004
78	0x3d9b4ea0	0.07583356
79	0x3e460bbd	0.19340415
80	0x3ccd5d24	0.025068827
81	0x3d8a653a	0.06757589
82	0xbe25a540	-0.16176319
83	0xbc88c4d9	-0.016695427
84	0xbe17d9c4	-0.14829165
85	0xbe65a7d9	-0.2242731
86	0xbcbea2ce	-0.02327099
87	0x3ccf495c	0.025303535
88	0xbe443d55	-0.19164021
89	0x3c8697c7	0.016429795
90	0xbe1ea636	-0.15493092
91	0xbdcc00fa	-0.09961124
92	0x3d9b94e4	0.07596758
93	0xbdce380d	-0.100692846
94	0xbe5855df	-0.21126507
95	0xbe19a0d1	-0.15002753
96	0xbdcaa2fc	-0.09894368
97	0xbe2ec189	-0.17066015
98	0xbe08da69	-0.13364567
99	0xbdaa692b	-0.083208404
100	0x3e29b631	0.16573407
101	0xbe5d0873	-0.21585254
102	0xbd564931	-0.052315895
103	0x3db757ff	0.08952331
104	0x3e0e3f67	0.13891374
105	0xbe272a94	-0.16324836
106	0x3e4e2689	0.20131887
107	0xbd54ea44	-0.051981226
108	0xbe5b3874	-0.21408254
109	0x3dcd1831	0.1001438
110	0x3ccdcd73	0.02512238
111	0xbe85a982	-0.26105887
112	0x3dee6cfc	0.11641881
113	0xbe402f78	-0.18768108
114	0x3e34d558	0.17659509
115	0x3ca263fc	0.019823067
116	0xbdbe6d70	-0.09298217
117	0x3d9554bf	0.07291555
118	0x3d48d6ac	0.049032852
119	0xbd9e244b	-0.07721766
120	0xbe5c1bac	-0.21494931
121	0x3e4b13c0	0.19831753
122	0xbe4facec	-0.20280808
123	0xbdc1dc0c	-0.09465799
124	0x3de04342	0.109503284
125	0xbe6938f4	-0.22775632
126	0xbe2fec62	-0.17180017
127	0xbe09fc18	-0.13475072
128	0x3e1e4519	0.15456046
129	0xbdcdf6ae	-0.10056816
130	0x3d1f98e3	0.038964164
131	0xbda19385	-0.07889465
132	0x3d2acf5a	0.041701652
133	0x3dadf99e	0.08494876
134	0x3e4cdc82	0.20005992
135	0xbdd3d121	-0.103426225
136	0x3d00db68	0.031459242
137	0x3e62c65e	0.22145984
138	0x3e1b6a94	0.15177375
139	0xbd38891e	-0.04505264
140	0xbe6ad670	-0.22933364
141	0xbdd1b456	-0.102394745
142	0xbddef368	-0.1088627
143	0x3e275303	0.1634026
144	0x3ccb9bac	0.024854504
145	0xbe3404fe	-0.1758003
146	0x3e4ecdce	0.20195696
147	0x3dd8655d	0.105662085
148	0x3dc31413	0.09525313
149	0x3df8418f	0.12121879
150	0x3e6235ec	0.22090882
151	0xbdbb8625	-0.091564454
152	0x3d5fff2c	0.05468671
153	0xbacd84bb	-0.0015679816
154	0xbdb473ca	-0.088111475
155	0x3de072e0	0.10959411
156	0x3d19a85c	0.037514076
157	0x3e299b47	0.1656314
158	0x3a01e753	0.00049554295
159	0xbe2332c7	-0.15937339
160	0xbd9fda0a	-0.078052595
161	0x3d3fb5cc	0.046804234
162	0xbcd68df5	-0.026190737
163	0x3d10ff12	0.035399504
164	0x3ba2f1d3	0.0049726753
165	0x3d68d0e2	0.05683983
166	0x3d3bbb76	0.045833074
167	0xbdf6f4cd	-0.12058411
168	0x3e22a50f	0.15883277
169	0x3e11b020	0.14227343
170	0x3d433ae6	0.04766359
171	0xbe494aa4	-0.1965738
172	0xbe3ae40a	-0.18251052
173	0x3d5c0cca	0.053723134
174	0x3d7820f0	0.060578287
175	0xbdb9bd30	-0.09069288
176	0x3e39595c	0.18100494
177	0xbe4fc3e7	-0.20289575
178	0xbe273722	-0.16329625
179	0x3dc26702	0.094923034
180	0x3e8152e7	0.25258562
181	0xbe98710b	-0.29773745
182	0x3d0a2a1b	0.03373156
183	0xbd2b0283	-0.041750442
184	0x3e043d4b	0.12914006
185	0xbdc08a1f	-0.094013445
186	0x3e49b940	0.19699574
187	0x3e86501b	0.2623299
188	0xbd1d7709	-0.0384436
189	0xbba2e4b1	-0.00497111
190	0xbd7ed141	-0.06221128
191	0xbde17fb6	-0.11010687
192	0x3e2dd2b0	0.16974902
193	0x3e34af71	0.1764505
194	0xbde80d89	-0.113307066
195	0x3cf5c82c	0.030002676
196	0x3dcde9da	0.10054369
197	0xbd637c2d	-0.055538345
198	0x3e28fc45	0.16502483
199	0xbe0e1228	-0.13874114
200	0xbd99401c	-0.07482931
201	0x3cc3341a	0.023828555
202	0x3bed5a7d	0.007243453
203	0x3e00687f	0.12539862
204	0x3e3eaf42	0.18621543
205	0x3d8941d3	0.06702008
206	0x3e043612	0.12911251
207	0xbe3689db	-0.17826025
208	0xbe70bf7c	-0.23510545
209	0x3e6da6fc	0.2320823
210	0x3dbdb643	0.09263279
211	0xbca9b703	-0.02071715
212	0x3e5c7708	0.21529782
213	0x3d215ac3	0.039393198
214	0xbe3e7433	-0.18599014
215	0x3e85687b	0.26056275
216	0x3e56d704	0.2098046
217	0xbd2c08a5	-0.04200043
218	0x3ccfe115	0.025375882
219	0xbdb38073	-0.08764734
220	0xbc7f7626	-0.015592134
221	0xbdb22bb1	-0.0869974
222	0xbe6a172b	-0.228604
223	0xbd5ed419	-0.05440149
224	0xbe3a8e65	-0.18218382
225	0xbe09ee34	-0.13469774
226	0xbc43286d	-0.011911494
227	0x3daa5d6c	0.083186
228	0xbd6048d2	-0.054756947
229	0x3e7838e8	0.24240458
230	0xbdd1ad21	-0.102381
231	0xbdd68852	-0.1047522
232	0x3da51d13	0.08062186
233	0xbda81188	-0.08206469
234	0xbd644042	-0.055725344
235	0x3e62eb88	0.2216016
236	0x3e746bbb	0.23869221
237	0x3d64cbd7	0.05585846
238	0x3e38ad05	0.18034752
239	0x3d055408	0.03255084
240	0xbd93b268	-0.07211763
241	0x3de5bb54	0.11217371
242	0x3cdb8b24	0.026799746
243	0x3e2238da	0.15842
244	0xbdfdd43c	-0.12393996
245	0xbeb25642	-0.34831434
246	0xbd7c7480	-0.06163454
247	0xbd3496ea	-0.044089235
248	0x3e63dac5	0.22251423
249	0x3e252900	0.16128922
250	0xbdc48fb2	-0.0959772
251	0xbdd5bd41	-0.10436488
252	0x3dcb8d58	0.099390686
253	0x3ca27a0e	0.01983359
254	0xbe855f60	-0.26049328
255	0x3e7c044b	0.24611013

lstm.weight_hh_l0_reverse f4 [80, 20]
0	0xbdcdc933	-0.10048141
1	0x3e94ddc4	0.29075444
2	0xbe227932	-0.15866545
3	0x3e935cab	0.28781638
4	0xbc155ecc	-0.00911684
5	0x3bcd6256	0.006267826
6	0x3e432458	0.19056833
7	0xbec7c8a4	-0.39020264
8	0xbe1fdc08	-0.15611279
9	0x3e0d04c1	0.13771345
10	0xbdbf94c9	-0.093545504
11	0x3d59a424	0.053135052
12	0x3d80ef20	0.062956095
13	0x3dfe7bc1	0.12425948
14	0x3cb7936f	0.022409169
15	0xbeeaf150	-0.45887232
16	0xbcb6b5ac	-0.022303425
17	0xbd91f1db	-0.071262084
18	0xbe5a33e8	-0.21308863
19	0xbeac56fd	-0.33660117
20	0x3ec71e98	0.3889053
21	0xbe36b8ed	-0.17843981
22	0x3c331b92	0.010931866
23	0xbe2a2481	-0.16615488
24	0xbd0075bf	-0.03136229
25	0xbd964cfc	-0.07338902
26	0x3ea9eac8	0.33186936
27	0x39d74337	0.00041058075
28	0xbd5fbf6f	-0.054625925
29	0x3e4ac32f	0.19801019
30	0x3e55104c	0.20806998
31	0x3df2f1ea	0.11862548
32	0xbe185f1a	-0.14880028
33	0xbddcf560	-0.10788989
34	0x3e02861e	0.12746474
35	0x3e8a6f0a	0.2703784
36	0x3ca4d590	0.020121366
37	0x3d28ac82	0.04118014
38	0x3e625748	0.22103608
39	0x3eda30ab	0.42615256
40	0x3edd5e77	0.43236133
41	0x3ddf4c2b	0.109032
42	0xbe781e28	-0.24230254
43	0x3d4ac6a7	0.049505856
44	0xbd6fc0dd	-0.058533538
45	0x3d3b225b	0.04568706
46	0xbd85285d	-0.06501839
47	0x3e4694e3	0.19392733
48	0x3e512912	0.20425823
49	0xbe1d0f63	-0.15337901
50	0x3d083862	0.033256896
51	0xbd0bc9d5	-0.03412803
52	0x3d42316b	0.04741041
53	0x3e4b1366	0.19831619
54	0x3e20f309	0.1571771
55	0x3e0fc5cb	0.14040296
56	0x3afefef2	0.0019454642
57	0x3cdfb441	0.027307631
58	0xbddc1de6	-0.1074789
59	0x3e8127bd	0.2522563
60	0x3e29dac9	0.16587366
61	0x3d834d2b	0.06411203
62	0xbe82ed56	-0.25571698
63	0x3dc24933	0.09486618
64	0xbe38c5a7	-0.18044148
65	0x3e94f76a	0.29095012
66	0xbcd33e4f	-0.025786547
67	0x3e8bef6a	0.27331096
68	0xbb02fb68	-0.0019986276
69	0x3de18852	0.11012329
70	0x3e138c13	0.14408903
71	0x3c60dc50	0.013724402
72	0x3e24abb4	0.16081125
73	0x3e1628bb	0.14663975
74	0xbe26859b	-0.16261904
75	0xba8b6641	-0.0010635332
76	0x3e23c7bf	0.15994166
77	0x3dcf195a	0.10112257
78	0xbd0694c6	-0.032856725
79	0xbe4fe1b3	-0.20300941
80	0x3ea05dc5	0.3132154
81	0xbdac9e6e	-0.084286556
82	0xbda5a6cf	-0.08088457
83	0x3d81c066	0.06335525
84	0xbe05b413	-0.13056974
85	0x3d06c38d	0.032901336
86	0x3bdfdbf1	0.006831639
87	0x3ea42c82	0.32065207
88	0xbd5a1ecd	-0.05325203
89	0xbe860af4	-0.26180232
90	0x3dcb6398	0.099311054
91	0x3dea2d23	0.114343904
92	0xbda48cea	-0.0803469
93	0x3e88573b	0.26629052
94	0x3e118dad	0.14214201
95	0xbd44d82e	-0.048057728
96	0xbe969010	-0.29406786
97	0x3d81f22c	0.06345019
98	0xbec41cee	-0.38303322
99	0xbe49bebd	-0.19701667
100	0x3d1f2c2d	0.03886049
101	0xbdb86395	-0.09003369
102	0xbe604c69	-0.21904148
103	0x3e66b134	0.22528535
104	0xbe84044f	-0.25784537
105	0x3e7769cd	0.24161454
106	0xbddc080c	-0.10743722
107	0xbe05c64b	-0.13063924
108	0xbeaf5d17	-0.3425071
109	0xbe870d5d	-0.26377383
110	0xbd20620e	-0.039156012
111	0x3e21864b	0.15773885
112	0x3ec1fb32	0.3788696
113	0x3e7c2dd4	0.24626857
114	0x3e0d6ddd	0.13811441
115	0xbe2f2459	-0.1710371
116	0xbe95f643	-0.29289445
117	0x3cc4ad2f	0.024008362
118	0xbe8953d5	-0.2682177
119	0x3ea7e908	0.32794976
120	0xbe41bf57	-0.18920647
121	0x3e1a0387	0.15040408
122	0x3d869d4c	0.06572971
123	0x3e1b10f8	0.15143192
124	0x3eb60f9c	0.35558784
125	0x39952266	0.00028445123
126	0xbb422924	-0.0029626573
127	0x3c30d670	0.010793313
128	0xbdcdbf56	-0.1004626
129	0xbcb4d516	-0.022074264
130	0x3e206736	0.15664372
131	0x3df09e09	0.11748893
132	0xbdcfe838	-0.10151714
133	0x3e21ab31	0.1578796
134	0x3d72d882	0.05928851
135	0x3d955421	0.07291437
136	0xbd2cb831	-0.042167846
137	0xbddf8bdd	-0.10915349
138	0x3c09b1eb	0.008404235
139	0xbcc3748c	-0.023859285
140	0xbf008e2c	-0.5021694
141	0x3e7dc086	0.24780473
142	0xbe29704d	-0.16546746
143	0x3e9deffe	0.30847162
144	0x3e577954	0.21042377
145	0xbe0d5aea	-0.13804212
146	0xbd7e815c	-0.062135085
147	0xbeb13ab6	-0.34615105
148	0x3bf8e9e1	0.00759624
149	0x3e6b6654	0.22988254
150	0x3da55a15	0.080738224
151	0x3e82c1ad	0.25538388
152	0x3ea3e9f3	0.32014427
153	0xbe8e86fb	-0.27837357
154	0xbf0ab338	-0.54179716
155	0xbe9b9e4a	-0.30394202
156	0x3e021c56	0.12706122
157	0x39d1b10c	0.00039995497
158	0xbeba7a09	-0.3642123
159	0xbe7ad525	-0.2449537
160	0x3e645e6f	0.22301649
161	0x3c416aed	0.011805278
162	0xbe2dafe8	-0.16961634
163	0x3dc6dec0	0.09710455
164	0xbc7828a9	-0.015146413
165	0xbd874cd9	-0.066064544
166	0xbc48466f	-0.012223824
167	0x3d9062ac	0.0705007
168	0xbe90a341	-0.28249553
169	0x3e3c4612	0.18386105
170	0xbce3d20d	-0.027810121
171	0x3e72dff0	0.23718238
172	0x3e097f94	0.13427573
173	0x3e7a379f	0.2443528
174	0x3e0bd417	0.13655125
175	0xbe6c8b46	-0.23100004
176	0xbe15237c	-0.14564317
177	0xbd788d01	-0.060681347
178	0xbe8ffb56	-0.28121442
179	0x3ee934ee	0.45548195
180	0x3ebbc6db	0.36675152
181	0x3d7fffcd	0.06249981
182	0x3e2267df	0.15859936
183	0xbe94110f	-0.28919265
184	0x3dcad4a1	0.09903837
185	0xbe4a18f7	-0.19736086
186	0x3e478e18	0.19487798
187	0x3daff0d6	0.08590858
188	0x3c7814c1	0.015141667
189	0xbb49785c	-0.0030741906
190	0x3ddc66a3	0.10761764
191	0x39f1e19b	0.0004613519
192	0xbe94a61d	-0.29032984
193	0x3da9fd32	0.08300246
194	0xbe3f0aea	-0.18656507
195	0xbd757736	-0.05992814
196	0x3edd3ed9	0.4321201
197	0xbe4fc0d8	-0.20288408
198	0xbcf9240a	-0.030412693
199	0x3eb03448	0.34414887
200	0xbdd7cf21	-0.105375536
201	0xbe823fd3	-0.2543932
202	0xbe88aa15	-0.26692262
203	0xbde325f3	-0.110912226
204	0x3cc74124	0.024323054
205	0xbdb37bb6	-0.0876383
206	0x3d0e9b0b	0.03481583
207	0xbe07d43c	-0.13264555
208	0x3ea0fa34	0.3144089
209	0x3e21b588	0.15791905
210	0x3e467cab	0.19383495
211	0x3e521695	0.20516427
212	0x3e669907	0.22519313
213	0xbe915300	-0.28383636
214	0xbe8446c9	-0.25835255
215	0x3d9b6a07	0.075885825
216	0xbe5c8277	-0.21534143
217	0x3e6d353f	0.23164843
218	0xbdc790df	-0.09744429
219	0x3e2c04e2	0.16798738
220	0xbec8a23f	-0.39186284
221	0x3e8e4b85	0.27791992
222	0xbe98ebda	-0.2986744
223	0xbde17bbf	-0.11009931
224	0xbe2d6d62	-0.16936257
225	0x3dc50aa1	0.09621168
226	0xbc8252a0	-0.01590854
227	0xbe58caef	-0.21171163
228	0xbea170c2	-0.3153134
229	0x3dcfc37a	0.10144706
230	0xbc4f336b	-0.012646536
231	0xbd84289c	-0.06453058
232	0x3e579071	0.21051194
233	0x3e5e31f7	0.21698748
234	0xbe9ace1a	-0.30235368
235	0xbe6f8d89	-0.23393835
236	0xbc0e375d	-0.008680192
237	0xbd86e16f	-0.06585967
238	0xbe25e867	-0.16201936
239	0x3da7e9f2	0.081989184
240	0x3d94da29	0.07268173
241	0x3d10d5ca	0.035360135
242	0xbea7630d	-0.32692757
243	0xbc181e77	-0.009284607
244	0x3e8fb7ce	0.2806992
245	0x3e13a4eb	0.1441838
246	0xbd9c55b5	-0.07633535
247	0x3e651ed8	0.22375047
248	0x3d990d6d	0.07473264
249	0x3e732a23	0.23746543
250	0xbdd98a55	-0.10622088
251	0xbd7147e8	-0.058906466
252	0x3d981c5a	0.07427283
253	0x3d3f7c0d	0.046749163
254	0xbeb2dbb0	-0.34933233
255	0xbd547f02	-0.051878937

lstm.bias_ih_l0_reverse f4 [80]
0	0x3d836bc7	0.06417041
1	0x3dc2af79	0.09506125
2	0xbded5e81	-0.11590291
3	0xbd6bfa6e	-0.057611875
4	0x3e85e42f	0.26150653
5	0x3d1430e2	0.03617943
6	0x3e1e8c2c	0.15483159
7	0xbc31e7da	-0.0108585
8	0x3e31b214	0.17353088
9	0x3e50a5bc	0.20375723
10	0x3e0dffa9	0.13867058
11	0xbe175db0	-0.14781833
12	0x3e83bc23	0.25729474
13	0xbb4dab05	-0.0031382453
14	0x3e71124e	0.23542139
15	0x3dcbaea1	0.09945417
16	0xbd1b5697	-0.037924375
17	0x3d216c61	0.03941
18	0x3d0dbd18	0.034604162
19	0xbd8e6d69	-0.06954462
20	0x3dd55992	0.10417475
21	0x3e07059e	0.13185737
22	0xbdb38152	-0.087649
23	0xbe406225	-0.18787439
24	0xbe90a77a	-0.28252774
25	0xbe5755db	-0.21028845
26	0x3e476017	0.19470249
27	0x3db82b28	0.089926064
28	0xbe0780ed	-0.13232775
29	0x3e8062be	0.25075334
30	0x3d7bc76a	0.061469473
31	0xbdaac095	-0.08337513
32	0xbe5754b3	-0.21028404
33	0xbde4120b	-0.11136254
34	0x3d8f66e7	0.07002049
35	0xbe6a75ef	-0.2289655
36	0xbdb770b3	-0.089570425
37	0x3e8286f2	0.2549358
38	0x3cf397a7	0.0297354
39	0xbdaa1d0e	-0.08306323
40	0x3e360559	0.17775477
41	0x3e0b257a	0.13588515
42	0xbc5a481b	-0.013322855
43	0x3df64322	0.12024523
44	0xbd7aebe3	-0.061260115
45	0xbda0d0d4	-0.07852331
46	0xbe5334e8	-0.20625651
47	0xbc9080c8	-0.017639533
48	0x3d9bdf9b	0.07611009
49	0x3df1a7de	0.11799596
50	0xbdc497da	-0.09599276
51	0x3e20ad98	0.15691221
52	0x3def8c14	0.1169664
53	0x3e47f4f1	0.19527031
54	0x3e5abd52	0.21361282
55	0xbe854851	-0.26031736
56	0xbc10714f	-0.008816077
57	0x3de8b30c	0.113622755
58	0xbe510f19	-0.20415916
59	0x3d1de721	0.0385505
60	0x3c0ca0ab	0.008583228
61	0x3ce260ca	0.027634043
62	0x3e9ab2e4	0.30214608
63	0x3c65e214	0.014030952
64	0xbd200839	-0.03907034
65	0x3dfd21b8	0.12359947
66	0xbe3fb14f	-0.18719982
67	0x3d300692	0.042975016
68	0x3d9d2d09	0.076746054
69	0xbd4451e2	-0.047929652
70	0xbe282d34	-0.16423494
71	0x3e766fda	0.24066105
72	0xbb79561c	-0.003804571
73	0x3e4db828	0.20089781
74	0x3e36ea33	0.17862777
75	0xbd5ae60b	-0.053442042
76	0x3e75be91	0.23998477
77	0x3d933e01	0.07189561
78	0x3e77836d	0.24171229
79	0x3ddd7234	0.10812798

lstm.bias_hh_l0_reverse f4 [80]
0	0x3e4a94af	0.19783281
1	0x3d7bb08b	0.06144766
2	0x3d51528b	0.05110411
3	0xbdcf36da	-0.10117884
4	0x3e80c9c5	0.25153938
5	0x3e7f9dbc	0.24962515
6	0xbb3ceab8	-0.0028826427
7	0x3dd16eb4	0.10226193
8	0x3cceaf0c	0.025229953
9	0x3dbeb8d1	0.09312595
10	0xbb8a2e02	-0.0042169103
11	0xbaf6ab2c	-0.0018819324
12	0x3e4041af	0.18775056
13	0xbd4da067	-0.0502018
14	0x3dd4936e	0.103796825
15	0x3cfbbf34	0.030730821
16	0x3ea5c145	0.32374015
17	0xbb007e86	-0.0019606664
18	0x3e778dbf	0.24175166
19	0xbe0b7972	-0.13620546
20	0xbe9eeb46	-0.31038874
21	0x3e328b57	0.17435966
22	0x3e3b221d	0.18274732
23	0x3ded16f1	0.11576641
24	0xbce86ee9	-0.028373199
25	0x3e135ba0	0.14390421
26	0xbddb6a79	-0.107136674
27	0xbd57b1a3	-0.052659642
28	0x3e298667	0.16555177
29	0xbe1302bb	-0.1435651
30	0x3dae4bd1	0.085105546
31	0x3e668699	0.22512282
32	0xbdba3dda	-0.090938285
33	0xbdde461a	-0.108532146
34	0x3d599301	0.05311871
35	0xbd597b1a	-0.053095914
36	0xbe2a653b	-0.16640179
37	0xbd0d2223	-0.034456383
38	0xbdcb693f	-0.099321835
39	0xbdb983f9	-0.09058375
40	0xbdbe6b5c	-0.09297821
41	0xbdb2b791	-0.08726419
42	0x3e6933ea	0.2277371
43	0x3df05721	0.117353685
44	0xbc29bf28	-0.010360517
45	0x3e00f107	0.12591945
46	0xbdf1751f	-0.11789917
47	0x3d529d2e	0.05141943
48	0x3e68f853	0.22750978
49	0x3e2e4acb	0.17020719
50	0xbda8b289	-0.08237178
51	0x3db80b2a	0.089865044
52	0xbc9d7114	-0.019218959
53	0x3e565ec7	0.20934592
54	0xbe3750c1	-0.17901899
55	0xbe192b05	-0.14957817
56	0xbe61b069	-0.22039951
57	0x3ceb15ff	0.028697012
58	0xbe25f665	-0.16207273
59	0x3e4bbeb6	0.19896969
60	0x3e17367c	0.14766878
61	0x3d97d5c1	0.07413817
62	0x3cc0a97a	0.023518313
63	0x3dcc4fb8	0.09976143
64	0x3ea42824	0.32061875
65	0xbd957bd8	-0.07299012
66	0x3d2843bc	0.04108022
67	0x3e70bebf	0.23510264
68	0x3cab3f4c	0.020904206
69	0x3e8bc564	0.27299035
70	0xbe0b44e8	-0.13600504
71	0x3bd351f9	0.006448981
72	0xbd1c0c7b	-0.03809784
73	0x3d7b4ead	0.061354328
74	0xbdea6f4c	-0.114470094
75	0x3d9912ab	0.07474264
76	0x3eb6bf9b	0.35693058
77	0xbc75282c	-0.014963191
78	0x3e2887a9	0.16458
79	0x3e50d8ab	0.20395152

lstm.weight_ih_l1 f4 [80, 40]
0	0xbdde3587	-0.10850053
1	0x3e02b20b	0.1276323
2	0x3e740107	0.23828517
3	0x3e2d288d	0.1691
4	0xbe3ec840	-0.18631077
5	0xbecb2e81	-0.39683917
6	0xbe63401c	-0.22192425
7	0x3e4fdf68	0.20300066
8	0x3cc1d96b	0.023663243
9	0xbb8a2278	-0.004215535
10	0x3d6fb917	0.058526125
11	0xbdebd10f	-0.11514484
12	0xbe5bbdf3	-0.21459179
13	0x3dfc5f24	0.12322834
14	0xbe31d1ea	-0.17365232
15	0xbe386462	-0.18007043
16	0x3e37088e	0.17874357
17	0xbe871dd1	-0.26389936
18	0xbe4520ed	-0.19250841
19	0xbe2cf2c9	-0.1688949
20	0x3e95a18b	0.2922481
21	0xbe3336d8	-0.1750139
22	0xbd2a2cc6	-0.041546606
23	0x3df25ebc	0.118344754
24	0xbcc22549	-0.02369942
25	0xbd38e498	-0.04513988
26	0xbe5b7eee	-0.21435139
27	0x3d509895	0.050926764
28	0x3bcea97e	0.006306826
29	0x3e61e5ac	0.22060269
30	0xbe2a70b4	-0.16644555
31	0xba285f3d	-0.0006422883
32	0x3e9e675e	0.30938238
33	0x3eb385bd	0.35062972
34	0x3e6dcad6	0.23221907
35	0xbeb1aadd	-0.3470067
36	0xbe4c7396	-0.19965968
37	0xbd6f40d1	-0.058411423
38	0xbe6280a9	-0.22119392
39	0x3eaabbac	0.33346307
40	0xbdf861cb	-0.121280275
41	0x3e4803e5	0.19532736
42	0xbc88b0df	-0.016685901
43	0x3e140ca7	0.14457951
44	0xbe3cf092	-0.18451145
45	0x3cf3c9b2	0.029759262
46	0x3d2de69a	0.042456247
47	0xbe50fa36	-0.20407948
48	0xbde85340	-0.11344004
49	0x3e1f454b	0.15553777
50	0x3e1a9670	0.1509645
51	0xbe653264	-0.22382504
52	0xbe5c3b67	-0.21507035
53	0x3e3d0703	0.18459706
54	0x3ca11610	0.01966384
55	0xbd87f734	-0.06638947
56	0x3da1b238	0.07895321
57	0xbc3aca00	-0.0114007
58	0xbe89a30a	-0.268822
59	0xbe86d37d	-0.26333228
60	0xbeb31f3f	-0.34984776
61	0x3e7338bb	0.2375211
62	0x3cb6d200	0.022316933
63	0x3eb31d3f	0.3498325
64	0xbd749b31	-0.059718315
65	0xbd7b8673	-0.061407518
66	0xbd2b4e8e	-0.041822962
67	0x3e0e681c	0.13906902
68	0xbe9388d2	-0.28815323
69	0x3e10af13	0.14129286
70	0xbe4659d7	-0.19370209
71	0xbc524581	-0.012833954
72	0x3e5665de	0.20937297
73	0xbd055d2f	-0.03255957
74	0xbe9f7ac5	-0.31148353
75	0xbdbfb87e	-0.09361361
76	0xbce99ded	-0.028517688
77	0x3d30c534	0.043156818
78	0xbdddf054	-0.108368546
79	0xbde6f7c6	-0.11277728
80	0xbe84de53	-0.2595087
81	0xbd094db9	-0.033521388
82	0xbe927f10	-0.28612566
83	0xbe0a4bd0	-0.13505483
84	0x3e71a8c6	0.23599538
85	0xbe602897	-0.21890484
86	0xbdd6a693	-0.1048099
87	0x3dd91e33	0.10601463
88	0xbedad24a	-0.42738563
89	0x3cd4a2da	0.02595656
90	0xbe9b3974	-0.3031727
91	0xbe83ffee	-0.25781196
92	0xbeba6c50	-0.3641076
93	0x3e0d7d66	0.13817367
94	0x3ca4e23d	0.02012741
95	0x3e5060ac	0.20349377
96	0xbd9861d4	-0.07440534
97	0x3e9df80d	0.3085331
98	0xbe835b38	-0.25655532
99	0xbe466b1d	-0.19376798
100	0xbe0ba5d5	-0.13637479
101	0x3e1bbc0a	0.1520845
102	0xbe27767a	-0.16353789
103	0xbd0b1821	-0.033958558
104	0xbcacd0b7	-0.021095617
105	0x3c601f9d	0.013679412
106	0x3e219218	0.15778387
107	0xbf06a81a	-0.5260025
108	0x3d3ae112	0.0456248
109	0x3e8e40d3	0.27783832
110	0xbcaa1224	-0.020760603
111	0xbe0a1b34	-0.1348694
112	0x3efc28b4	0.49249804
113	0xbe469e6a	-0.19396368
114	0xbefaf232	-0.49012905
115	0xbe863f45	-0.26220146
116	0xbc0cc244	-0.008591238
117	0x3ed31566	0.41227263
118	0x3da272de	0.079320654
119	0xbe47824e	-0.19483301
120	0x3e45e31b	0.19324915
121	0x3e168fff	0.14703368
122	0xbd546bf4	-0.051860765
123	0xbe4b4388	-0.1984998
124	0x3d343de9	0.044004355
125	0x3ebde0b6	0.37085503
126	0x3e5e612d	0.21716757
127	0x3c3c57b2	0.011495518
128	0x3db3a4d1	0.087716706
129	0xbe393de5	-0.18090017
130	0x3c73dd20	0.014884263
131	0xbe6e6810	-0.23281884
132	0x3d5eb749	0.054374013
133	0x3dc9bea2	0.098508134
134	0xbdbc52f4	-0.091955096
135	0xbe3707c9	-0.17874064
136	0xbdf26f4f	-0.11837637
137	0xbe18c0a7	-0.14917241
138	0x3e0164fa	0.12636176
139	0xbe158694	-0.14602119
140	0xbd170a51	-0.036875073
141	0x3d0ab008	0.033859283
142	0x3d1e7c9b	0.03869305
143	0xbe497c0a	-0.19676223
144	0xbebf66e0	-0.37383175
145	0xbcaf3f48	-0.02139248
146	0xbe5fcb89	-0.21854986
147	0x3d7eac60	0.06217611
148	0xbe595d83	-0.21227078
149	0x3c6514c4	0.013982002
150	0xbe2062a2	-0.15662625
151	0xbbaff89a	-0.005370212
152	0xbea4a1f6	-0.32154816
153	0xbd48a0f8	-0.048981637
154	0x3daaf3cb	0.08347281
155	0xbe8155ac	-0.25260675
156	0x3c5c7982	0.013456704
157	0xbcb358f7	-0.021893008
158	0x3dec9ba8	0.115531266
159	0xbe58ff20	-0.21191072
160	0xbda6af1a	-0.08138867
161	0x3dbedf6d	0.09319959
162	0x3de6b8f2	0.11265744
163	0x3debacd3	0.11507573
164	0xbe60a7ad	-0.21938963
165	0xbdad5b97	-0.08464735
166	0xbc9e2050	-0.019302517
167	0x3e8b54e9	0.2721322
168	0xbe631416	-0.22175631
169	0x3e23a9b5	0.15982707
170	0x3ea4eff8	0.32214332
171	0x3de829ba	0.11336084
172	0x3dd17a79	0.10228438
173	0x3e1e0270	0.15430617
174	0xbe8be77d	-0.2732505
175	0xbdcaaef7	-0.09896653
176	0x3d92aa85	0.0716143
177	0xbe03b15d	-0.12860627
178	0x3d11c32e	0.03558653
179	0xbe122fc4	-0.14276034
180	0xbd7d3379	-0.061816666
181	0xbd9df779	-0.07713217
182	0xbdc30a44	-0.095234424
183	0x3d3104fb	0.04321764
184	0xbe0b179f	-0.1358323
185	0x3e81c9d7	0.25349304
186	0xbe31fb20	-0.17380953
187	0x3e579ec7	0.21056662
188	0x3dc328b6	0.09529249
189	0x3e3a3196	0.18182978
190	0x3ea2b52c	0.31778848
191	0x3e89fbc2	0.26949888
192	0x3e218800	0.15774536
193	0x3e749a2f	0.23886941
194	0x3ee3fa27	0.4452679
195	0xbd7a7d09	-0.0611544
196	0x3d77b26d	0.060472894
197	0xbdba35b3	-0.090922736
198	0xbe8fbd7d	-0.28074256
199	0x3da03919	0.078233905
200	0xbe36dc97	-0.17857586
201	0xbd307f91	-0.043090407
202	0xbebb6c3f	-0.36606023
203	0xbdef914f	-0.11697637
204	0xbd491891	-0.049095694
205	0x3e4a3d1d	0.19749875
206	0xbcef3990	-0.029202253
207	0xbd473dfe	-0.048643105
208	0x3c6223fe	0.0138025265
209	0xbe33c404	-0.17555243
210	0xbde50576	-0.11182682
211	0xbe0d8e23	-0.13823752
212	0xbe51add8	-0.20476472
213	0x3dc24b21	0.09486986
214	0xbe71f5a0	-0.23628855
215	0xbe117f96	-0.14208826
216	0xbdd73a4f	-0.10509168
217	0x3d60db46	0.054896615
218	0xbe0ddf35	-0.13854678
219	0xbddee1b1	-0.10882891
220	0xbe44834e	-0.19190714
221	0x3e96a592	0.29423195
222	0x3eb0492f	0.34430835
223	0x3dd47c62	0.10375287
224	0xbdac2e3d	-0.08407257
225	0x3e0e631c	0.13904995
226	0xbe41c9ba	-0.18924609
227	0xbe44b8b3	-0.19211082
228	0x3e3f234b	0.18665807
229	0x3d99eb58	0.075155914
230	0xbd67a297	-0.056551542
231	0xbd9ee211	-0.077579625
232	0xbe175e14	-0.14781982
233	0x3e74fb37	0.23923956
234	0xbddbb1f5	-0.10727302
235	0x3df738c1	0.12071372
236	0x3c6ec064	0.014572237
237	0x3db88c90	0.09011185
238	0x3d96514d	0.07339726
239	0xbe39e798	-0.18154752
240	0x3e26f68e	0.1630499
241	0xbe0bb2aa	-0.13642374
242	0x3e3bac9c	0.18327564
243	0x3cd5f333	0.026116943
244	0x3d0db0cc	0.034592435
245	0x3e01722d	0.12641211
246	0xbe3a38ec	-0.18185776
247	0xba8b481e	-0.0010626351
248	0x3db14cc9	0.08657224
249	0x3dd8f91b	0.10594388
250	0xbe358423	-0.17726187
251	0xbd0d3a34	-0.034479335
252	0xbe7e0599	-0.24806823
253	0x3e2add87	0.16686068
254	0xbde67f70	-0.112547755
255	0xbdda2486	-0.106514975
