data/embD/hoc4/model_4/hoc4_best.pt (torch, 341645 bytes, 87 tensors)

embedding.weight f4 [6, 20]
000000 00 00 00 00 00 00 00 00 00 00 00 00 00 00 00 00
       0.0 0.0 0.0 0.0
000010 00 00 00 00 00 00 00 00 00 00 00 00 00 00 00 00
       0.0 0.0 0.0 0.0
000020 00 00 00 00 00 00 00 00 00 00 00 00 00 00 00 00
       0.0 0.0 0.0 0.0
000030 00 00 00 00 00 00 00 00 00 00 00 00 00 00 00 00
       0.0 0.0 0.0 0.0
000040 00 00 00 00 00 00 00 00 00 00 00 00 00 00 00 00
       0.0 0.0 0.0 0.0
000050 45 b6 49 bf 9b 49 a9 3f 5d 21 d8 3e 92 7d 78 be
       -0.78793746 1.3225588 0.42212954 -0.24266651
000060 7e cb 8d be 23 5a 81 3f 5c 2e ca be 6e 1e 7a 3f
       -0.27694315 1.0105633 -0.39488494 0.9770268
000070 5f 63 06 3b ba 0f fe be c1 b7 82 3f f6 f2 31 bf
       0.0020506007 -0.49621373 1.0212327 -0.69511354
000080 0a 36 b6 be 32 44 d3 3f aa e1 71 3f 01 e1 c9 3f
       -0.35588104 1.6505187 0.9448496 1.5771791
000090 1c 81 64 bf 14 c3 56 be bf 39 2c c0 87 ae 84 3c
       -0.89259505 -0.20972854 -2.6910245 0.016196502
0000a0 6b 51 30 c0 ef e7 9c 3f 81 7f ab 3e 5b 63 53 3f
       -2.7549694 1.225828 0.33495715 0.8257348
0000b0 d8 99 5d 3e 1b b8 b3 bf 67 83 ed bf 67 24 4e bf
       0.21640718 -1.404056 -1.8555726 -0.80524296
0000c0 5c a4 16 3f ba c5 22 bf 33 04 7b be 53 11 89 bf
       0.5884454 -0.63582957 -0.2451332 -1.0708412
0000d0 18 13 5b be 48 a0 fc be fb 11 d9 3e a5 c0 a4 3d
       -0.21394002 -0.49341035 0.4239653 0.080445565
0000e0 55 10 ae 3f ea 8c b9 bf 66 6a 96 bf 4d c0 37 bf
       1.3598734 -1.4496129 -1.175122 -0.717778
0000f0 f5 61 8a 3e 82 f7 95 3f 3e dd 0a bd bb 66 0b bf
       0.2702786 1.1716158 -0.0339024 -0.5445363
000100 fa 55 26 be f7 05 d4 3f 2f 41 e2 3e c1 c8 18 bf
       -0.16243735 1.656432 0.44190356 -0.59681326
000110 a5 e0 67 bf 65 64 84 3f f4 46 a6 3e a4 43 18 3e
       -0.90577155 1.0343138 0.32476008 0.14869553
000120 43 87 58 bf 5d 65 aa 3f 59 8c 1c 3f b7 0f 5b 3e
       -0.84581393 1.3312184 0.61151654 0.21392713
000130 c9 29 19 3f 59 4e 8e 3f c5 36 e6 3f fa db fb bf
       0.59829384 1.111766 1.7985464 -1.9676507
000140 05 6c d6 be ec 47 aa 3e d4 65 43 bf dc cf fd bd
       -0.41879287 0.33257997 -0.7632725 -0.12393162
000150 78 47 8a 3f ac 3c 33 3f f1 4e 48 bf 69 30 25 bf
       1.080306 0.7001445 -0.78245455 -0.64526993
000160 d2 2a 1d bf db 55 b4 bf 65 c4 2b bf 73 f1 c2 be
       -0.61393464 -1.4088701 -0.6709655 -0.38074836
000170 4c ab 51 3e 4f 83 0d c0 0c 1e 53 3f a5 62 8f be
       0.20475501 -2.2111394 0.8246772 -0.28004947
000180 43 99 d2 be 56 8e 25 c0 5a 5a 89 be 19 10 41 3a
       -0.41132554 -2.5868125 -0.26826745 0.00073647645
000190 1a 55 71 bf 16 07 06 3f f3 e1 b6 3e cf 6e be 3e
       -0.9427048 0.5235456 0.3571926 0.37193915
0001a0 7e 8a d9 3e 52 46 ac 3f 38 79 d5 3f f2 a3 4d be
       0.42488474 1.345896 1.6677618 -0.20082071
0001b0 8a 2c 17 c0 85 2b 98 3d b1 a2 89 bf 41 ee d8 bf
       -2.3620934 0.07430176 -1.0752774 -1.6947709
0001c0 94 44 c7 bc 09 40 b2 be 17 f8 63 bf a5 13 03 bf
       -0.024324693 -0.3481448 -0.8905043 -0.5120185
0001d0 27 65 29 bf 28 41 81 3f 8c 6a dc be a3 a6 61 bf
       -0.6616997 1.0098009 -0.4305004 -0.8814489

lstm.weight_ih_l0 f4 [80, 20]
000000 dc 02 09 be 85 47 54 bd f3 c1 4c bd 33 02 5e bd
       -0.13379997 -0.05182602 -0.049989652 -0.054201316
000010 30 11 53 3e 0c 9a 2e bd e0 0f 40 be a2 30 3b bc
       0.20612025 -0.04262738 -0.18756056 -0.011425169
000020 70 f2 25 be a0 86 cb bd ad 4e 86 be 54 ed cf 3d
       -0.16205764 -0.09937787 -0.262319 0.101526886
000030 a6 c1 fb 3d 7b f6 18 3e 2c 21 0c 3d 19 94 8e be
       0.12292795 0.14937775 0.034211323 -0.27847365
000040 e3 2c 3b 3e 88 89 1f be c4 cd 3d bc c7 43 68 3d
       0.18278842 -0.15579808 -0.011584703 0.056705263
000050 05 61 a9 bd 30 58 ae bc 62 f1 ab 3d 0c b0 cf 3d
       -0.08270458 -0.021282285 0.083956495 0.10141
000060 23 83 30 be a4 8d f5 bd b0 e3 31 3e 8c 2d 08 bc
       -0.17237525 -0.119899064 0.17372012 -0.0083116405
000070 8d e7 7b be 34 66 45 3e df 18 d4 3d 6a 92 10 bd
       -0.24600048 0.19277269 0.10356306 -0.03529588
000080 9f 07 23 3e 38 cd e2 3d 13 04 14 be 60 3f 0f 3e
       0.15920876 0.110742986 -0.14454679 0.1398902
000090 1a 94 3c 3e d7 35 4f be 78 04 6b 3b 47 3c 4a be
       0.18415871 -0.20235382 0.0035860818 -0.19749556
0000a0 77 7d d1 3d 1e c0 a1 bd 90 f9 81 bd a2 16 cd 3c
       0.10229009 -0.078979716 -0.063464284 0.025035206
0000b0 da 96 65 bc 2e 6a 83 3c 80 26 ec bd 52 01 45 3e
       -0.014013017 0.016041841 -0.11530781 0.19238785
0000c0 33 15 a3 3b b8 99 19 be 9d 5c 69 be 61 67 9b bd
       0.0049768924 -0.15000045 -0.22789235 -0.07588077
0000d0 96 6b 67 3e 54 1b 92 3b 3d af 0a be af f7 d8 bd
       0.22599635 0.004458824 -0.1354341 -0.10594117
0000e0 6b c5 57 be fc 05 7f 3d 90 97 ac bd 9f 0d 57 bd
       -0.21071403 0.062261567 -0.08427346 -0.052503224
0000f0 4a d5 9d bd 75 02 38 3e 61 dd 37 3e a6 e7 71 3e
       -0.07706697 0.17969687 0.17955543 0.23623523
000100 f9 d6 f6 bd 6c 67 27 be 44 e5 bf 3d 97 39 62 bd
       -0.120527215 -0.16348046 0.09369901 -0.055230703
000110 9f 10 12 be 98 53 69 be 0d 6f 52 3c 14 29 b1 bd
       -0.14264153 -0.22785795 0.012843859 -0.08650413
000120 c3 4e 33 3e 53 cc 7b 3b 2c 39 dd 3c a1 9a e8 bc
       0.17510514 0.0038421347 0.0270048 -0.028394045
000130 57 68 02 bc 0b 6d 1e bd 65 35 81 bd 4b 68 cf bc
       -0.007959447 -0.03867821 -0.06309012 -0.025318285
000140 5e 16 ae 3d 42 fc 12 be b3 97 87 3e d3 7c 2f bc
       0.0850036 -0.14354041 0.26482925 -0.010710913
000150 e4 9f 85 be ea f9 39 3c a9 57 d7 bd ea 39 b7 bd
       -0.2609855 0.011351088 -0.10514767 -0.08946593
000160 d1 00 29 3e 5c af 45 3e 57 fa 83 3e 20 74 a0 bd
       0.16504218 0.19305176 0.25776932 -0.07834649
000170 b5 81 da b9 5f 72 44 3e 32 7d 2b 3d 5c a4 22 bd
       -0.0004167684 0.19184254 0.041867442 -0.039707527
000180 76 a0 83 3d 00 e0 bd 3d fc 90 5d 3d 25 48 5f bd
       0.0642709 0.0927124 0.054093346 -0.05451216
000190 29 85 48 be 87 7c 4e 3c ab 34 8a 3e 0d ee 99 3e
       -0.19582047 0.012602932 0.26993307 0.3006443
0001a0 07 a2 8e 3e 21 9e a4 bd bd 8e 7a bd 8c 17 fb 3d
       0.27857992 -0.08037973 -0.061171282 0.122603506
0001b0 f5 83 30 be c5 cc 7a be dc d3 ef bd b9 6a 9e be
       -0.17237838 -0.24492176 -0.11710331 -0.30940798
0001c0 d6 69 1e be b2 a4 5a be 9f c3 06 be c0 c6 2a 3e
       -0.1547006 -0.21351889 -0.13160561 0.1667738
0001d0 0d 1c 35 3e 29 1e f9 bb 48 8b 25 3e d4 9d 84 be
       0.17686482 -0.0076024723 0.16166413 -0.25901663
0001e0 b4 f6 b5 bd 43 a1 56 be d3 61 46 3e 6d 03 34 3e
       -0.088849455 -0.20959954 0.19373254 0.17579432
0001f0 7e ea 77 3e 45 8a d4 bd 50 d8 02 bc 64 58 69 3e
       0.24210545 -0.10377935 -0.007986143 0.22787625
000200 c4 73 6b 3d d7 47 2b bd 09 2b e9 3d a0 be 26 be
       0.05748345 -0.04181656 0.113851614 -0.16283655
000210 ac d4 a1 3e c1 07 df 3d f1 45 47 be 1f 43 d1 3d
       0.31607568 0.10890151 -0.19460274 0.102178805
000220 08 fe 8d 3d fc da 6e be cd 00 be be 69 16 ce 3d
       0.06933218 -0.23325723 -0.37109986 0.10062868
000230 66 ba 23 3e e0 dd 2b be d5 6a 1e 3e b6 a9 31 3d
       0.15989074 -0.16783857 0.1547044 0.04337474
000240 4c ce 25 be 48 85 60 be 65 3c 98 ba 30 4c ff 3d
       -0.16191977 -0.21925843 -0.0011614679 0.124657035
000250 de b9 a5 3d 0a f1 ae bd cb 42 07 3e 08 ed 25 bd
       0.08092092 -0.08542068 0.13209073 -0.040509254
000260 3d 88 ea bd 3a 33 80 bd 02 ee 6b 3e b9 69 a3 3d
       -0.11451767 -0.06259771 0.23040012 0.07979149
000270 93 5d b2 bd 9e dd 64 3d c6 18 50 be 6b 50 bc bb
       -0.08709254 0.055875413 -0.2032195 -0.0057468913
000280 25 72 2e bd 1d 96 37 3e 5f 1c bb 3d e6 32 9f 3c
       -0.042589325 0.17928357 0.09136271 0.01943345
000290 62 c9 a8 be f9 72 88 3d 1f 33 32 be f6 52 8e 3e
       -0.32966143 0.06662554 -0.17402314 0.2779767
0002a0 ff b8 39 be d2 f0 aa 3e a1 3b 3b 3e 10 68 df 3d
       -0.18136977 0.33386856 0.18284465 0.1090852
0002b0 be c5 45 be ed a2 47 3e cf dd 2d bd 21 3e 34 3e
       -0.19313714 0.19495745 -0.04244786 0.17601825
0002c0 f9 84 00 3e 6f e4 05 3d 62 cb 9f 3d 8d 48 89 be
       0.12550725 0.032688554 0.07802464 -0.26813164
0002d0 a6 61 a8 be be a5 55 3e 6d cc 81 3d c3 48 ba 3d
       -0.32887 0.20864007 0.06337819 0.090959094
0002e0 ff e7 4a 3e 8e 38 13 3d 75 3e ac 3d 91 7d 9b bd
       0.19815062 0.035942607 0.0841035 -0.07592309
0002f0 9a f5 11 3c 34 3d 90 3c aa 3f 4e 3d 60 4d 82 be
       0.008908654 0.017607309 0.050353684 -0.25449657
000300 15 54 e4 bd b7 af f5 bd 17 a4 5d be 34 f2 15 bd
       -0.1114885 -0.119964056 -0.21644627 -0.036607936
000310 f9 bb 39 3d 47 0e 13 3e 7d 37 25 be 8a b0 15 be
       0.04534528 0.14360915 -0.16134448 -0.14618126
000320 b3 80 49 be 6a 54 9e bd c0 e3 b7 3d 09 62 ca 3d
       -0.19678001 -0.077309445 0.08978987 0.0988198
000330 c3 a3 48 3e f7 6b 33 3e 75 2c 2b 3e b4 b0 25 be
       0.1959372 0.17521654 0.16716178 -0.16180688
000340 38 7f 5a be e3 5d 24 bc 23 94 8b bd 73 51 fa bd
       -0.21337593 -0.01003215 -0.06815364 -0.122225665
000350 c2 6e 5f be e2 be 6f 3d cc 59 39 3d 0f 55 8f 3e
       -0.21819595 0.05853165 0.045251653 0.27994582
000360 d9 e4 0b be bb 34 73 bb 01 b3 19 be 35 e4 b3 bd
       -0.13661517 -0.0037110287 -0.15009691 -0.087837614
000370 8f b0 19 be dd 66 4d bd f3 b4 94 3e 05 d1 aa 3d
       -0.15008758 -0.050146926 0.29044303 0.083406486
000380 80 f4 03 be 59 b4 a4 3e df 5e 35 3b f2 47 fa 3d
       -0.12886238 0.32168844 0.0027674956 0.12220754
000390 94 94 cf bd 99 14 a8 3c 2f 3f 94 be 59 6d 91 3d
       -0.10135761 0.020517634 -0.28954455 0.071009345
0003a0 dd 74 3b 3e 82 2f e2 bc b1 25 bf bd 36 7b 6f 3d
       0.18306299 -0.027610544 -0.09333361 0.058467112
0003b0 1a 7a 8d be ea d2 00 be 6c 39 84 be f3 5e 50 be
       -0.2763222 -0.12580457 -0.2582506 -0.2034872
0003c0 f9 c1 f7 3d b8 e8 f6 3b 23 0a b0 bb 97 64 ec 3d
       0.12097544 0.0075350665 -0.005372302 0.115426235
0003d0 fb ef 59 bc 7f 44 ca bb 71 56 85 bd 2e db a0 bc
       -0.013301845 -0.006172716 -0.06510628 -0.019635763
0003e0 99 33 75 3d f8 14 2e bb 57 64 b9 bd e2 84 7c be
       0.05986366 -0.0026562791 -0.090523414 -0.24660066
0003f0 86 a9 68 be 76 fd 25 bd fc be 2c 3e aa cb ca 3d
       -0.22720918 -0.040524922 0.1686973 0.09902127

lstm.weight_hh_l0 f4 [80, 20]
000000 ce 71 72 be f1 75 ba 3e c8 39 3a 3e 89 73 8a be
       -0.23676226 0.36418107 0.18186104 -0.2704127
000010 d4 13 0e be 1f e0 9c bd 8f 3a 49 3e de ed 61 be
       -0.13874751 -0.07659935 0.19651245 -0.22063395
000020 54 38 a3 3d 7d 73 76 3e 98 12 48 3d 38 0a 2a 3d
       0.07969728 0.24067493 0.048845857 0.04151365
000030 1c 47 83 be 3d a3 00 3d 81 51 1f bd 4e 66 2b 3e
       -0.2564019 0.031405676 -0.038896088 0.16738245
000040 23 34 36 bd 73 e8 92 3c cd 2c 43 3c 41 6d 00 bd
       -0.044483315 0.017933106 0.011912537 -0.031354193
000050 9c d0 a8 bc fd b1 79 3e e5 b0 27 3e 9d e6 04 3e
       -0.020607285 0.24384303 0.16376074 0.12978597
000060 1d e0 55 be c8 f1 2a bd f9 34 ae bc 3a 83 15 3e
       -0.20886274 -0.041734487 -0.021265494 0.1460084
000070 3b 2d 3f be 6b be 38 bd 05 4b bd bc 95 ca 21 be
       -0.18669598 -0.04510347 -0.023107061 -0.15799935
000080 c4 cb b8 3d 97 1c 61 3e c0 ef 08 be 4b 32 86 3e
       0.0902324 0.21983562 -0.13372707 0.26210245
000090 50 35 18 be 18 4c 6e be 2d d5 c0 bd 7d 04 80 be
       -0.14864087 -0.23271215 -0.0941566 -0.25003424
0000a0 de 75 2e be e5 bd a9 bc e1 77 83 bd 5b fd 6f 3e
       -0.1703715 -0.020720432 -0.064193495 0.23436491
0000b0 76 56 94 3e 99 55 db be 37 c4 a6 3e eb 3a 4e be
       0.28972214 -0.42838743 0.32571575 -0.20139663
0000c0 dc dd a1 bb c3 ee c1 3e 47 ea 26 3e a4 cf c6 be
       -0.004939778 0.37877473 0.16300307 -0.38830292
0000d0 fe 47 5e be f9 09 84 be ee 12 25 be 78 bb 18 3a
       -0.2170715 -0.2578886 -0.16120502 0.0005826275
0000e0 96 8f c7 bd 0a 3e 6a be 1c 3d da bd ce a8 3d bd
       -0.09744184 -0.22875229 -0.10656187 -0.046303563
0000f0 44 6c 34 be 81 bc 25 3e e2 55 96 3d 8b 2d cb bd
       -0.17619425 0.1618519 0.073405996 -0.09920796
000100 59 9e 89 3c 9f 71 60 3e a7 09 99 3e f3 35 f2 3d
       0.016799139 0.21918343 0.29890177 0.11826696
000110 ca e6 5c 3e 39 a9 8b 3d 0f d3 53 be 3e bb e4 bd
       0.21572414 0.06819386 -0.20685981 -0.11168526
000120 25 48 ae be de 10 ac bd 80 64 92 bd 95 ea 86 be
       -0.34039417 -0.08401655 -0.07148075 -0.26350847
000130 42 c4 e1 bd 53 f5 14 be 13 7f 51 bd 0b 50 68 be
       -0.11023761 -0.14546709 -0.051146578 -0.22686784
000140 34 95 3a be 06 17 18 3d c6 ee 24 be c7 de 5f bd
       -0.18220979 0.03713133 -0.1610671 -0.054655816
000150 9f 3a 12 bc 6f 12 30 be 88 bb 91 be bc b2 63 be
       -0.008925109 -0.17194532 -0.28463387 -0.2223615
000160 b1 99 af be b8 b3 46 be 4d b0 bc 3d fd 9c 09 be
       -0.34296945 -0.19404495 0.09213314 -0.13438793
000170 dd a2 9b 3d cf 69 5a 3e 74 ac 31 3c fc df 2b 3e
       0.07599423 0.21329425 0.010844339 0.16784662
000180 f5 93 ab 3d 0e 7a 29 be bc 4d 90 be 94 c2 aa bd
       0.0837783 -0.16550466 -0.28184307 -0.08337894
000190 1a 60 1e 3e 7e 5c c7 3e c9 47 07 be 1d 2a f0 bd
       0.15466347 0.38937753 -0.13210978 -0.117267825
0001a0 b2 e3 10 3d 4c fd 7b 3e 2f d2 05 be d3 13 ed 3d
       0.035373397 0.24608344 -0.1306846 0.11576047
0001b0 d3 0d 9f 3e 51 bd 84 3d 16 fb 03 3d 25 dd 0e 3d
       0.31065235 0.06481422 0.032221876 0.03487887
0001c0 79 60 2d 3e fe 9b 97 3e 7b 42 9f 3d 96 88 b3 be
       0.16931333 0.296112 0.07776352 -0.35065144
0001d0 8c 40 b9 3e 4b 01 94 3e 0c 6c 08 3c d6 f7 f6 bd
       0.36182058 0.28907236 0.008326542 -0.1205899
0001e0 b0 49 1c 3d be a4 3e be 83 16 e9 3d 29 79 a3 bc
       0.03815621 -0.18617532 0.11381247 -0.019955235
0001f0 5f b3 c0 bc ef c8 82 be 91 c1 5c be 5a 7d 55 3e
       -0.02352303 -0.25543925 -0.21558215 0.20848599
000200 d9 83 c0 bd 31 bc 66 3d 38 4e c2 3d e5 86 99 bc
       -0.09400148 0.056331817 0.09487575 -0.01874108
000210 13 ea 35 3e a6 78 46 be d1 23 b5 3c a5 ba 80 3e
       0.17765073 -0.19381961 0.022111805 0.25142398
000220 ad 90 bf be 59 02 17 be 33 64 56 bd 84 ed 1e be
       -0.37415066 -0.1474699 -0.05234165 -0.15520293
000230 a4 9c f3 bd a1 5a 71 be 5a 06 06 3e 4d 12 d5 bb
       -0.11895111 -0.23569728 0.1308836 -0.0065024258
000240 32 3e 59 be 15 5c a3 3d 86 ff af be cf a9 17 3e
       -0.21215132 0.07976548 -0.34374636 0.1481087
000250 bf a7 3c be f5 45 ac bd e4 4b c0 bd e9 53 d8 3c
       -0.18423365 -0.08411781 -0.09389475 0.026407199
000260 76 2f 4a 3d 49 58 bd 3c fc b6 cc bd 39 47 b4 bd
       0.04936167 0.023113387 -0.09995839 -0.08802647
000270 0f f0 6c be 17 8b 9e bd 5c ea 5c 3e 30 36 0f 3e
       -0.2313845 -0.07741373 0.21573776 0.13985515
000280 2f 01 6a bd bc 82 74 3e fb 29 42 be 83 7d a1 be
       -0.057130035 0.23877996 -0.18961327 -0.3154107
000290 3a 50 89 3e 1f b0 82 3d a6 63 52 3c 1b 7c 5f 3d
       0.2681902 0.06381249 0.012841141 0.054561716
0002a0 81 77 7e be 79 19 d8 3d 04 1a f7 3d a1 7c 83 3d
       -0.24850275 0.105517335 0.12065509 0.064202555
0002b0 c1 e2 4c be 58 3e 1c be f1 66 70 be bf c6 2f be
       -0.20008375 -0.15258157 -0.23476769 -0.1716566
0002c0 a1 ff 64 bd 9b 0d 99 3e 4a 7c b0 3e 1b aa cf bd
       -0.05590785 0.29893193 0.34469825 -0.10139867
0002d0 ec 2e 79 3d e5 eb 07 3e b7 91 52 be e4 3c 21 be
       0.060835764 0.1327358 -0.20563398 -0.15745884
0002e0 66 65 c2 3d 46 0c 44 3d e4 be 33 bd b8 64 69 be
       0.094919965 0.047863267 -0.04388322 -0.22792327
0002f0 ea 9d 47 be 14 1a 49 bc ac 2b c5 bd a6 01 bd bd
       -0.19493833 -0.012274284 -0.096274704 -0.0922883
000300 a2 85 57 be 98 cb 68 be c2 6b ae 3d 45 86 69 be
       -0.2104707 -0.22733915 0.08516647 -0.22805126
000310 64 6d 23 bd 01 60 d9 be 8a 16 2b be 9f e3 11 be
       -0.039899245 -0.42456058 -0.16707817 -0.14246987
000320 35 f4 82 be 75 9f af 3e e0 3c 67 3d f7 07 cb bd
       -0.2557694 0.34301344 0.05645454 -0.099136285
000330 ae 20 dd bd 09 05 7d 3d c3 aa c0 3d 78 f0 72 be
       -0.10797249 0.06177238 0.0940757 -0.23724544
000340 54 45 ed 3e 0f b3 52 3e bf 03 ff bd 32 70 80 be
       0.46341956 0.20576118 -0.124518864 -0.25085598
000350 ba 03 b3 bd 65 a0 32 be 7e f6 83 be ef 47 59 be
       -0.08740945 -0.17443998 -0.25773996 -0.21218847
000360 33 b6 45 3e b7 f1 80 3d 7c 0f 3e 3e 14 e5 ae 3d
       0.19307785 0.062961034 0.18560594 0.08539787
000370 98 80 39 3d 11 44 82 be a6 bb 3c 3e c9 5f 93 3e
       0.045288652 -0.25442556 0.18430957 0.28784016
000380 19 98 9b 3e c8 81 7d be 2a c8 5c 3d ca 25 3e be
       0.3038948 -0.24756539 0.05390183 -0.18569103
000390 52 c9 32 bd 21 81 9a be 5c 4d 1e 3d 4f 78 8e be
       -0.043649025 -0.30176643 0.038647994 -0.27826163
0003a0 45 35 e7 3d 2f c9 7e bd 74 78 66 3e fb 87 a6 3d
       0.11289457 -0.062203582 0.22506887 0.08131405
0003b0 a1 ec 65 be 90 28 20 bd b3 73 30 3e 62 b0 4d be
       -0.22453548 -0.039101183 0.17231636 -0.20086816
0003c0 78 2a 37 be 33 f1 b7 be 33 56 d0 3c 6d 36 74 3d
       -0.17887294 -0.35926208 0.025431728 0.059622217
0003d0 d1 da 4f bc bd f6 f7 bd 60 65 14 3d a2 19 22 be
       -0.012686447 -0.121076085 0.03622949 -0.1583009
0003e0 aa 11 00 3e 08 15 17 3e 71 72 c0 3d 1a 64 ce bd
       0.12506738 0.14754117 0.09396828 -0.100776866
0003f0 8d 40 9d 3e 4e 98 e0 3c ab c8 1a 3e 20 1a 03 be
       0.3071331 0.027416375 0.15115611 -0.12802935

lstm.bias_ih_l0 f4 [80]
000000 aa 97 bb ba 0c f2 85 3e 28 b6 b3 3d c1 25 00 3c
       -0.0014312167 0.2616123 0.08774978 0.007821501
000010 9d 50 45 3e 99 58 43 3d 66 12 26 3e bc e9 41 3e
       0.19269033 0.047691915 0.16217956 0.18936819
000020 6b a3 6d 3d 03 d9 37 be f7 66 06 3e 79 2f 5b 3e
       0.058017176 -0.17953877 0.13125215 0.21404828
000030 3c fa ad 3d 75 26 e3 3d 10 2c 0a 3e bb 93 49 be
       0.08494994 0.110913195 0.13493371 -0.19685261
000040 7e 6d 66 be 9e a7 59 3e 33 26 99 bd 47 50 82 3e
       -0.22502705 0.21255347 -0.07477989 0.25451872
000050 a3 0e 41 3e 70 fb be bb bb b1 13 be 58 d3 ab 3c
       0.1885324 -0.0058283135 -0.14423268 0.0209748
000060 6f cd 80 3d 3c b9 15 3e aa 90 0a be 60 17 65 3e
       0.06289183 0.14621443 -0.13531747 0.22372198
000070 48 8f 3b 3e e4 22 90 bd 7d 96 4d 3e 34 95 20 bc
       0.18316376 -0.07037905 0.20076938 -0.009801198
000080 7f d8 b7 bd 23 cf 89 3e 42 11 01 3e 7c 72 b5 bd
       -0.0897684 0.26915845 0.1260424 -0.08859727
000090 d9 b6 83 3e 5d 4b fb 3d 6c da c0 3d df ed 5d 3e
       0.2572544 0.12270234 0.09416661 0.21672772
0000a0 69 91 db bd f8 0d 07 3e ee ed 29 3c 33 97 2f bd
       -0.10721094 0.13188922 0.010371668 -0.042868804
0000b0 cb 81 af 3b 80 1c 8b be 31 99 2a be f6 f6 e3 3c
       0.0053560487 -0.2717018 -0.1666 0.027827721
0000c0 8f fe 51 3e b8 e4 1a 3e 46 05 3e be b6 0e 9f bc
       0.20507263 0.15126312 -0.18556699 -0.019416194
0000d0 1b ef 50 3e 2e fe 8c 3d 4f df 65 3e ec f9 4c be
       0.20403711 0.068844184 0.22448467 -0.20017213
0000e0 e9 63 7f 3e 9d 64 65 3d 24 7a 0e 3d 77 40 3e be
       0.24940456 0.056004155 0.03478445 -0.18579279
0000f0 86 fb 30 bd e9 28 58 3e e9 52 c3 bb 64 28 26 3e
       -0.04320862 0.21109356 -0.0059608114 0.16226345
000100 f3 44 63 3e c8 2f b2 3d 31 1c 5b 3e 9e a9 85 3e
       0.22194271 0.0870052 0.21397473 0.2610597
000110 46 4e 57 3d fa b1 03 be 33 12 09 3e 9f 6f cd 3c
       0.05256488 -0.12860861 0.13385849 0.02507764
000120 dd 7c b8 3d ce 35 d5 bd b7 ff 55 bd 79 d4 6b 3d
       0.09008191 -0.10410653 -0.05224582 0.057575677
000130 4c 3a 3c 3e e0 8f 6f 3e dc 39 ed bd 6e 72 ab 3e
       0.18381613 0.23394728 -0.115833014 0.3348574

lstm.bias_hh_l0 f4 [80]
000000 39 3e b7 3d fa a7 8a 3e 5e 04 35 3d 3f 4b a2 3d
       0.08947415 0.2708128 0.044193618 0.07924508
000010 8d e8 08 be e2 69 0b 3c 08 c3 80 3e d7 d6 43 be
       -0.13369961 0.008509131 0.25148797 -0.19124924
000020 e5 8f 26 be 7f 9e d9 3d 39 59 98 3c 7a 6d b8 3d
       -0.16265829 0.10625934 0.018597232 0.09005256
000030 dd 66 7d 3e ed 59 92 be de 02 2b 3d 06 a0 f8 bd
       0.2474627 -0.28584233 0.04175078 -0.12139897
000040 10 dd d6 3d 08 bd 70 3e bc 0d a7 3d b6 cf 62 3e
       0.10491383 0.2350961 0.081569165 0.22149548
000050 da e7 21 be 8d 7d 48 bd fc 69 45 3e d6 f1 09 3e
       -0.158111 -0.04894786 0.19278711 0.1347116
000060 a8 29 22 3e 73 59 73 3d 51 33 17 be 37 48 cf 3b
       0.15836203 0.059411477 -0.1476567 0.0063257474
000070 ff cb 74 3e c2 87 0c be 80 82 9f bd ad 10 a3 3d
       0.23905943 -0.13723662 -0.07788563 0.07962165
000080 45 ca 2a 3d 7a 93 82 3e 21 a6 80 bd c5 b8 8e bc
       0.041696806 0.2550314 -0.062816866 -0.01742209
000090 75 36 2d be 2e 01 50 3d 75 3c e5 3d 40 b0 83 3d
       -0.16915305 0.050782375 0.11193172 0.064301014
0000a0 be 8f 07 be 47 3c d6 3c 92 3b de bd b7 5c 8a 3d
       -0.13238427 0.02615179 -0.10851206 0.06755965
0000b0 f6 3e 5e 3e 43 03 7d be b2 b9 35 3e 4f 4e 8d bd
       0.21703705 -0.24708275 0.17746618 -0.06899702
0000c0 8b 64 d4 3c e8 9b 17 be 3a 33 17 3e 73 b2 b9 3d
       0.025926849 -0.14805567 0.14765635 0.090672396
0000d0 ce fa 7a bd f0 2b 0c 3e bc 71 37 be d7 be 07 be
       -0.061274342 0.13688636 -0.1791448 -0.13256393
0000e0 ae 91 4a 3e 28 c4 e6 bc 70 2c 45 3e 0d 94 cc bc
       0.19782135 -0.028169706 0.19255233 -0.02497294
0000f0 77 7f 94 3c 26 d1 21 bd 81 3d 93 bd 0c 6f 1e 3e
       0.018127186 -0.0395061 -0.07189465 0.15472049
000100 32 b4 34 3d e8 f4 bb 3d 17 73 f1 3d 67 e3 ad bc
       0.04411716 0.091775715 0.1178953 -0.021226598
000110 c5 a9 24 3d ae 68 8d bd cd 0c 9c 3e f3 9c bb 3d
       0.040200967 -0.06904732 0.30478516 0.09160795
000120 1a c0 bd 3e e9 6a 48 3e 4d 0c ac bd 31 e0 bc 3c
       0.37060624 0.19572033 -0.08400784 0.023056122
000130 4a b7 90 3d 5a 8e 3a 3e ce 88 00 3e 09 76 e5 3b
       0.070662096 0.18218365 0.12552187 0.0070025963

lstm.weight_ih_l0_reverse f4 [80, 20]
000000 a4 15 58 be dc 9d 22 be ee 65 7e be 16 c3 ff 3d
       -0.21102005 -0.15880531 -0.2484357 0.124883816
000010 a9 9c a4 3d 04 54 ed 3c f7 f2 08 bd 69 ba 5e ba
       0.08037693 0.028970726 -0.033434834 -0.0008496405
000020 bd b2 00 be 23 80 8b be 29 21 73 be 35 e6 9b be
       -0.12568183 -0.27246198 -0.23743118 -0.30449072
000030 56 a3 a3 bd 27 04 17 bd 26 8d d4 bd 26 f3 aa be
       -0.07990138 -0.036869194 -0.103784844 -0.33388633
000040 66 2a 10 3e 03 5a f7 bd 30 c2 e0 3d 5b 2e 5e 3d
       0.14078674 -0.12077715 0.10974538 0.054243427
000050 2d 0a a4 3d 4e 13 b3 3d 32 68 09 be df 55 1b 3e
       0.080097534 0.087439165 -0.13418654 0.15169476
000060 57 e1 a6 3d 35 3a 8f 3e c1 8b a8 3c 9c fd 4b be
       0.08148449 0.27974096 0.020574452 -0.19920963
000070 29 f2 7e bd b0 2d 6f be 9a 57 1d 3e 51 d2 4c be
       -0.06224266 -0.23357272 0.15365449 -0.20002104
000080 ef 8c a0 be 98 ed dd 3d fb 5a 26 be f8 f2 47 3e
       -0.31357524 0.10836333 -0.16245644 0.19526279
000090 7f 44 34 bc 97 7c 02 3e 21 64 68 bc f6 b2 5c be
       -0.011002659 0.1274284 -0.014184029 -0.21552643
0000a0 cd 1b 91 be 0f 4f 23 3e cb d1 8d bd 2d af 07 3e
       -0.28341523 0.15948127 -0.069247805 0.13250418
0000b0 c0 26 ae 3d 5e 94 5d 3e 5c 4f 35 be a9 c2 f3 be
       0.08503485 0.21638629 -0.17706054 -0.4760945
0000c0 3f 14 52 be 7d 19 c0 bd 59 1c 90 bc 36 4b 56 3d
       -0.20515536 -0.093798615 -0.017591642 0.05231782
0000d0 5e 18 c7 be 94 84 36 bd fa 28 f5 3d d3 55 0d be
       -0.38885778 -0.04456003 0.11970706 -0.1380227
0000e0 b0 5c ef 3d a6 1e b8 be 3e b6 46 3d 10 98 ce bd
       0.116876006 -0.35960883 0.048513643 -0.10087597
0000f0 c5 0b bb bd 64 1a a4 3d 83 59 8b 3e d2 b7 0b 3e
       -0.09133104 0.08012846 0.2721673 0.1364434
000100 8e 79 9e 3d 52 fb 5e 3d 06 a8 33 3e c4 2e 53 3e
       0.077380285 0.054438896 0.17544565 0.20623308
000110 77 38 1a 3e 94 e3 fd 3d 6f 76 ea bd 7a 22 9a be
       0.15060602 0.12396923 -0.11448371 -0.3010443
000120 57 d3 76 3d ea 0b 01 3e 5b 23 04 3d 31 90 8b be
       0.060260143 0.12602201 0.03226028 -0.27258447
000130 6b fb 38 3e c1 2e ac 3d da 4e 9e 3d 79 fc f6 bd
       0.18064658 0.08407355 0.077298835 -0.12059874
000140 b2 2c 5d bc f9 be 34 3e e3 13 42 bd 1d 8b aa bb
       -0.013499426 0.17650975 -0.047382247 -0.005204572
000150 cb 03 d7 bd 02 50 9b bd 8b 42 17 be d7 66 9b bd
       -0.1049877 -0.0758362 -0.14771478 -0.075879745
000160 f2 9e 0e 3e c9 5e 71 be f5 a2 74 be 57 d7 81 3d
       0.1392782 -0.23571314 -0.23890288 0.06339901
000170 e3 c5 87 be 74 92 66 3e 57 95 1d be 42 55 08 be
       -0.26518163 0.22516805 -0.15389 -0.13313773
000180 83 f0 28 3e 92 44 65 be 08 76 64 be 43 c6 83 be
       0.16497998 -0.22389439 -0.2231065 -0.257372
000190 77 65 9f bd 84 f1 0e be d5 1c 0e be 98 2b 83 bd
       -0.07783025 -0.13959318 -0.13878186 -0.06404799
0001a0 9d b4 91 3d f5 a1 ce 3d b3 24 fd bd 09 d6 5a be
       0.071145274 0.100894846 -0.123605154 -0.2137071
0001b0 70 d2 72 bd 91 62 38 3e ed f5 20 3e 4f a9 5b be
       -0.05928272 0.1800635 0.15718813 -0.21451305
0001c0 f3 d2 4f be e7 99 2b 3d 2d a0 a2 3d e6 55 1b 3e
       -0.20295314 0.04189482 0.07940707 0.15169486
0001d0 1f 3b 39 3d d5 51 af bd 2d 70 b4 3e 4f 95 12 be
       0.045222398 -0.0856053 0.35241833 -0.14314769
0001e0 fd d6 1d be f3 fa e1 3d 8e 47 17 be 1b e0 f1 bc
       -0.15414043 0.11034193 -0.1477339 -0.029525807
0001f0 85 61 2a be f3 f7 2e 3e 06 ac 42 3d ba 84 8f bd
       -0.16638763 0.17086773 0.047527336 -0.070077375
000200 85 02 63 3d 0d 06 7b 3e 8a a1 3f be a5 84 ea bd
       0.055422325 0.24514027 -0.18713966 -0.11451081
000210 a6 58 c1 bb 8d 09 39 be 12 55 02 be db a1 4c be
       -0.0059004603 -0.1807005 -0.12727764 -0.19983618
000220 9a 3d 94 bd c2 18 15 be 31 4c 17 3d 39 62 95 be
       -0.07238312 -0.14560226 0.036937896 -0.291765
000230 61 fd 2f be b8 3f 94 3d e7 57 58 bd 82 e1 13 be
       -0.171865 0.07238716 -0.052818205 -0.14441493
000240 06 0a 64 3e 03 bb 7a 3e e9 b3 92 3d 40 48 64 be
       0.22269449 0.24485402 0.071632214 -0.22293186
000250 6d a7 e0 3c 6c dd 8b bd 00 05 bb 3d d1 8a 30 be
       0.027423585 -0.06829342 0.09131813 -0.17240454
000260 74 3f 5b bd f2 0d ab 3d e4 0e 37 be b6 e3 b7 3d
       -0.05352731 0.08352269 -0.17876774 0.08978979
000270 85 29 7e be 57 85 42 be 07 de 20 be 09 a1 74 3c
       -0.24820526 -0.18996178 -0.15709697 0.014930972
000280 92 6e b4 bd 32 47 02 3e 9b 6e 7d bc 12 c7 a9 3d
       -0.08810152 0.12722471 -0.015468265 0.08289923
000290 ec a4 8e 3c 86 7b 0a 3e 90 85 1f 3e 44 2e 64 bd
       0.017412625 0.13523683 0.15578294 -0.055708185
0002a0 aa 6e 21 3e 8c 55 50 3e 09 3c ba bd 7f e3 98 3d
       0.15764871 0.20345134 -0.09093482 0.074652664
0002b0 09 00 04 3d bb 08 f5 3d 11 e4 e3 bd 23 48 42 be
       0.032226596 0.11964556 -0.111274846 -0.1897283
0002c0 e4 3d 83 3e df c1 bb 38 13 86 60 3d 57 46 09 bd
       0.25633156 8.952966e-05 0.054815363 -0.033514347
0002d0 45 86 94 be d7 cb d2 bd d5 b5 80 bc 29 15 54 3e
       -0.2900869 -0.102927856 -0.015711704 0.20711197
0002e0 f1 cf 80 3e 01 38 1e be e9 9c 8c 3d 75 e6 16 be
       0.25158647 -0.15451051 0.06865866 -0.1473635
0002f0 78 81 40 3e 8b 0e 3f be 39 ea d8 bc b6 13 95 3d
       0.18799388 -0.18657891 -0.026478874 0.0727915
000300 7d 83 54 3e 34 32 c8 3d 52 06 bb 3c 6b 15 43 3d
       0.20753284 0.097752005 0.022830162 0.047627848
000310 e2 27 f0 3d 61 58 c1 bc cc 39 4d 3d 42 47 c4 3c
       0.11726357 -0.023601713 0.050103948 0.02395976
000320 6a a8 43 3e 42 92 c6 bc 75 0c 3a 3e 4b b2 29 be
       0.19107214 -0.024239663 0.18168814 -0.1657192
000330 ac 90 d2 3d 98 8e 4f bd b4 03 06 3e a2 84 87 3b
       0.102815 -0.050673097 0.1308735 0.004135684
000340 19 e7 bf 3d b3 d5 ca 3e 18 0b f4 3c 4e a1 21 be
       0.0937025 0.39616165 0.029790446 -0.15784189
000350 6a 46 93 be ce f5 77 3d 01 49 4e 3e 37 d6 ae bc
       -0.2876466 0.060537152 0.20145036 -0.02134238
000360 a8 c5 b5 3b b8 b9 45 3d 3e 4a 8c 3e e7 da d9 bd
       0.005547244 0.04827282 0.27400392 -0.106374554
000370 75 fd 01 be b0 a3 be 3e 6d 29 3c be 26 2e 35 3e
       -0.12694342 0.3723426 -0.18375178 0.17693385
000380 b4 5b 6f 3d fa 57 4c 3e 26 3c cb bd 37 39 af bd
       0.058437064 0.19955435 -0.09923582 -0.08555835
000390 cc 64 9f bd d2 18 87 b9 cc 0c 48 3d 42 07 70 3d
       -0.07782897 -0.000257677 0.04884033 0.05860067
0003a0 b0 16 f8 bd 87 f8 df bd 37 f3 14 bd 38 06 e1 bc
       -0.12113702 -0.10936075 -0.03636476 -0.027468786
0003b0 cb 2e 2b 3d 7b 1d 63 3e 51 a4 60 3e fa 3b a6 be
       0.041792672 0.22179215 0.21937682 -0.32467633
0003c0 d7 5c 41 3d e5 04 4b 3d 9a c6 97 be 18 13 37 3d
       0.04720768 0.049565215 -0.29643708 0.044695944
0003d0 7a e2 85 3d 08 0a cd 3c db 23 32 be df d2 41 be
       0.065373376 0.025029197 -0.1739649 -0.18928097
0003e0 5a 10 19 3e 5e b2 7d be f8 de 39 be 4b f3 27 be
       0.14947644 -0.24775073 -0.18151462 -0.16401403
0003f0 c6 63 fb 3d 8a 8e 0c 3e d4 23 7f 3d 63 e6 70 3d
       0.1227489 0.1372625 0.062290028 0.058813464

lstm.weight_hh_l0_reverse f4 [80, 20]
000000 f0 ec 2f 3e cd 0c f3 3c 81 9b c3 bd 71 0b b6 be
       0.17180228 0.02966919 -0.095511444 -0.35555604
000010 04 de 85 be be a0 9c 3e 35 29 93 be ad 9b 63 3d
       -0.26145947 0.30591387 -0.28742376 0.055568386
000020 13 7f 75 3e 0b 77 e1 3e 46 7d 1a be 12 b3 12 3e
       0.23974256 0.44036135 -0.1508685 0.14326122
000030 c1 ed 8b 3e 4c bf dd bd 93 48 0c 3e 1d d5 4a be
       0.2732983 -0.108275026 0.1369956 -0.19807859
000040 92 df 0d be 61 56 65 be 5c aa af be 13 9c 8c 3e
       -0.13854817 -0.22396232 -0.3430966 0.27462825
000050 36 16 fe bd 88 8b 80 be 3e ee 9a bd da e8 80 3e
       -0.1240658 -0.25106454 -0.07564972 0.25177652
000060 ba 8e 08 be 37 23 62 be e1 cf 23 3e c0 3d db 3e
       -0.13335696 -0.22083746 0.15997268 0.4282055
000070 93 3e 87 3e 51 66 54 3e 8f 1a 33 3c 40 f2 72 3b
       0.26414928 0.20742156 0.010931625 0.0037070662
000080 50 a8 49 3d 78 32 b1 be 58 09 1c be d0 15 e7 3d
       0.04923278 -0.34608817 -0.1523794 0.11283457
000090 5f 83 d3 bd 03 dd 76 bd c9 86 07 3c 65 58 60 3e
       -0.103277914 -0.060269367 0.008271881 0.2190872
0000a0 d0 77 3e 3e 09 6b 8b bd a7 6f 5a 3e 10 4c fa bd
       0.18600392 -0.06807525 0.21331654 -0.12221539
0000b0 0c 92 8e bd de 80 c1 3d 31 09 5a bc b4 23 00 3e
       -0.0696145 0.094484076 -0.013307855 0.1251362
0000c0 65 64 c0 3e f9 db e5 3c eb 8e 50 be 9c d2 ff bc
       0.37576595 0.028058993 -0.20367019 -0.031228356
0000d0 51 0e bb be 59 c7 7f 3d 07 f3 2f bc eb bd 4f be
       -0.3653436 0.062445972 -0.010739095 -0.20287292
0000e0 a6 8e 29 be c2 bb 18 be a2 6d 90 bc 41 8f 39 3e
       -0.16558322 -0.14915374 -0.017630402 0.18121053
0000f0 99 f7 6c be dc 0c f0 bd d2 20 be bd 7b 0d da bd
       -0.23141326 -0.11721203 -0.09283604 -0.106471024
000100 9c 60 07 3d f1 01 c9 bd a0 7d 3b 3e 91 bb 77 3e
       0.03305112 -0.098148234 0.18309641 0.24192645
000110 10 08 41 be a5 da 52 be 18 56 10 bd 78 73 b9 3e
       -0.18850732 -0.20591219 -0.035238355 0.36220908
000120 0c e1 1f 3e c9 8a 9d 3d 43 e1 d4 be 30 9e 83 3e
       0.15613192 0.07692487 -0.4157811 0.25706625
000130 95 08 b4 bd 6a c5 18 3e 94 95 e5 3d 65 e2 cc bd
       -0.087906994 0.14919057 0.112101704 -0.10004119
000140 f4 e2 eb bd 7d 03 ce 3d 89 55 61 be 06 e6 d1 bd
       -0.11517897 0.10059259 -0.22005285 -0.102489516
000150 72 ab 84 be d2 c3 09 be a3 29 79 3e 2b c2 17 3e
       -0.25912052 -0.13453606 0.2433229 0.14820163
000160 02 94 b4 bc 80 8c 12 3e 50 0b 67 be ae 38 b6 3e
       -0.022043232 0.14311409 -0.22562909 0.35590118
000170 96 f5 8d be 13 6b ca be 91 19 63 be d8 e0 bd 3e
       -0.2772643 -0.39534816 -0.22177722 0.37085605
000180 13 92 89 be 61 81 46 3e 16 43 1b bd c2 11 10 be
       -0.26869258 0.19385292 -0.037905775 -0.14069274
000190 c4 85 27 3e a7 b9 30 3e c5 4d bf 3c a7 fc a2 bd
       0.16359621 0.17258321 0.023352513 -0.07958346
0001a0 c6 72 c7 3d 1f 36 ae bd 47 16 d2 3d ab 2d 00 3e
       0.09738688 -0.085064165 0.10258155 0.12517421
0001b0 0f 12 14 3e dd f4 4e 3e 97 1b 21 3e 04 67 02 be
       0.14460014 0.20210595 0.15733181 -0.1273461
0001c0 79 07 64 be 68 03 bf 3d 37 8e 47 3e 7c c1 1a be
       -0.22268476 0.093268216 0.19487844 -0.15112871
0001d0 20 03 b8 bd 4e 8c e6 bd 81 ab 5d be e4 c8 57 3c
       -0.08984971 -0.1125723 -0.21647455 0.013170455
0001e0 b3 80 d8 bd 97 b6 ab bc eb df e2 be 90 22 05 3e
       -0.105714224 -0.020961089 -0.4431146 0.13001466
0001f0 de d6 e6 3d f9 52 8e bd 17 6f f9 bc f3 05 21 3e
       0.112714514 -0.069494195 -0.03044848 0.15724926
000200 45 8d 99 bc ac 1b 0d 3e a9 f3 78 be 9a dc e1 be
       -0.01874412 0.13780087 -0.24311699 -0.44113618
000210 ba 68 93 bd 6c b6 35 be aa b2 ca be 08 0b 5b 3e
       -0.071977094 -0.1774537 -0.39589435 0.21390927
000220 26 6b 78 3e 4e dc 86 3e 2e f0 93 3e d8 22 8c bd
       0.24259624 0.26339954 0.2889418 -0.068425834
000230 b4 58 3b be 61 33 34 be ea 5e f2 be 08 ac dd 3d
       -0.18295556 -0.17597724 -0.4733804 0.10823828
000240 89 a1 d8 3d 22 28 84 be 7c 68 a9 be 29 41 b6 be
       0.105776854 -0.2581187 -0.33087528 -0.35596588
000250 e4 ed ab bd a7 ee 13 3e e2 1e 5e 3e ad fb a0 be
       -0.083949834 0.14446507 0.21691468 -0.31442013
000260 d9 d5 63 bd 09 78 be bd 15 be 4c be 2d 0c e0 bd
       -0.055623863 -0.09300239 -0.19994386 -0.10939822
000270 f8 52 05 3e 7a 86 3d be a7 3e 50 3e 0c ce 27 3d
       0.13019931 -0.1850833 0.203364 0.040967986
000280 6d 85 81 bd 11 e7 40 bd 74 a6 d3 bd bc 47 c4 3d
       -0.06324277 -0.047095362 -0.10334483 0.09583995
000290 ff e8 f3 bd ae 26 64 3d e9 1f 77 bd 68 e8 a0 3d
       -0.11909675 0.05570095 -0.060333166 0.07856828
0002a0 f2 22 a9 3d 96 d5 9a 3d dd 3e 17 be 08 80 81 bd
       0.082586184 0.075602695 -0.14770074 -0.06323248
0002b0 ff 7b 0d be 72 97 bd bb 30 70 6e be fc 7b dd bc
       -0.13816832 -0.005785876 -0.23284984 -0.02703666
0002c0 3f 3f 9b bd 3b c5 70 3e 82 91 34 bd 90 b6 92 3d
       -0.075804226 0.23512737 -0.04408408 0.07163727
0002d0 2c 90 74 3c 0b 8e f4 3d 77 12 1f 3e 4b 22 5b 3e
       0.014926951 0.11941155 0.15534388 0.213998
0002e0 17 b1 0f bd 59 e2 5c 3e 13 0c 91 3e 85 f8 1d 3e
       -0.035080995 0.2157072 0.28329524 0.15426834
0002f0 74 be 1c 3e 8a 92 89 bd c8 69 8a be 6f 3e f0 3e
       0.15307027 -0.06717403 -0.2703383 0.46922633
000300 e4 77 2c bd 6d 7a d1 3d d0 3b 80 be 9a 5f 6b 3e
       -0.042106524 0.10228429 -0.25045633 0.22985688
000310 b2 4c 44 be 2c 5e 3c 3e 12 55 84 bc 7c d3 37 3e
       -0.19169882 0.18395299 -0.016153846 0.17951769
000320 18 9a 09 bd 26 7a 08 be 15 1b bc bd 11 f1 ea 3d
       -0.03359422 -0.13327846 -0.09184853 0.11471761
000330 c9 27 96 bc 55 91 bd 3e f6 fd 4e 3e a2 54 e1 bd
       -0.018329518 0.37024942 0.20214066 -0.110024706
000340 5c 23 c0 3d 68 63 d5 bd 66 4e 5d 3e 95 45 ac be
       0.09381744 -0.10419351 0.21611938 -0.33646837
000350 de 17 db bd ac 24 2a be a6 52 60 be 56 92 dc 3c
       -0.10697912 -0.16615552 -0.21906528 0.026925247
000360 96 02 80 3e 67 c3 3e be 5a e7 ff 3d 08 7f 35 3c
       0.25001973 -0.18629228 0.12495299 0.01107765
000370 95 1c fb 3d 07 a8 97 3d e7 c5 94 3c 07 c2 09 3e
       0.12261311 0.074050955 0.018160773 0.13452922
000380 07 01 d7 be 6c e5 19 bd 8b ed c7 3d e6 a9 0c 3e
       -0.4199297 -0.03757231 0.097621046 0.13736686
000390 08 8a 10 3f b2 ca 7e 3e 37 ff 6b be 6f ed 5a 3e
       0.5646062 0.2488201 -0.23046575 0.21379636
0003a0 13 d0 7f 3e 80 bb 0b 3e 15 40 be be cb a2 44 be
       0.24981718 0.13645744 -0.37158266 -0.19202726
0003b0 2b 9e 0d 3e ac 19 10 3d e7 75 74 be cf 45 a9 bc
       0.13829868 0.035180733 -0.23873101 -0.02066317
0003c0 8c b7 59 3d a3 d5 1d 3d fa 10 5d 3e 5a 3c 30 be
       0.05315356 0.038533818 0.21588507 -0.17210522
0003d0 c9 b0 57 be c6 5f bb 3c 99 c0 a6 be 68 9c 99 bd
       -0.21063532 0.022872817 -0.32568815 -0.07500535
0003e0 b5 59 86 3e 0e b2 f5 3d 3c 15 7c 3d bf 00 c5 3d
       0.26240316 0.11996852 0.06154369 0.09619283
0003f0 3b 4f c2 bc 8d c2 a5 3d 93 ce 00 bd 44 89 20 be
       -0.02371942 0.08093748 -0.031447005 -0.15677363

lstm.bias_ih_l0_reverse f4 [80]
000000 27 de 8a bd 51 e4 c2 bb e8 b3 19 3e 6d 69 79 3e
       -0.067806534 -0.0059476276 0.15010035 0.24356623
000010 3b 96 f4 bd c0 86 76 ba 26 04 1b 3d 9b f9 ac 3d
       -0.11942717 -0.00094042346 0.037845753 0.08446046
000020 f9 03 a1 3c ef 41 ef 3c f4 6b f8 3d e4 bf 8f 3e
       0.019655215 0.029206244 0.121299654 0.28076088
000030 ae a7 ec 3d 0e 60 3a 3e 32 e3 9e bd cb 6d 28 3e
       0.1155542 0.18200704 -0.07758178 0.16448133
000040 76 d0 7f 3c 56 6d 90 bd cf 0e 3e be 2f 58 fc 3d
       0.015613666 -0.07052104 -0.18560337 0.12321507
000050 cf 0a 2b be 46 52 82 bd c3 c3 59 3d f3 45 fb 3c
       -0.16703342 -0.06363349 0.05316521 0.030673003
000060 23 44 e8 bd 9b 1c 4f bd 52 ac cf 39 16 cd 4a be
       -0.11341121 -0.05056439 0.00039610505 -0.19804797
000070 d5 5a 8b bd 4d 6b 62 3d a7 7d 51 be a1 c5 43 3e
       -0.06804434 0.05527811 -0.20458089 0.19118358
000080 6c b2 b4 3e 1c 75 0b be 6c 05 4f 3d e2 25 e1 bc
       0.35292375 -0.13618892 0.05054228 -0.027483884
000090 96 1d 8d bb 06 6b 89 3c 56 0f a2 bc a4 7e bf 3d
       -0.0043065054 0.016774666 -0.019782703 0.09350327
0000a0 f8 42 47 3e 7a ae c7 3d ce 95 0e be d8 15 1c 3e
       0.1945914 0.09750076 -0.13924333 0.15242708
0000b0 d9 e8 44 3d c2 61 d4 3d ec 05 18 3e 6a 7d 1c be
       0.048073623 0.10370208 0.14846009 -0.15282217
0000c0 c1 b8 a0 3d ef 45 a8 3d 7e c3 f2 bd 65 76 43 be
       0.07847739 0.08216464 -0.118536934 -0.19088133
0000d0 14 11 1f be 9d 87 69 bd 32 99 c2 3d 1b c6 9a 3d
       -0.15533859 -0.057014097 0.09501876 0.07557317
0000e0 82 c8 7a 3d 44 9c 7a 3c d4 81 b6 3d a3 c2 22 be
       0.061226375 0.015296046 0.089114815 -0.1589456
0000f0 48 78 3a bd c2 bd ad 3e d8 a3 70 3e a6 45 14 3d
       -0.045524865 0.33933836 0.23500001 0.036199234
000100 cf 90 c6 bd 9c 07 16 be a3 a5 6f 3e ce 8b 79 3e
       -0.09695589 -0.1465134 0.23403029 0.24369738
000110 26 bf 3e bd c9 55 5a 3e 3f 40 ad bd 8f 72 10 be
       -0.046569012 0.21321787 -0.084595196 -0.141062
000120 26 07 11 3e b0 d3 d8 bc 6a 7b 6f 3e 9c 20 a9 3c
       0.14162883 -0.026468128 0.23386922 0.020645432
000130 99 d1 18 3e 2d c5 8f 3e a6 c7 90 3d c7 2d 4f 3d
       0.14923705 0.2808012 0.0706933 0.050580766

lstm.bias_hh_l0_reverse f4 [80]
000000 e3 b0 e6 3d 4a 6a a2 3e 56 90 db 3d e0 c6 41 bb
       0.11264207 0.31721717 0.10720889 -0.0029568002
000010 06 0a be 39 8b ec aa bd a7 c2 c7 3c 31 b3 77 3e
       0.00036247092 -0.08345898 0.02438481 0.2418945
000020 0c 99 89 bd 0e 95 2f 3d 1f a1 55 3e 68 e3 44 3e
       -0.067186445 0.04286676 0.20862244 0.19227374
000030 77 9c 0b 3e 34 ad b1 3d e9 73 0e be 97 5a 00 bd
       0.13633905 0.08675614 -0.13911404 -0.031336393
000040 f8 6a 1e 3e 76 ba 31 3e d5 79 17 3e 6f d0 cd 3d
       0.15470493 0.17356285 0.14792569 0.10049521
000050 b2 d3 2e 3c a1 69 ed bd 59 3a 3c 3e ef 14 d5 bd
       0.010670589 -0.11592413 0.18381633 -0.104043834
000060 d5 5d 0f 3e 6c c2 fc 3d 39 59 3e 3d f5 fe 16 3e
       0.14000638 0.123417705 0.046471808 0.14745696
000070 5d b2 0a be 2a 14 17 bd c4 c0 22 3d 8c b9 50 be
       -0.13544603 -0.036884464 0.039734617 -0.2038328
000080 dd da 83 3e 0f a8 51 be 09 cb 7c 3e 68 bb ce bd
       0.25752917 -0.20474266 0.24686827 -0.10094339
000090 70 75 09 3e 63 d3 22 be 3b 72 0f be 72 ce 0b be
       0.13423705 -0.1590095 -0.14008419 -0.13652971
0000a0 4c e1 93 3d e3 83 52 be a1 80 bd bd f6 f1 0a be
       0.07220706 -0.20558123 -0.0925305 -0.13568863
0000b0 87 3d b0 bd e1 64 34 be 13 69 42 3d 3f fd ca 3d
       -0.086054854 -0.17616607 0.047463488 0.09911584
0000c0 2d 08 4c 3e 72 57 e8 bd ad 11 13 be 2d 0f 84 bd
       0.19924994 -0.11344804 -0.14362212 -0.06448207
0000d0 fc d9 2e 3e 6c 80 45 be 1d 39 4f be f4 8d c0 3d
       0.17075342 -0.1928727 -0.2023663 0.094020754
0000e0 ce b1 c0 bd eb 93 94 bd 1d bb 4f bc e4 45 fc 3d
       -0.094089136 -0.072547756 -0.012678889 0.12318018
0000f0 b0 37 2c bd b2 9a 71 3e 30 bd 3d 3e f5 c6 06 be
       -0.042045295 0.23594168 0.185292 -0.13161834
000100 ee 9b 4b 3e a5 d5 bf bd 80 62 9f 3d 7e 88 59 3d
       0.19883701 -0.09366921 0.07782459 0.053108685
000110 a6 ec 03 3e ea 0f 72 3e 8e 36 66 3e 73 4d 53 3e
       0.12883243 0.23638883 0.22481748 0.20635013
000120 c1 c6 60 3d 00 9e 96 3e bd 66 69 3e 1c 58 34 3d
       0.054877046 0.2941742 0.22793098 0.04402934
000130 35 0f e6 3d 94 c2 82 3e 21 b0 12 bd 99 1f 19 3e
       0.11233369 0.25539076 -0.0358125 0.1495346

lstm.weight_ih_l1 f4 [80, 40]
000000 77 c8 14 3e e0 58 c0 3c c0 09 46 3c 56 33 4b 3e
       0.14529596 0.023479879 0.0120872855 0.19843802
000010 6a 44 20 3d dd 3d 2d be 40 d1 12 be 6a 8d 11 be
       0.039127745 -0.1691813 -0.14337635 -0.14214101
000020 d9 1f 83 3e bd 70 89 bc d4 60 ee 3d e9 57 8a be
       0.25610235 -0.01677739 0.11639562 -0.27020195
000030 7a a1 64 3e 5e 4e 3d bd a3 d8 69 be bd 8c 26 bd
       0.22327223 -0.046217315 -0.22836547 -0.040661562
000040 ac 81 4a 3c f9 bf 9d be 6b f2 8c be 98 93 3b 3e
       0.012360018 -0.30810526 -0.275287 0.18318021
000050 9f 1b 46 be 2c 94 06 bc 6f f7 ef 3e 8b 86 b6 bd
       -0.19346474 -0.008214038 0.46868464 -0.08912381
000060 ff 2f cd 3d d5 49 8d bd fb d5 0e be c4 1b 41 be
       0.1001892 -0.06898848 -0.13948815 -0.18858248
000070 04 69 22 3e 22 cc 02 be ea 7d 20 3e c5 84 59 3e
       0.15860373 -0.12773183 0.15673032 0.21242054
000080 ed af 8c be 22 85 8c 3e 00 0f 0f 3d e2 7b 0f be
       -0.2747797 0.27445322 0.034926414 -0.14012101
000090 b5 65 15 3e 54 0e dd bd f7 8b 63 bd 8a 0f 88 3d
       0.1458958 -0.107937485 -0.055553403 0.06643589
0000a0 09 ca 62 bd 0d a8 b9 3d 35 7a c4 3d d3 ac ad bd
       -0.055368457 0.09065256 0.09593622 -0.08480229
0000b0 d9 3a 48 bd ac 14 ed 3d d6 0a 10 be 76 0e 52 be
       -0.048884246 0.115762085 -0.14066634 -0.20513329
0000c0 ce 52 d4 bd 74 7a c8 bd fb 3b 06 bd 23 e0 26 be
       -0.10367356 -0.09788981 -0.032772046 -0.16296439
0000d0 8b ab f1 bc a1 25 fc 3d f7 ce f4 3d e5 e2 11 3d
       -0.029500743 0.12311865 0.11953538 0.035616774
0000e0 d7 c8 c7 3c f6 62 ef bd e9 0c 60 be df f8 9f bd
       0.02438776 -0.11688797 -0.21879925 -0.0781114
0000f0 fb 60 fe bd b2 67 d3 bd ed 2f 0b 3e cc eb 30 3e
       -0.12420841 -0.10322513 0.13592501 0.1727745
000100 5a 15 64 bc 7b d2 06 be f7 17 bd 3c 39 a0 08 3e
       -0.013921106 -0.1316623 0.023082716 0.1334237
000110 33 9f ae bd d5 c5 22 be 2f ca c9 3c 39 9b 73 3e
       -0.085264586 -0.1589578 0.024632541 0.23789681
000120 5b 1e 57 3d 19 59 11 3e 8b ec 36 3e 7c 87 13 3d
       0.052519184 0.14194144 0.17863671 0.03601788
000130 4d 70 42 bd de 3b 74 bd 64 b3 72 bd 3f 98 50 bc
       -0.04747038 -0.059627406 -0.05925311 -0.012731611
000140 05 9f 2b be 9b ae 9d bd d6 55 de 3d ce 79 b8 3d
       -0.1675988 -0.07699319 0.10856216 0.090076074
000150 1d bf 88 bc 37 bc 37 bd 2c 42 f8 bd 41 74 2e bd
       -0.016692692 -0.04485723 -0.12121996 -0.042591337
000160 e9 66 22 3e 59 2b 91 3e d2 c1 c7 3c 37 e6 d9 bd
       0.1585957 0.28353384 0.024384413 -0.10639613
000170 6f 02 59 bb fd 5a 47 3e 25 6d f1 3d 2c f8 94 be
       -0.0033113023 0.19468303 0.11788396 -0.2909559
000180 a9 14 89 3c 56 c1 1b 3e 01 b5 1f 3e 68 f6 44 be
       0.016733484 0.1521047 0.15596391 -0.19234622
000190 b4 a3 df 3d 80 d3 f7 3c de 16 ba 3c 38 56 48 be
       0.10919896 0.030252218 0.022715982 -0.1956414
0001a0 3f d3 33 be 03 79 3e 3e 9e 0e ed bb 64 78 c7 bc
       -0.17561053 0.1860085 -0.0072344085 -0.024349399
0001b0 70 d3 c0 3d fd 9e dd bd be fd b4 bd 0a b1 bc bd
       0.094153285 -0.1082134 -0.0883746 -0.09213455
0001c0 79 d1 03 be fd 44 cb 3e 0d f3 15 be c3 c7 a4 3d
       -0.12872876 0.3970107 -0.14643498 0.08045914
0001d0 0a d2 c3 be 98 55 d0 bd 1e 4c 0f 3d 78 60 32 be
       -0.38246185 -0.10172576 0.0349847 -0.17419612
0001e0 4d b3 3d 3e 6e a0 43 3e 4b c7 dc bd 04 e8 cd bd
       0.18525429 0.19104168 -0.107801996 -0.10054019
0001f0 b1 87 2c 3e 3c b6 5e be 88 0b c7 bd 8a 97 7b be
       0.16848637 -0.21749204 -0.09718996 -0.24569526
000200 9c 59 13 be 41 af fa bd 9c e3 14 bd 1c 63 14 3e
       -0.14389652 -0.12240458 -0.036349878 0.14490932
000210 d7 69 95 be d9 c0 c8 3d d6 39 9e bd b1 ba c3 3d
       -0.29182312 0.09802408 -0.07725875 0.09557093
000220 8b 34 d2 3d f0 64 06 bf c5 65 8b 3e 6c d9 81 3d
       0.10263928 -0.5249777 0.27226081 0.06340298
000230 4a b0 b1 bd 00 b8 86 3d e7 1e 31 be dd 28 5e bb
       -0.086762026 0.06578064 -0.17296945 -0.0033898868
000240 c7 49 c3 bc ba b0 ae 3c fe 0f 89 3d 3f 71 c9 3e
       -0.02383889 0.021324504 0.066925034 0.39344212
000250 ff 69 96 3e e7 f1 00 3e 50 20 ad 3c 64 c8 58 3e
       0.29377744 0.12592278 0.021133572 0.21170193
000260 a0 87 c2 be d4 d4 4e 3e a2 44 b7 be 0e 7d 68 3d
       -0.379941 0.20198375 -0.3579455 0.056759886
000270 7f 03 d7 3d e1 78 a6 bd fb f2 82 3d d6 ef 18 be
       0.10498714 -0.081285246 0.06394001 -0.1493524
000280 50 11 c8 be 26 4d ef bd 1c 99 66 3c 21 94 4c be
       -0.39075708 -0.11684637 0.01407459 -0.19978382
000290 8f 22 86 3e d9 4d d1 3d bf 58 65 3e b3 a1 3b 3e
       0.2619824 0.102199264 0.22397135 0.18323402
0002a0 c1 47 90 3e fb e1 97 3d 9c 86 1e 3e 26 89 ef be
       0.28179744 0.07416149 0.15481037 -0.46784323
0002b0 51 94 45 bd 3c 6c 24 3d 27 7f 64 3d 0b 8f 8c bd
       -0.04823715 0.040142283 0.055785324 -0.06863221
0002c0 70 d7 78 3e a2 11 a1 bd 1c aa 61 3d 1e 94 b7 bd
       0.24300933 -0.07864691 0.05509387 -0.08963798
0002d0 f2 0a 58 3e c1 66 3a be 28 12 8a 3e 4b de 7e bd
       0.21097925 -0.1820326 0.26966977 -0.062223714
0002e0 bd 92 84 bd ca 6c 75 3d 2d 2e f5 bc ed c1 d9 3d
       -0.064733006 0.059918202 -0.029929245 0.106326915
0002f0 ac 4e 8f 3d b3 3b 49 be 27 ed 3c be 16 f2 20 3c
       0.06997427 -0.1965168 -0.18449841 0.009823343
000300 3c 81 b9 be 2c 44 02 3e cd 9b 6f be 7c 2f f4 bd
       -0.3623141 0.12721318 -0.23399277 -0.119231194
000310 5f 67 2e 3d 66 4f 70 be ef b7 ba bd 50 4b 55 be
       0.04257905 -0.23467788 -0.09117114 -0.2082951
000320 19 fa 2e 3d 22 80 41 3e 86 e0 b0 3d 60 81 7e bc
       0.04271898 0.18896535 0.086365744 -0.015533775
000330 d1 5f 4b bd 3d 90 27 3e 21 c6 14 3e 47 c1 2e bc
       -0.049651925 0.16363616 0.14528705 -0.010666198
000340 fe c6 3c 3e 10 0c 53 be 64 36 a3 3d 3d 1c 58 be
       0.18435284 -0.2061007 0.079693586 -0.21104522
000350 4b 24 23 3e 8b da d0 bd 8b 11 e2 bb bb 5d 63 be
       0.15931813 -0.10197934 -0.006899064 -0.22203724
000360 66 82 56 3e 88 30 b0 bd d5 a3 89 3d 8a dc 04 3e
       0.2094818 -0.086030066 0.067207016 0.12974754
000370 75 3c 25 3e e5 a9 54 be e5 dd d6 3e a4 eb 01 be
       0.16136344 -0.20767935 0.41966167 -0.12687546
000380 c0 90 cc 3d dd bb 14 be a9 eb ad 3d b8 48 80 bd
       0.09988546 -0.14524789 0.08492214 -0.0626387
000390 b8 dc f0 3d 83 ae 75 3e 46 99 ac 3d 4e 88 a8 3d
       0.11760849 0.23992352 0.08427672 0.08229123
0003a0 54 e9 0e 3c 60 ad 9e 3e 09 99 03 bd 1f e6 41 3e
       0.008722622 0.3099165 -0.032128368 0.1893544
0003b0 68 f9 ac bd 7f f9 8c be 2f 6f 2a 3e 10 17 15 bd
       -0.08446008 -0.275341 0.16643976 -0.036398947
0003c0 fd 80 45 3e 77 d5 8e 3d 27 9b 05 3e 41 a9 33 3e
       0.19287486 0.06974309 0.13047467 0.17545034
0003d0 da ec 85 3e 89 5b 9e bb 63 40 5d 3e 4b 8f 1d 3d
       0.26157266 -0.004832689 0.21606593 0.038466733
0003e0 09 00 e8 3c 36 89 67 bc 5a f3 89 bd 67 0e 64 be
       0.02832033 -0.014131835 -0.06735869 -0.22271119
0003f0 8d 0e 3d 3e 7d 71 c4 bd 38 6d 8d 3e 6c ef 7d be
       0.18462582 -0.09591959 0.2762239 -0.24798363
