data/embD/hoc18/model_1/hoc18_best.pt (torch, 343117 bytes, 87 tensors)

embedding.weight f4 [12, 20]
0	0x00000000	0.0
1	0x00000000	0.0
2	0x00000000	0.0
3	0x00000000	0.0
4	0x00000000	0.0
5	0x00000000	0.0
6	0x00000000	0.0
7	0x00000000	0.0
8	0x00000000	0.0
9	0x00000000	0.0
10	0x00000000	0.0
11	0x00000000	0.0
12	0x00000000	0.0
13	0x00000000	0.0
14	0x00000000	0.0
15	0x00000000	0.0
16	0x00000000	0.0
17	0x00000000	0.0
18	0x00000000	0.0
19	0x00000000	0.0
20	0xc0114b6c	-2.2702284
21	0xbccf937d	-0.025338883
22	0x3dccdcc8	0.10003048
23	0x3f8dc8f4	1.1076951
24	0xbfb2309b	-1.3921083
25	0x3f6c26e9	0.9224687
26	0xbf39d2c6	-0.7258724
27	0x3f198ae1	0.5997754
28	0x400c2b7b	2.1901538
29	0x3f6b9b98	0.9203429
30	0xbfbbcac1	-1.467125
31	0xbfed50bd	-1.8540264
32	0x3f9c3af1	1.2205487
33	0x3f73e7be	0.95275486
34	0x3f270050	0.6523485
35	0x3f506096	0.8139738
36	0x3e9677e8	0.29388356
37	0xbf926391	-1.1436635
38	0x3f4eac93	0.8073208
39	0x3f05822c	0.5215175
40	0x3e88db0d	0.26729622
41	0x3ecb6699	0.39726713
42	0x3eced4b1	0.40396646
43	0xbed96fb6	-0.4246804
44	0xbfa8ec38	-1.3197088
45	0x3fb51b11	1.4148885
46	0xbe323b3f	-0.17405413
47	0x3dbba94b	0.091631494
48	0xbe3e78e7	-0.18600808
49	0x3f83c64b	1.0294889
50	0xbfc7ab19	-1.559909
51	0xbfbdf543	-1.4840473
52	0xbfa9dd3d	-1.3270642
53	0x3f86f296	1.0542781
54	0xbf1e692d	-0.61879236
55	0xbf9ebfc1	-1.2402269
56	0x3ed3cfca	0.41369468
57	0xbf7fd04c	-0.9992721
58	0xbfbabbf2	-1.4588606
59	0x3e7ec6e0	0.24880552
60	0x3e28a1f2	0.16468027
61	0xbf45212e	-0.77003753
62	0xbea91375	-0.33022657
63	0xbe5ee660	-0.21767569
64	0xbfec2b97	-1.8450803
65	0xbf6f77ca	-0.9354216
66	0x3f7c7900	0.9862213
67	0x402571ed	2.5850785
68	0xbfe23bfd	-1.7674557
69	0xbf828084	-1.019547
70	0x3f493433	0.78595275
71	0xbec11e8e	-0.37718624
72	0xbfa1761a	-1.2614167
73	0xbd0b1840	-0.033958673
74	0x3e1cc676	0.15310082
75	0x3fd4d83d	1.6628491
76	0x3de314fa	0.11087985
77	0xbf9ab0ee	-1.2085245
78	0x3fcda1da	1.6065018
79	0xbff03352	-1.8765662
80	0x3d5c6bf6	0.053813897
81	0xbf2db961	-0.6786099
82	0xbf5aa2bd	-0.8540457
83	0x3fba62f5	1.4561449
84	0x40025200	2.036255
85	0xbf4b4285	-0.79398376
86	0xc02a2cd8	-2.658987
87	0x3f7ca26b	0.9868533
88	0xbf767fa6	-0.96288526
89	0x3ef8a32c	0.4856199
90	0x3e992a10	0.29914904
91	0x3fea2980	1.8293915
92	0xbee33b7e	-0.44381326
93	0x3eaa1f94	0.33227217
94	0xbf3c558c	-0.73568034
95	0x3f96a154	1.1767983
96	0xbf991244	-1.1958699
97	0x4017d5fd	2.3724358
98	0x3f12afbd	0.57299405
99	0x3f14925b	0.5803582
100	0xbfb2c787	-1.3967141
101	0x3e505849	0.20346178
102	0xbecd8e1f	-0.40147492
103	0xbf46a4db	-0.775953
104	0x3fe5607f	1.7920073
105	0xbf03cd52	-0.5148517
106	0x401945f9	2.3948958
107	0x3ed3a1dc	0.41334426
108	0xbd99a349	-0.07501847
109	0x3f93547a	1.1510155
110	0x3fb23ddf	1.3925132
111	0x3ea8d6a6	0.32976264
112	0xbef394c7	-0.47574446
113	0x3fc2177d	1.5163418
114	0xbff216ef	-1.8913249
115	0xbe89b576	-0.26896256
116	0xbf6ed6da	-0.9329659
117	0x3f9f507e	1.2446439
118	0x3eb869de	0.3601827
119	0xbf9e30de	-1.2358663
120	0xbe32e488	-0.1746999
121	0xbf147e46	-0.5800518
122	0x40037fdc	2.054679
123	0x3fa304ef	1.2735881
124	0xbf3d4589	-0.7393423
125	0x3f75d581	0.96028906
126	0x3f8f7867	1.1208619
127	0x3f14459a	0.57918704
128	0x3eb69897	0.35663292
129	0x3f3d0a5c	0.7384393
130	0xc000625f	-2.006004
131	0xbf1de9e7	-0.6168503
132	0x3fa7b10a	1.3100903
133	0xbde127eb	-0.10993942
134	0xbee8a47b	-0.4543799
135	0xbfc77eb3	-1.558554
136	0x3f1f1f80	0.6215744
137	0x3f187f87	0.5956959
138	0x3f81ab50	1.0130405
139	0xbf36931b	-0.71318215
140	0x405bc2d7	3.433767
141	0x3f915fc7	1.1357354
142	0xbf29f6f1	-0.6639243
143	0xbf7e4a27	-0.993319
144	0xbfd59443	-1.6685871
145	0x3fda77e0	1.7067833
146	0x3e50ec3a	0.20402613
147	0x3fe77fa8	1.8085833
148	0x3d75492a	0.059884228
149	0xbed2f36b	-0.41201338
150	0xbf0ca804	-0.5494387
151	0xbf8c08ca	-1.0940182
152	0xbece1a29	-0.40254334
153	0x3c67c39e	0.01414576
154	0x3f37f29b	0.7185456
155	0x3fa1395c	1.259563
156	0xbe347bec	-0.17625397
157	0x3f3fabf8	0.7487178
158	0xbf5a4318	-0.85258627
159	0x3d0830de	0.03324973
160	0xbdc48645	-0.095959224
161	0x3f63660c	0.88827586
162	0x3fd84fe4	1.6899381
163	0xbef436fa	-0.47698194
164	0x4005d245	2.0909588
165	0x3f400ea5	0.75022346
166	0xbdce1910	-0.10063374
167	0x3f35e678	0.7105479
168	0xbe106af1	-0.14103295
169	0x3fbfc5bc	1.4982219
170	0x3fedff40	1.8593521
171	0x4018a93c	2.3853292
172	0x3e62d597	0.2215179
173	0x3fa606f0	1.2970867
174	0xbeedd4e6	-0.4645149
175	0x3efb3bcf	0.49069068
176	0xbef56675	-0.4792973
177	0xbe1e462e	-0.15456459
178	0xbe86135a	-0.2618664
179	0x3f825ab3	1.0183929
180	0xbf6841ba	-0.9072529
181	0xbeb7c6df	-0.35893914
182	0x4002f3f7	2.0461404
183	0x3f08c35f	0.5342311
184	0xbfb1c5e3	-1.3888515
185	0xbf00c3c3	-0.5029871
186	0x3d945c6b	0.0724419
187	0xbe062a8a	-0.13102165
188	0x3ec635d2	0.38712937
189	0x3e82ab53	0.25521335
190	0xbd8c615a	-0.06854506
191	0x3f32e64f	0.69882673
192	0xbe6d0102	-0.23144916
193	0xbf97fda0	-1.1874275
194	0x3fa88776	1.3166339
195	0xbf2f342a	-0.6843897
196	0xbf05e2eb	-0.52299374
197	0xbf87c824	-1.0607953
198	0xbf49f7fe	-0.7889403
199	0xbf4c9d88	-0.79927874
200	0xbdb57cce	-0.08861695
201	0xbe860cca	-0.26181632
202	0xbf4193a3	-0.756159
203	0x3f283046	0.6569866
204	0xbfbc0cb8	-1.4691381
205	0xbe855924	-0.2604457
206	0x3f616bc6	0.88055074
207	0xbeb5edcf	-0.35532996
208	0x3f21f0d5	0.63258106
209	0x3f8d6d47	1.1048974
210	0xbf311c4c	-0.691838
211	0x3e5f3afe	0.21799847
212	0x3ff35a02	1.9011843
213	0x3df0b2e2	0.11752869
214	0x3f05c2ba	0.52250254
215	0x3fa95b21	1.3230935
216	0xbe681f0f	-0.22668098
217	0x3f9a2e4b	1.2045377
218	0x3f1bdca1	0.6088353
219	0x3f1b82c6	0.6074642
220	0xbfb279df	-1.3943442
221	0x3ea215e5	0.3165733
222	0xbe250916	-0.16116747
223	0x3dd6e4f5	0.10492889
224	0xbf81f5d9	-1.0153152
225	0xbfa07110	-1.2534504
226	0xbea5eef9	-0.32408884
227	0xbfd56af8	-1.6673269
228	0xbde8cd8b	-0.11367329
229	0x3fac44c1	1.3458482
230	0x3eedf05b	0.4647244
231	0xbe6f4491	-0.23366
232	0x3e9103ba	0.28323156
233	0xbef8554d	-0.4850258
234	0x3d4ca9dd	0.04996668
235	0xbfa3e7b0	-1.280508
236	0x3f040692	0.51572526
237	0x3d3dc383	0.046329033
238	0x3e303b66	0.17210159
239	0xbfc89255	-1.5669657

lstm.weight_ih_l0 f4 [80, 20]
0	0x3c33b4d3	0.010968405
1	0xbe2092f3	-0.15681057
2	0x3d6e0e51	0.058119122
3	0xbe081a63	-0.13291316
4	0xbdc6c4bb	-0.09705492
5	0xbe2aac61	-0.1666732
6	0xbbc2eb19	-0.005948436
7	0xbda25760	-0.07926822
8	0xbefbb06e	-0.49158043
9	0x3da43392	0.08017649
10	0x3e7d487b	0.2473468
11	0x3e3a5ec9	0.1820022
12	0xbd40723f	-0.046983954
13	0x3d6799d7	0.056543197
14	0xbeb22c6f	-0.34799525
15	0xbcfa6d29	-0.03056963
16	0xbe91b1cd	-0.28455964
17	0x3dc17f0f	0.09448063
18	0x3e1a9825	0.15097101
19	0xbdafa710	-0.085767865
20	0xbcea0fa9	-0.02857192
21	0xbd1c4dc3	-0.038160097
22	0x3e06f131	0.13177945
23	0x3d356456	0.04428514
24	0x3d4777e5	0.048698325
25	0x3d3b9853	0.045799565
26	0xbd1e3c8c	-0.03863196
27	0x3e0c96c3	0.13729386
28	0x3e629558	0.22127283
29	0x3e5a927a	0.21344939
30	0x3d14e9d6	0.036355816
31	0xbe968eb5	-0.29405752
32	0x3db752c5	0.08951334
33	0x3c660bce	0.0140409
34	0xbe2d722a	-0.16938081
35	0xbd3e717c	-0.046494946
36	0x3d9707a7	0.073745064
37	0xbde2457b	-0.110484086
38	0x3e42d6e0	0.19027281
39	0xbe7d06f4	-0.24709684
40	0x3e14e3d5	0.14540036
41	0xbdec4206	-0.115360305
42	0xbeeced16	-0.46274632
43	0xbc9d7f92	-0.01922587
44	0xbdcdf53f	-0.100565426
45	0xbd2302d3	-0.039797615
46	0xbf0f4f2e	-0.55980194
47	0xbcbe0581	-0.023195984
48	0x3e743bcc	0.23850936
49	0x3e1a9d0c	0.15098971
50	0xbe97fd7b	-0.29685578
51	0x3d070f9b	0.032973867
52	0x3dba1692	0.09086336
53	0x3d3d4ac9	0.0462139
54	0x3e0b7cf0	0.13621879
55	0xbc28b0db	-0.010296072
56	0xbdfa12c3	-0.1221061
57	0x3ed5c173	0.41749153
58	0xbe33c34e	-0.17554972
59	0x3e588e22	0.2114797
60	0xbc740bce	-0.014895393
61	0xbe288a1e	-0.16458938
62	0x3c66149d	0.0140430005
63	0x3dd734a7	0.105080895
64	0x3eaadac3	0.33370027
65	0xbe4ea66a	-0.2018067
66	0x3e024228	0.12720549
67	0x3d8764a2	0.06610991
68	0xbab115e8	-0.0013510557
69	0x3e7b9c00	0.24571228
70	0x3dd06797	0.10176008
71	0x3d7dfd4e	0.06200915
72	0xbd8247ea	-0.06361373
73	0x3e6a2925	0.22867258
74	0xbf06cc16	-0.5265516
75	0x3cccac19	0.024984406
76	0xbdea4d20	-0.11440492
77	0xbcfc6756	-0.030810993
78	0xbe560a4d	-0.20902367
79	0xbb84fddf	-0.004058584
80	0x3df88bfb	0.12136074
81	0x3e9be070	0.3044467
82	0x3e047a01	0.12937166
83	0x3d3624ae	0.044468574
84	0x3e8a13cf	0.26968238
85	0x3e3dc163	0.18530802
86	0x3d80f68e	0.062970266
87	0xbdd4ad64	-0.10384634
88	0xbdcd1906	-0.100145385
89	0xbe4322a0	-0.19056177
90	0x3e3199cb	0.17343824
91	0xbd882047	-0.066467814
92	0xbd67b3f4	-0.0565681
93	0x3e6ea5fd	0.23305507
94	0xbc657694	-0.014005322
95	0xbddec03c	-0.108765095
96	0x3c2b7f8f	0.010467424
97	0x3df16457	0.117867164
98	0xbe1ec93a	-0.1550645
99	0xbe4526d0	-0.19253087
100	0x3e7ed8f2	0.24887446
101	0x3de7addd	0.11312459
102	0xbe1c1d20	-0.15245485
103	0xbe768881	-0.2407551
104	0xbd2aebc9	-0.04172877
105	0x3e395620	0.1809926
106	0xbe4a5e63	-0.19762568
107	0x3d144b32	0.036204524
108	0xbe8988d1	-0.26862195
109	0x3e13891a	0.14407769
110	0x3e0b65c5	0.13613041
111	0xbce354fa	-0.02775048
112	0xbe8a4ec6	-0.27013224
113	0x3d9fccc9	0.078027315
114	0x3df27b37	0.118399076
115	0xbe2176fd	-0.15768047
116	0xbe748cbb	-0.2388181
117	0x3d7f40e1	0.062317733
118	0xbe9f3d37	-0.3110139
119	0x3e10208a	0.14074913
120	0xbc9a2147	-0.018814696
121	0xbe5b8163	-0.21436076
122	0x3dc49f70	0.09600723
123	0xbd2f8874	-0.04285474
124	0x3d4c6074	0.049896672
125	0xbd76f93a	-0.060296275
126	0xbe9e1afa	-0.30879956
127	0xbd3b7b17	-0.045771684
128	0x3cadcbd9	0.021215366
129	0xbdb0ede5	-0.08639125
130	0x3d68b8cd	0.056816865
131	0xbe3a937c	-0.18220323
132	0x3ddb48ad	0.10707221
133	0xbe07da8a	-0.1326696
134	0x3d8aed80	0.06783581
135	0x3e8546a3	0.26030454
136	0xbc0c363e	-0.008557854
137	0xbda3b7d8	-0.0799405
138	0x3e1e1f26	0.1544157
139	0xbdb1ac38	-0.08675426
140	0xbe32e56d	-0.17470331
141	0x3e1ae30c	0.15125674
142	0xbe075dd6	-0.1321939
143	0xbe1936fa	-0.14962378
144	0xbe43bc76	-0.19114861
145	0x3d564ba3	0.052318227
146	0xbcc3ec70	-0.023916453
147	0xbd9d7d0a	-0.07689865
148	0x3dae5356	0.08511989
149	0x3e10a833	0.14126663
150	0xbe85643e	-0.2605304
151	0x3e8a019f	0.26954362
152	0xb9cd41b9	-0.00039149614
153	0xbe80527c	-0.2506293
154	0x3b37881f	0.0028004718
155	0xbe02e740	-0.12783527
156	0x3c4434b0	0.011975452
157	0xbdc935db	-0.09824725
158	0x3e82ed22	0.25571543
159	0xbda61c15	-0.08110825
160	0x3db758b4	0.08952466
161	0x3cf13570	0.029444426
162	0xbf1304af	-0.5742902
163	0x3e57cdb9	0.2107457
164	0xbe3151b4	-0.17316324
165	0x3e2c70d0	0.1683991
166	0x3e0d444c	0.13795584
167	0x3eba2d15	0.3636252
168	0x3ecd4333	0.4009033
169	0xbe2e3002	-0.17010501
170	0xbdfc00dc	-0.123048514
171	0xbe9b17e7	-0.30291674
172	0x3e6867fb	0.22695915
173	0xbd4d3579	-0.050099824
174	0x3ec3fb4e	0.38277668
175	0x3e13674b	0.14394872
176	0xbe60f1b1	-0.21967198
177	0x3cc33cfc	0.02383279
178	0x3e2d7b7d	0.16941638
179	0xbd10176a	-0.03517858
180	0xbdd83ad5	-0.10558096
181	0x3e5cb915	0.21554978
182	0x3e8ff533	0.2811676
183	0x3bceab60	0.0063070506
184	0xbc075829	-0.008260765
185	0x3e765e20	0.24059343
186	0x3ed92dab	0.42417654
187	0xbe4f43b9	-0.20240678
188	0x3d89683d	0.06709335
189	0x3ee8751c	0.45401847
190	0x3b18190b	0.0023208286
191	0x3d9a7b94	0.07543102
192	0xbe69bb84	-0.22825438
193	0x3e6b224e	0.22962305
194	0xbecbb699	-0.39787748
195	0xbe14f784	-0.14547545
196	0xbd11d6a4	-0.035605088
197	0xbe8bb6d9	-0.2728794
198	0xbe412e44	-0.18865305
199	0xbe08c313	-0.13355665
200	0x3e4b2eae	0.19842026
201	0x3d0d3ec3	0.034483682
202	0x3e832665	0.2561523
203	0xbe1c628c	-0.15271968
204	0xbd82451f	-0.0636084
205	0xbe27ef48	-0.16399872
206	0xbca2f594	-0.019892491
207	0x3e4d3851	0.20041014
208	0xbec3c7cb	-0.38238367
209	0x3e72651a	0.2367138
210	0x3e6f0395	0.2334121
211	0x3e2fe4e9	0.17177166
212	0xbea0dafa	-0.31417066
213	0xbd29dd8d	-0.041471053
214	0xbd3f6931	-0.046731178
215	0xbde82861	-0.11335827
216	0xbe84275d	-0.25811282
217	0x3e825484	0.25455105
218	0xbde1f407	-0.11032873
219	0xbe2847c7	-0.16433631
220	0xbd8f4854	-0.06996217
221	0x3ebf8624	0.3740703
222	0xbdf27f45	-0.11840681
223	0xbe7f241f	-0.24916123
224	0x3d948da2	0.07253577
225	0xbe355300	-0.17707443
226	0xbc575a25	-0.013144051
227	0x3d2e8e28	0.04261604
228	0x3d93ef0c	0.07223329
229	0x3dba71d1	0.0910374
230	0xbdfe6f1e	-0.12423538
231	0x3db988c8	0.09059292
232	0xbd6e6ac9	-0.058207307
233	0xbcf38d66	-0.02973051
234	0xbd8350dd	-0.06411908
235	0x3d7abeb9	0.061217044
236	0xbe587e07	-0.21141826
237	0x3e52cd90	0.20586228
238	0x3cb8fdb0	0.022581905
239	0x3e928798	0.28619075
240	0xbe1f73d1	-0.15571524
241	0xbdcd9e65	-0.10039977
242	0xbe95d52a	-0.29264194
243	0xbe29ec8a	-0.16594139
244	0xbd68ed4d	-0.056866933
245	0xbe30048e	-0.17189237
246	0x3de74188	0.11291796
247	0xbdaedffc	-0.085388154
248	0x3e4ffd4e	0.20311472
249	0xbd9cca33	-0.07655754
250	0xbd8f3f2b	-0.0699447
251	0x3e0ace5b	0.13555281
252	0xbe8f80de	-0.28028005
253	0x3e8e50be	0.27795976
254	0x3db04f10	0.0860883
255	0xbd8ec22e	-0.069706306

lstm.weight_hh_l0 f4 [80, 20]
0	0xbc202833	-0.009775209
1	0x3e951ede	0.29125112
2	0xbda497b0	-0.080367446
3	0x3d7647d1	0.060127083
4	0x3e9aeaee	0.30257362
5	0x3dcc22db	0.09967586
6	0x3e87b393	0.26504192
7	0x3d2f5acd	0.042811204
8	0xbddc33db	-0.10752078
9	0x3e588813	0.21145658
10	0x3e9e681e	0.3093881
11	0xbda63a7a	-0.08116622
12	0xbdb02407	-0.08600622
13	0x3e80d7bc	0.25164592
14	0x3dc55cd1	0.09636844
15	0x3ec0cf0b	0.3765796
16	0x3eb6aa91	0.35677007
17	0x3edcb76d	0.43108693
18	0xbdab9a7d	-0.08379076
19	0xbe0a9fe5	-0.13537557
20	0xbdf6f471	-0.12058342
21	0x3eac8183	0.3369256
22	0x3ebb8630	0.36625814
23	0x3e61bd52	0.22044876
24	0x3e310da1	0.17290355
25	0x3ca489c2	0.02008522
26	0xbe9f4570	-0.31107664
27	0x3eb50edd	0.35362902
28	0x3cea75bd	0.028620595
29	0x3e169c2a	0.1470801
30	0x3e8cc938	0.27497268
31	0x3eb83f94	0.35986006
32	0xbf1a094e	-0.6017045
33	0xbccaa1bb	-0.024735322
34	0x3e36ed80	0.17864037
35	0x3d9596df	0.07304167
36	0xbdff3828	-0.12461883
37	0x3d063976	0.032769643
38	0x3f267abb	0.6503102
39	0xbeb019e3	-0.3439475
40	0x3e00034e	0.1250126
41	0xbebefeb6	-0.37303704
42	0xbc3ee857	-0.011652074
43	0x3eb5c597	0.35502312
44	0xbc4a00f2	-0.012329327
45	0xbe22ff63	-0.15917735
46	0x3e1d8a9f	0.15384911
47	0x3ec366aa	0.38164264
48	0xbe48a443	-0.19593911
49	0xbee10919	-0.43952253
50	0x3f7c62ef	0.9858846
51	0xbd8c95e4	-0.06864527
52	0xbe817de4	-0.2529136
53	0xbe0f367f	-0.13985632
54	0xbe71c80d	-0.2361147
55	0xbd5f7521	-0.054555062
56	0x3e3094c0	0.17244244
57	0xbd8da8b1	-0.06916941
58	0x3d4a788a	0.04943136
59	0x3ebf80e7	0.37403032
60	0x3e56c8c0	0.20975018
61	0x3e624a61	0.22098686
62	0x3ce211a1	0.027596297
63	0x3d7715cf	0.060323533
64	0x3eb1634b	0.34646067
65	0xbdde45a1	-0.108531244
66	0xbe9a2bb8	-0.3011148
67	0x3eacbf51	0.33739713
68	0x3e91bcbe	0.2846431
69	0xbed5ff01	-0.41796115
70	0x3f3b7ba9	0.73235565
71	0xbe4b90af	-0.19879411
72	0xbdab809c	-0.0837414
73	0xbf11bda5	-0.5693
74	0x3df85d09	0.1212712
75	0xbdd44bcf	-0.10366022
76	0xbe363ec4	-0.1779738
77	0xbe6e2719	-0.23257102
78	0x3d8e5150	0.06949103
79	0x3d985fd1	0.074401505
80	0xbce311e6	-0.027718496
81	0x3ef808ab	0.48444113
82	0x3ed85c0e	0.42257732
83	0x3e14649f	0.14491509
84	0x3e84ff57	0.2597606
85	0xbebc4219	-0.36769179
86	0xbeab14a2	-0.3341418
87	0x3e2c3f0c	0.16820925
88	0x3c18dcf3	0.009330022
89	0xbd8fc25d	-0.07019494
90	0xbe4a0f3c	-0.19732374
91	0x3df73834	0.12071267
92	0xbe968edf	-0.29405877
93	0x3ef022c7	0.46901533
94	0x3e39f4ad	0.18159743
95	0xbdd48699	-0.10377235
96	0xbbf831ca	-0.0075742947
97	0xbeb307f1	-0.34966996
98	0x3e1b3ef0	0.15160728
99	0x3e7fc125	0.24976023
100	0xbd60556f	-0.054768976
101	0xbc35c209	-0.011093625
102	0x3ec3345b	0.38125882
103	0xbe99601c	-0.29956138
104	0xbd961aff	-0.07329368
105	0x3ef7bc07	0.4838564
106	0xbed4081b	-0.41412434
107	0xbc92e7fb	-0.017932883
108	0xbdfa4424	-0.12220028
109	0xbef1a7c0	-0.47198296
110	0xbe9ddd9c	-0.30833137
111	0xbd87a464	-0.06623152
112	0xbe4582a0	-0.1928811
113	0x3d90bd79	0.07067389
114	0x3e37d24b	0.17951314
115	0xbf13390a	-0.5750891
116	0x3e429dac	0.1900546
117	0x3d4c1cca	0.049832143
118	0x3f0ab8cb	0.5418822
119	0x3e90455c	0.28177917
120	0xbb1133cd	-0.002215612
121	0x3e983701	0.29729465
122	0x3e8cb31f	0.2748041
123	0xbe405bf8	-0.18785083
124	0x3ce4b48e	0.027918126
125	0x3ec24f45	0.37951103
126	0xbeb3fc50	-0.35153437
127	0x3eb6567f	0.35612866
128	0x3e1613d3	0.14656
129	0xbda8c836	-0.08241312
130	0x3f1cf447	0.6131024
131	0xbd94c653	-0.0726439
132	0x3cc5e8d6	0.024158876
133	0x3d5c6153	0.053803753
134	0x3ea4093d	0.32038298
135	0x3dce8f9e	0.100859866
136	0x3cb2cb47	0.021825446
137	0xbe7bd63d	-0.24593444
138	0x3e8f81be	0.28028673
139	0xbe68f553	-0.22749834
140	0x3e89db1e	0.26924986
141	0x3e5df6fc	0.21676248
142	0x3e0c667b	0.13710968
143	0x3de6e93d	0.112749554
144	0xbd6ef105	-0.058335323
145	0x3c31f0f0	0.010860667
146	0x3d8a6062	0.06756665
147	0x3bb5c455	0.0055470862
148	0x3e5c1fb6	0.21496472
149	0xbd32d2eb	-0.04365818
150	0x3dbcdad1	0.092214234
151	0xbebb12ee	-0.3653788
152	0xbe00242f	-0.12513803
153	0x3e173f3a	0.14770213
154	0x3f0dd4a8	0.5540261
155	0xbf1173b5	-0.5681718
156	0x3d3a4f67	0.04548588
157	0xbe7dc0c5	-0.24780567
158	0x3e1e0f89	0.15435614
159	0x3d895ff8	0.06707758
160	0x3e0dfdf6	0.1386641
161	0xbe91d28f	-0.28480956
162	0x3efe10d0	0.49622202
163	0x3ce91169	0.028450685
164	0xbebccbd3	-0.36874256
165	0x3df85e06	0.121273085
166	0x3deb677b	0.11494347
167	0xbe065570	-0.1311853
168	0xbf36d2ba	-0.71415293
169	0xbd02cdce	-0.031934552
170	0x3ee27bb4	0.44235003
171	0x3e68864c	0.2270748
172	0x3cc8b2f2	0.02449939
173	0x3f185de7	0.59518284
174	0xbd0d588c	-0.034508273
175	0x3df62225	0.12018231
176	0xbdd61210	-0.10452664
177	0x3e5c2220	0.21497393
178	0x3d551e9b	0.05203114
179	0xbcfadd68	-0.030623153
180	0x3f1abdbc	0.6044576
181	0xbe76e0d0	-0.24109197
182	0x3df2d0b9	0.11856217
183	0x3e6a0d8d	0.22856732
184	0xbdaa0974	-0.08302584
185	0x3f0a04a5	0.53913337
186	0x3eae8855	0.34088388
187	0x3eea3320	0.4574213
188	0x3da248cc	0.07924041
189	0xbca204d6	-0.019777697
190	0x3e5d6d00	0.21623611
191	0xbe8f9f83	-0.28051385
192	0x3dca93d7	0.098914795
193	0x3f131d3b	0.5746648
194	0x3e845ce2	0.25852114
195	0xbf07d7f4	-0.53063893
196	0xbd1a2f25	-0.037642617
197	0x3e49a7b5	0.19692881
198	0x3f0323d2	0.5122653
199	0x3e138730	0.14407039
200	0xbca7c9ee	-0.02048203
201	0xbe6b8fa6	-0.23004016
202	0x3eea59e9	0.4577172
203	0x3e3ff674	0.18746358
204	0xbe874b47	-0.2642462
205	0xbf1bfbfe	-0.60931385
206	0x3d6f1af0	0.0583753
207	0xbf1a3522	-0.60237324
208	0xbf5a1b20	-0.8519764
209	0xbf03fc42	-0.5155679
210	0x3f7c0223	0.9844076
211	0x3e3a48a1	0.18191768
212	0xbee8d3c5	-0.45474067
213	0x3e80caf7	0.2515485
214	0xbdf0507a	-0.117341
215	0xbef22199	-0.47291258
216	0x3df096f9	0.11747546
217	0x3e6e8095	0.23291238
218	0x3ee589c5	0.44831672
219	0xbf49ebab	-0.78875226
220	0xbe5aed18	-0.21379507
221	0x3d8f8ec2	0.07009651
222	0x3dc8158e	0.09769736
223	0x3ea42cd3	0.32065448
224	0x3deb13e7	0.114784054
225	0x3ca49f81	0.020095589
226	0xbea9fda9	-0.3320134
227	0x3e276b26	0.16349468
228	0x3e3a2573	0.18178348
229	0xbe174111	-0.14770915
230	0x3ead2b89	0.33822277
231	0xbe7ae27f	-0.24500464
232	0xbeda09a6	-0.42585486
233	0xbe5b7cfc	-0.21434397
234	0x3e10d132	0.14142302
235	0xbf090e6b	-0.53537625
236	0xbd9c6bf3	-0.07637777
237	0xbe5f8882	-0.21829417
238	0x3eef65be	0.4675731
239	0x3e34a3a2	0.17640546
240	0xbdf13685	-0.11777977
241	0x3c59ca52	0.013292866
242	0x3d9272cf	0.07150804
243	0xbe0aae5d	-0.13543077
244	0x3de5b6ab	0.11216482
245	0xbe49bbfd	-0.19700618
246	0x3e5dc92b	0.2165877
247	0xbd708a57	-0.05872568
248	0xbe6d0670	-0.23146987
249	0x3e96b85f	0.2943754
250	0x3e8f4726	0.2798397
251	0x3cc836b1	0.024440141
252	0xbe7a5e42	-0.24450019
253	0x3e633f95	0.22192223
254	0x3e913898	0.2836349
255	0x3e0fe6c4	0.14052874

lstm.bias_ih_l0 f4 [80]
0	0xbdac55db	-0.08414813
1	0x3ea19079	0.31555536
2	0x3e48ff3e	0.19628617
3	0xbd68120b	-0.056657832
4	0x3e140bb2	0.14457586
5	0x3d81c47e	0.06336306
6	0x3dd7cd48	0.10537201
7	0xbdae5206	-0.085117385
8	0x3e8eaa15	0.27864137
9	0x3e6a86f1	0.22903039
10	0x3e9f2a91	0.31087163
11	0x3d76cc93	0.06025369
12	0xb92d8c53	-0.0001655084
13	0xbc1019c4	-0.0087952055
14	0x3e6f107f	0.23346137
15	0x3c778014	0.01510622
16	0xbe466146	-0.19373044
17	0x3d57f79c	0.052726373
18	0x3e32bd32	0.17454985
19	0x3de596d8	0.11210412
20	0x3d8a51ec	0.067539066
21	0x3e7917ba	0.24325457
22	0x3da57d50	0.08080542
23	0x3d965dda	0.073421195
24	0x3dbccd8d	0.09218893
25	0x3da4cefd	0.080472924
26	0x3e50c109	0.20386137
27	0x3e8b412e	0.27198166
28	0xbcc91203	-0.024544721
29	0x3d79207f	0.060822006
30	0x3d4355aa	0.047689117
31	0xbacfced7	-0.001585449
32	0x3eb82ae1	0.35970214
33	0x3f038f41	0.51390463
34	0x3e18b30d	0.14912052
35	0x3eac80bd	0.3369197
36	0x3ea7b8b5	0.32758108
37	0x3eb31e83	0.34984216
38	0xbdc25ddd	-0.09490559
39	0xbd955fc2	-0.07293655
40	0x3e33711b	0.17523615
41	0xbe208226	-0.15674648
42	0x3d921127	0.07132178
43	0x3e5cabf1	0.21549965
44	0x3e7df148	0.24799073
45	0xbd9daec8	-0.076993525
46	0xbe1acead	-0.15117903
47	0x3d9808a9	0.07423527
48	0xbe373b09	-0.17893614
49	0x3d6cd16b	0.057816904
50	0x3d5eeb11	0.054423396
51	0xbd06f4e5	-0.032948393
52	0xbddae973	-0.10689058
53	0x3e370e83	0.1787663
54	0xbd4898b7	-0.048973765
55	0x3dcc1339	0.09964604
56	0x3d28f808	0.041252166
57	0xbe27f331	-0.16401364
58	0xbde8127a	-0.11331649
59	0x3e1c032f	0.1523559
60	0xbbb4c2f4	-0.0055164043
61	0x3e56ec13	0.20988493
62	0x3e90f791	0.28313878
63	0x3e270399	0.16309966
64	0x3e87a687	0.26494238
65	0x3eb0298e	0.34406704
66	0x3e9ad343	0.30239305
67	0x3d70370a	0.05864624
68	0x3efb2fef	0.49060008
69	0x3e6fb1a3	0.23407607
70	0x3f061a7f	0.5238418
71	0x3e627cd1	0.22117926
72	0x3e8dc486	0.27688998
73	0x3e24275f	0.16030644
74	0xbdb1acd9	-0.08675546
75	0x3e991a1b	0.2990273
76	0x3e85c4d0	0.2612672
77	0x3e230fd4	0.15924007
78	0x3e8ea9de	0.27863973
79	0x3e4c09bb	0.19925587

lstm.bias_hh_l0 f4 [80]
0	0x3e761955	0.24033101
1	0x3d69c9e1	0.057077292
2	0x3e86ca27	0.26326105
3	0x3e5e406f	0.21704267
4	0x3e321001	0.17388918
5	0xbde7f9b5	-0.11326925
6	0x3e8eae26	0.2786724
7	0x3d04985e	0.03237187
8	0x3c5b8c4b	0.013400148
9	0x3ea51c43	0.32248124
10	0x3db0a00b	0.08624276
11	0x3e6e763b	0.23287289
12	0xbcfbb6f5	-0.03072689
13	0xbe355397	-0.17707668
14	0x3ecfe1f4	0.40602076
15	0x3d7eab3d	0.062175024
16	0x3c53d60c	0.012929451
17	0xbd268f8d	-0.040664244
18	0x3e484044	0.19555765
19	0xbd65af0f	-0.056075152
20	0x3e938b17	0.28817055
21	0x3e3cd6f8	0.18441379
22	0xbdd36e32	-0.103237525
23	0x3eb67b6b	0.35641035
24	0xbb3f5ff4	-0.002920148
25	0x3caa499d	0.020787055
26	0xbd577fa8	-0.052611977
27	0x3ddf703d	0.1091008
28	0x3e3c5803	0.18392949
29	0x3d9c6a36	0.07637446
30	0x3dd6ddf8	0.10491556
31	0x3e459a2f	0.19297098
32	0x3e2f6939	0.17129983
33	0x3e8b512e	0.27210373
34	0x3e9c66e4	0.3054725
35	0x3e719b71	0.23594452
36	0xbcb06e5f	-0.021537004
37	0x3e7958a3	0.24350218
38	0xbdb973c2	-0.09055282
39	0x3e66383d	0.2248239
40	0xbdc19fd0	-0.0945431
41	0x3e66c595	0.22536309
42	0xbe05d98f	-0.13071273
43	0x3d522bee	0.051311426
44	0x3e6da95a	0.23209134
45	0xbde75fa6	-0.1129754
46	0xbe4f1370	-0.20222259
47	0x3bb6803a	0.005569485
48	0xbe0919bd	-0.13388725
49	0x3d0028b9	0.031288836
50	0x3e7c2e9c	0.24627155
51	0x3d00c7e6	0.031440638
52	0x3d6644d7	0.056217995
53	0xbe7c4323	-0.24634986
54	0x3e69cee5	0.2283283
55	0x3d6f0069	0.05835
56	0xbe283313	-0.16425733
57	0x3dd4a545	0.10383085
58	0xbe745717	-0.23861347
59	0x3e172166	0.14758834
60	0x3df4af99	0.11947555
61	0xbe19df0c	-0.15026492
62	0x3d2ddda3	0.042447697
63	0x3e5f2afa	0.21793738
64	0x3d25d383	0.040484916
65	0x3dfd2541	0.12360621
66	0xbd9a99e9	-0.07548887
67	0xbcb507f8	-0.022098526
68	0x3eb09cae	0.34494537
69	0x3eb6b6e7	0.35686418
70	0x3f1a6b15	0.60319644
71	0x3e2bd9d9	0.16782321
72	0x3e864794	0.26226485
73	0x3e200bc3	0.15629487
74	0x3e165d10	0.14683938
75	0x3e57febb	0.21093266
76	0xbcc590b0	-0.024116844
77	0x3e5d171a	0.21590844
78	0xbd549c85	-0.05190708
79	0x3e2e9f59	0.17052974

lstm.weight_ih_l0_reverse f4 [80, 20]
0	0xbc899f36	-0.01679955
1	0xbe36921d	-0.17829175
2	0xbe8bc801	-0.27301028
3	0xbca68238	-0.020325765
4	0xbe0ce09e	-0.1375756
5	0x3cfca5cb	0.030840775
6	0xbddffa96	-0.10936467
7	0x3d9dc667	0.07703858
8	0xbe67dbff	-0.22642516
9	0xbd986208	-0.07440573
10	0x3de03cd0	0.10949099
11	0xbd9fb744	-0.07798627
12	0xbda3fc8e	-0.08007155
13	0x3ce57683	0.028010612
14	0xbe4d9a3d	-0.20078368
15	0x3ea7132c	0.32631814
16	0xbe478b52	-0.1948674
17	0x3ea62a29	0.3245404
18	0xbe8bbec8	-0.27293992
19	0xbdb450e6	-0.08804493
20	0xbe3a557c	-0.18196672
21	0xbe002b47	-0.12516509
22	0xbe01c7bd	-0.1267385
23	0xba89c33b	-0.0010510454
24	0x3dba7116	0.09103601
25	0xbd4366f2	-0.0477056
26	0xbdb3c196	-0.08777158
27	0x3e67e13a	0.22644511
28	0x3c86a4b5	0.01643596
29	0xbdd1b038	-0.10238689
30	0xbe1331ce	-0.14374468
31	0xbe5f1145	-0.21783932
32	0x3eb836a3	0.35979185
33	0x3db1dff2	0.08685292
34	0x3e8ab04e	0.27087635
35	0x3e6f8cc2	0.23393539
36	0xbe07db77	-0.13267313
37	0xbe0153c8	-0.12629616
38	0x3d5a5683	0.05330516
39	0x3e8ac1fc	0.27101123
40	0xbe2fa479	-0.17152585
41	0xbe315983	-0.17319302
42	0xbd8210f0	-0.06350887
43	0xbe3b6025	-0.18298395
44	0xbdf365f1	-0.11884678
45	0xbd82903e	-0.06375168
46	0x3e3742de	0.17896602
47	0x3dd59fff	0.104309075
48	0x3e2de09a	0.1698021
49	0x3d62391d	0.05523025
50	0xbe1855f9	-0.14876546
51	0xbe083496	-0.1330131
52	0x3eb1d199	0.34730223
53	0x3ce2efc2	0.027702216
54	0x3e5ebb76	0.21751198
55	0x3e8ae31f	0.27126405
56	0xbc90163e	-0.01758873
57	0x3dbb185a	0.09135504
58	0x3e4d8f71	0.2007425
59	0xbea34793	-0.31890544
60	0x3e663cdd	0.22484155
61	0x3e2c2165	0.16809614
62	0x3ce50b58	0.02795951
63	0xbe3eec8f	-0.18644927
64	0xbd3b6704	-0.04575254
65	0xbdc51af5	-0.09624282
66	0xbe018695	-0.12648995
67	0xbd19dd5d	-0.037564624
68	0xbc2ac11b	-0.0104220165
69	0x3e01b1d5	0.12665494
70	0xbe03eb01	-0.12882616
71	0x3e2ab0f2	0.16669062
72	0xbe5d1ed3	-0.2159379
73	0xbe495500	-0.19661331
74	0xbe2e758d	-0.1703703
75	0xbb8401a6	-0.004028517
76	0x3e627df9	0.22118367
77	0x3c24218e	0.010017766
78	0xbeed20d6	-0.46314114
79	0x3e74f104	0.23920065
80	0x3d9c22b2	0.07623805
81	0xbe0f6677	-0.14003931
82	0xbe3d0808	-0.18460095
83	0x3e6cd08a	0.23126426
84	0xbcf22768	-0.029559806
85	0x3da3c085	0.079957046
86	0xbe8ec156	-0.2788188
87	0x3d7d8aa1	0.061899785
88	0xbe611843	-0.21981911
89	0x3c36043f	0.011109411
90	0x3e10c255	0.14136632
91	0x3e56b61c	0.20967907
92	0x3dd3cfae	0.10342346
93	0xbcdbcb7b	-0.026830425
94	0xbe4c3e1d	-0.1994557
95	0x3e98fc27	0.29879877
96	0xbcb670dc	-0.022270612
97	0x3df7bf32	0.120970145
98	0xbe03b9c1	-0.12863828
99	0x3ea4e700	0.3220749
100	0x3d87998e	0.06621085
101	0xbdb12dfc	-0.08651349
102	0xbd7bd663	-0.061483752
103	0x3de44315	0.111456074
104	0xbe296bce	-0.1654503
105	0x3da60ce7	0.0810793
106	0x3e1eef3e	0.15520951
107	0xbd90d567	-0.07071953
108	0x3da7e1fe	0.081974015
109	0xbddfdf72	-0.10931291
110	0xbdeccdb2	-0.11562671
111	0xbda18a92	-0.07887758
112	0xbd0a4502	-0.033757217
113	0x3e0ecc80	0.13945198
114	0xbdf597cd	-0.11991844
115	0xbdc96854	-0.09834352
116	0x3e70146d	0.23445292
117	0x3e0220b7	0.12707792
118	0x3e2b51e5	0.16730459
119	0x3de0540a	0.10953529
120	0x3da099bd	0.07841823
121	0x3decbaa3	0.11559036
122	0x3d00afe4	0.031417742
123	0xbdef692c	-0.11689982
124	0x3d1877c3	0.03722359
125	0xbe191c53	-0.14952211
126	0x3ddde930	0.108354926
127	0xbd9ff15f	-0.0780971
128	0x3e245933	0.16049652
129	0xbe9d7c82	-0.30759054
130	0x3e04a7a4	0.12954575
131	0x3d95c211	0.07312406
132	0xbd6d1108	-0.05787757
133	0x3ca452d5	0.020059029
134	0x3d650956	0.055917107
135	0x3d432add	0.0476483
136	0x3da32c1e	0.07967399
137	0xbe6f1b83	-0.23350339
138	0xbe135f1e	-0.14391753
139	0xbe5c0548	-0.2148639
140	0xbe40641a	-0.18788186
141	0x3ea9d154	0.33167517
142	0x3e49c97f	0.19705771
143	0xbe1439c4	-0.14475161
144	0xbc40d3e0	-0.011769265
145	0x3e960d35	0.2930695
146	0x3e1ee4a5	0.15516908
147	0x3c817c2e	0.015806284
148	0x3e05c574	0.13063604
149	0x3f160e48	0.5861554
150	0xbd8b1e67	-0.06792908
151	0x3ce9210e	0.028458145
152	0x3e164042	0.1467295
153	0x3e6a6759	0.22890987
154	0xbe0dcd06	-0.13847741
155	0xbe5228cf	-0.2052338
156	0xbe9a7974	-0.30170786
157	0x3d0010df	0.03126609
158	0xbe8bb3cd	-0.27285615
159	0x3dcb5886	0.09928994
160	0x3dc0cb82	0.09413816
161	0xbd5c81b9	-0.05383465
162	0x3ea5bbdc	0.32369888
163	0x3da290cc	0.07937774
164	0xbc288fdd	-0.010288206
165	0xbe8035f3	-0.2504116
166	0xbef4147d	-0.4767188
167	0xbe6acf97	-0.22930752
168	0x3e847c8f	0.2587628
169	0x3e18ad21	0.14909793
170	0x3e219708	0.1578027
171	0xbdcdb719	-0.10044689
172	0x3e2f1734	0.17098695
173	0x3e47805f	0.19482563
174	0xbe28b05c	-0.16473526
175	0x3e388f31	0.18023373
176	0xbdbad310	-0.09122288
177	0xbe9a9065	-0.3018829
178	0x3cad22d0	0.021134764
179	0x3e0c11b0	0.13678622
180	0x3e792a76	0.24332604
181	0xbdd2edce	-0.10299264
182	0xbeaef187	-0.34168646
183	0xbe4ffbbc	-0.20310873
184	0xbddffa6d	-0.10936437
185	0xbd80ef23	-0.06295612
186	0x3e2d748f	0.16938995
187	0xbc53a9c3	-0.012918892
188	0xbde38ae2	-0.11110474
189	0x3d8b2da9	0.06795818
190	0x3d5be8a9	0.05368868
191	0x3c9e02d8	0.019288465
192	0xbdee8270	-0.11645973
193	0xbe8634ef	-0.2621226
194	0xbe30e4a1	-0.17274715
195	0x3e1683a1	0.1469865
196	0xbec1e610	-0.37870836
197	0x3e92d3b2	0.28677136
198	0xbe4d1984	-0.20029265
199	0x3b789bf3	0.003793475
200	0x3d5b51cb	0.0535448
201	0xbe25fcdf	-0.16209744
202	0x3e95e7c6	0.29278392
203	0xbd9d12fc	-0.076696366
204	0x3e9b1139	0.30286577
205	0x3e212587	0.15736972
206	0xbdfa687c	-0.1222696
207	0x3d70069f	0.058600064
208	0x3c85e341	0.016343715
209	0x3e312ea4	0.17302948
210	0x3d098994	0.03357847
211	0xbe10f02d	-0.1415412
212	0x3d84341b	0.06455251
213	0x3e565a11	0.20932795
214	0xbdfa29a9	-0.12214977
215	0x3e48d20f	0.19611381
216	0x3db3b4fa	0.08774753
217	0xbe33ebd7	-0.17570435
218	0x3e82757c	0.25480258
219	0x3e31ebae	0.17375061
220	0xbdbef4ec	-0.09324059
221	0xbe2b14e1	-0.16707183
222	0x3e757623	0.23970847
223	0xbe3820e7	-0.17981301
224	0x3e22385c	0.15841812
225	0xbcf41acd	-0.029797936
226	0x3e3b0b82	0.18266109
227	0x3d5fea6c	0.05466692
228	0xbec0695a	-0.37580377
229	0x3e7183ed	0.23585482
230	0xbc80e614	-0.01573471
231	0xbd83244a	-0.06403406
232	0xbebee53d	-0.3728427
233	0x3e58c221	0.21167804
234	0x3cde30ed	0.027122939
235	0xbdf67c2a	-0.12035401
236	0x3e085df0	0.13317084
237	0x3e2c4da1	0.16826488
238	0xbeaad144	-0.33362782
239	0xbe425855	-0.18979008
240	0xbe592b3a	-0.21207896
241	0xbe386d72	-0.180105
242	0xbc2cf544	-0.010556523
243	0x3e3a9afe	0.18223187
244	0xba8ae995	-0.0010598177
245	0x3e2dd8e6	0.16977271
246	0xbca26f57	-0.019828482
247	0x3e55a3b8	0.20863235
248	0xbe014ded	-0.12627383
249	0xbe0dc480	-0.1384449
250	0xbd658b36	-0.056040965
251	0xbdd9e276	-0.10638897
252	0xbeb23930	-0.34809256
253	0xbdc7fb34	-0.0976471
254	0xbec1608f	-0.3776898
255	0xbec84b2d	-0.39119855

lstm.weight_hh_l0_reverse f4 [80, 20]
0	0xbe110cbd	-0.14165016
1	0x3edd8b78	0.4327047
2	0xbd2449fc	-0.04010962
3	0x3ee36ede	0.44420522
4	0xbdb577ae	-0.08860718
5	0xbf365a41	-0.71231467
6	0x3ec9fb73	0.39449653
7	0xbe3f0f05	-0.18658073
8	0x3c870e57	0.01648633
9	0x3eaf557d	0.3424491
10	0xbe8738dc	-0.26410568
11	0xbe386123	-0.18005805
12	0x3ea66e87	0.325062
13	0x3dcbebac	0.0995706
14	0xbdfe24eb	-0.12409385
15	0xbcd735bf	-0.026270745
16	0x3db7493c	0.08949515
17	0x3ea5f027	0.32409784
18	0xbea7bd43	-0.32761583
19	0xbef5f8be	-0.48041338
20	0xbe50f0b8	-0.20404327
21	0xbdf05a52	-0.11735977
22	0x3f15395b	0.5829064
23	0x3e1bbe95	0.1520942
24	0x3f0aa92b	0.5416438
25	0x3d9603b5	0.07324926
26	0x3dd77bdf	0.105216734
27	0xbee3b6fd	-0.44475546
28	0x3d98a2dc	0.07452938
29	0xbd415077	-0.047195878
30	0xbdfcc5ab	-0.1234239
31	0x3e712f1c	0.23553127
32	0xbe161723	-0.14657263
33	0xbec8528f	-0.39125487
34	0x3ddb42b9	0.10706086
35	0x3f358d66	0.7091888
36	0xbe010fa9	-0.1260363
37	0x3e21f28b	0.15815179
38	0x3f201afe	0.62541187
39	0xbe99a713	-0.3001028
40	0xbe0755aa	-0.13216272
41	0x3e5d6be5	0.2162319
42	0x3ed08b4d	0.40731278
43	0xbe055ee6	-0.13024482
44	0x3dc0eeee	0.09420572
45	0x3f063d94	0.5243771
46	0x3ca2c735	0.01987038
47	0xbe3f1fad	-0.18664427
48	0x3d979114	0.07400718
49	0xbc7f30d5	-0.015575607
50	0xbdbaf369	-0.09128458
51	0xbdd8fa28	-0.105945885
52	0x3e115216	0.1419147
53	0xbec9f456	-0.39444226
54	0xbe5f150b	-0.21785371
55	0x3db9e54a	0.090769365
56	0xbe37686b	-0.17910926
57	0xbe1f13f4	-0.15534955
58	0x3e97f7cd	0.29681244
59	0x3e0aee80	0.13567543
60	0x3d4e1974	0.050317243
61	0x3e855b49	0.26046208
62	0xbde44bb4	-0.11147252
63	0x3d97022d	0.07373462
64	0x3e140494	0.14454871
65	0xbce49dff	-0.02790737
66	0x3e56a0c5	0.20959766
67	0x3df60e27	0.12014418
68	0xbde9590d	-0.11393938
69	0x3df5bda9	0.119990654
70	0xbd42d5e6	-0.04756727
71	0xbd5d2f0c	-0.053999946
72	0xbe299a6f	-0.16562818
73	0x3f09b28f	0.53788084
74	0xbe79f6a2	-0.24410489
75	0xbe683a8e	-0.22678587
76	0xbe34b055	-0.1764539
77	0xbd83c608	-0.06434256
78	0x3dc7a44d	0.09748135
79	0x3f112a11	0.56704813
80	0xbee0e554	-0.43924963
81	0x3dde5f1d	0.10857985
82	0x3ea723de	0.32644552
83	0xbd9e26d7	-0.07722252
84	0x3ebf7c18	0.37399364
85	0x3e710c23	0.23539786
86	0x3e30e68f	0.17275451
87	0xbe8a6fd2	-0.27038437
88	0xbe4d5380	-0.20051384
89	0x3d207c8f	0.03918129
90	0xbcff8606	-0.031191837
91	0x3c520221	0.01281789
92	0x3d4d7cdf	0.050167914
93	0xbea0e228	-0.31422544
94	0xbe9680a2	-0.29395014
95	0x3ea1de80	0.31615067
96	0x3dde1e4d	0.10845623
97	0xbe4adb1d	-0.19810148
98	0x3dea73f4	0.114478976
99	0x3e55d9bc	0.2088384
100	0xbe35eb38	-0.1776551
101	0x3ec8d35b	0.3922375
102	0x3ea1f88a	0.31634933
103	0xbe868777	-0.26275226
104	0x3f526d83	0.8219835
105	0x3e399801	0.18124391
106	0xbde682b4	-0.112553984
107	0xbf3347be	-0.70031345
108	0xbe30c3c6	-0.17262182
109	0xbe41169b	-0.1885628
110	0x3f1d0e96	0.6135038
111	0xbe3ac9c1	-0.18241026
112	0xbea5fbcf	-0.32418677
113	0x3e4a18ae	0.19735977
114	0xbd9daff1	-0.07699574
115	0x3ec958b7	0.39325497
116	0xbee8da4a	-0.4547904
117	0xbe01e6a0	-0.12685633
118	0x3f0898cc	0.5335815
119	0x3ee9ba06	0.45649737
120	0xbf92a724	-1.1457257
121	0x3e48219e	0.19544074
122	0x3ea94e83	0.33067712
123	0x3e592b13	0.21207838
124	0x3ebdce8b	0.37071642
125	0xbdfbb822	-0.1229098
126	0x3f62b20c	0.8855293
127	0xbec3e84a	-0.3826316
128	0x3e4f3eef	0.20238851
129	0xbecd2818	-0.40069652
130	0x3f6a1f4e	0.9145402
131	0xbf0f92e0	-0.5608349
132	0xbe0e4a69	-0.13895573
133	0xbe924055	-0.28564706
134	0xbea970f2	-0.33093983
135	0xbf296188	-0.66164446
136	0x3da6d9d4	0.08147016
137	0xbe115d7a	-0.14195815
138	0x3f0d23cb	0.5513274
139	0xbea2af42	-0.31774336
140	0xbe60baad	-0.21946211
141	0x3e970873	0.29498634
142	0x3ecd102b	0.40051398
143	0x3ef373ae	0.47549194
144	0xbe6a2891	-0.22867037
145	0xbdd5b10a	-0.10434158
146	0x3cf89aa6	0.03034718
147	0xbd5e5b8c	-0.054286525
148	0x3e0fc332	0.14039305
149	0x3e58c9d9	0.21170749
150	0xbee4450a	-0.44583923
151	0x3f060aa3	0.5235998
152	0x3f16a85b	0.5885064
153	0xbeeb9d5a	-0.46018487
154	0xbd848df3	-0.06472387
155	0x3db51c5f	0.08843302
156	0xbd0bfa2a	-0.034174122
157	0x3e079d52	0.13243607
158	0x3e30027c	0.17188448
159	0xbdffa157	-0.12481945
160	0x3e32a814	0.17446929
161	0xbbd3ce0a	-0.0064637708
162	0xbc3f48e0	-0.01167509
163	0x3e4ba60a	0.19887558
164	0x3e1c817a	0.15283766
165	0x3d444f25	0.04792704
166	0xbc3af3e1	-0.011410684
167	0xbe46c465	-0.19410856
168	0xbdc9d62a	-0.09855302
169	0xbcb482e3	-0.022035068
170	0xbdfc8acc	-0.12331161
171	0xbe90e879	-0.28302363
172	0xbd8b18dc	-0.06791851
173	0x3cc62f3f	0.02419245
174	0xbe309d5f	-0.17247532
175	0xbee0acd2	-0.4388185
176	0xbdee5642	-0.11637546
177	0xbd8679c4	-0.06566194
178	0x3ee6c0ab	0.4506887
179	0x3cbb7dec	0.022887193
180	0xbd424aa9	-0.047434483
181	0x3ec4b59a	0.384198
182	0xbe89ce33	-0.2691513
183	0x3ec94bc1	0.39315608
184	0x3db41cac	0.08794531
185	0x3ddf248b	0.10895642
186	0x3d9fcab2	0.07802333
187	0x3e3901ef	0.18067144
188	0x3da50656	0.08057849
189	0x3e217161	0.15765907
190	0x3ec57414	0.38565123
191	0x3d82154a	0.06351717
192	0xbe689e6f	-0.22716688
193	0x3ef43ccb	0.4770263
194	0x3e9d623b	0.30739006
195	0x3e163c92	0.14671543
196	0xbcf0d1fe	-0.029397007
197	0x3ca88184	0.02056957
198	0x3ec1789a	0.37787324
199	0xbe0a8f1c	-0.13531154
200	0xbcdbda90	-0.026837617
201	0x3ef0cf99	0.47033384
202	0x3ec03391	0.37539342
203	0x3d0dcbdc	0.034618244
204	0x3eb9b108	0.36267877
205	0x3e73de7a	0.23815337
206	0xbd9a8db6	-0.075465605
207	0x3dfa5fe6	0.122253224
208	0xbd7835fe	-0.060598366
209	0x3e20a663	0.15688471
210	0x3e24b16b	0.16083305
211	0xbe146da1	-0.14494945
212	0x3e5e4523	0.21706061
213	0xbe5e29de	-0.21695659
214	0x3f17f87d	0.5936354
215	0xbe0203fb	-0.12696831
216	0x3b7afa82	0.0038296287
217	0xbd8f65cb	-0.07001837
218	0xbdad4a86	-0.0846148
219	0xbe18b7bf	-0.14913844
220	0x3e6181d0	0.22022176
221	0x3e720f7e	0.23638722
222	0x3e2a2f67	0.16619645
223	0x3e6174ce	0.22017214
224	0xbc32fcb6	-0.010924509
225	0x3e6164e7	0.22011147
226	0xbe4a1cd0	-0.19737554
227	0xbceb6ec3	-0.028739339
228	0x3dfd46c8	0.12367016
229	0x3e3ce864	0.18448025
230	0x3d383597	0.044972982
231	0xbd63623d	-0.05551361
232	0x3becb3b4	0.0072235707
233	0xbd4d9c50	-0.0501979
234	0xbdc1f4fc	-0.09470555
235	0x3ea4c7fb	0.32183823
236	0xbe30fdd9	-0.17284335
237	0x3dda26e5	0.1065195
238	0x3e95edc5	0.29282966
239	0x3e2a6925	0.16641672
240	0xbe11a6c1	-0.14223768
241	0x3d4720ad	0.048615146
242	0xbdd09aa3	-0.101857446
243	0x3b63278c	0.0034661023
244	0xbe9ddea8	-0.30833936
245	0x3e7f7c9d	0.2494988
246	0xbda4bf21	-0.080442674
247	0xbe4d5ecb	-0.20055692
248	0xbe5f4131	-0.21802212
249	0x3dfa31bc	0.12216517
250	0x3e3fc30e	0.18726751
251	0xbe5216d6	-0.20516524
252	0x3e31c370	0.1735971
253	0xbd966508	-0.07343489
254	0xbd9e3ef8	-0.07726854
255	0xbe871e9d	-0.26390544

lstm.bias_ih_l0_reverse f4 [80]
0	0x3e61b88a	0.22043052
1	0x3e369066	0.17828521
2	0xbda86cc5	-0.08223871
3	0x3cd5f107	0.026115907
4	0xbd13f2c0	-0.036120176
5	0x3e1f1f03	0.15539174
6	0xbdbfefe4	-0.093719274
7	0x3c2e0649	0.010621616
8	0xbdb0945c	-0.08622047
9	0xbcfa1176	-0.030525904
10	0x3d39af08	0.04533294
11	0xbd0f4e01	-0.0349865
12	0xbd405df9	-0.04696462
13	0x3e51a8dd	0.20474572
14	0xbe4d5c5c	-0.20054764
15	0x3d3b1aca	0.045679845
16	0x3e3986e8	0.18117869
17	0x3eebed3e	0.4607944
18	0x3e6e9f68	0.23302996
19	0x3e6b9181	0.23004724
20	0x3d64c245	0.055849332
21	0x3e4d673c	0.20058912
22	0xbe10e4f2	-0.14149836
23	0xbe1327fa	-0.14370719
24	0x3d46cb5a	0.048533775
25	0xbd52e1a8	-0.051484734
26	0x3e6e00fb	0.23242562
27	0xbd933895	-0.071885265
28	0x3d3bb3e2	0.045825846
29	0x3e847cdd	0.25876513
30	0x3e60ce05	0.2195359
31	0x3d8f419a	0.069949344
32	0x3d5d1f3f	0.053984877
33	0x3d53970a	0.051657714
34	0x3e26b6ac	0.16280621
35	0x3da3aa5b	0.07991477
36	0x3eaadce8	0.33371663
37	0xbd9d9e2d	-0.07696185
38	0x3e17f1a5	0.14838274
39	0x3e759e11	0.23986079
40	0x3d069b9e	0.032863252
41	0xbd1cc81f	-0.038276788
42	0x3e764977	0.24051462
43	0x3e6adf41	0.22936727
44	0xbc6d7e1a	-0.014495397
45	0x3db92a92	0.09041323
46	0x3c285d3a	0.010276133
47	0xbe09d408	-0.1345979
48	0xbd742be4	-0.05961217
49	0xbdc01bf5	-0.093803324
50	0x3dea4fcd	0.11441002
51	0x3d8308f8	0.06398195
52	0x3d99b1a6	0.07504587
53	0xbe7b6203	-0.24549107
54	0xbda74e6f	-0.08169257
55	0x3e4ea518	0.20180166
56	0xbdb0a21e	-0.086246714
57	0xbe233a4f	-0.15940212
58	0xbddd4590	-0.108042836
59	0x3da57e1f	0.08080696
60	0x3c678677	0.01413118
61	0x3d27c9b3	0.04096384
62	0xbda59490	-0.08084977
63	0x3e9087fe	0.28228754
64	0xbd3538e6	-0.044243716
65	0x3ec18354	0.37795508
66	0xbda8bfd1	-0.08239711
67	0xbc7a4525	-0.015275274
68	0xbd82513e	-0.06363152
69	0xbcf4b35c	-0.029870681
70	0xbdbe24ac	-0.09284338
71	0xbd88108c	-0.06643781
72	0x3e07f147	0.13275634
73	0x3c80118b	0.015633365
74	0x3e819aab	0.25313315
75	0x3dc820af	0.09771859
76	0xbde22705	-0.11042599
77	0x3da36ccb	0.07979735
78	0x3ddf3aa7	0.10899859
79	0x3e851359	0.25991324

lstm.bias_hh_l0_reverse f4 [80]
0	0x3e4decea	0.20109907
1	0x3d9f33ea	0.07773574
2	0xbdbee47e	-0.09320925
3	0x3dd95beb	0.10613235
4	0x3dc0ab8e	0.094077215
5	0xbd1c607d	-0.038177956
6	0xbe4a8437	-0.19776998
7	0x3e0fe76e	0.14053127
8	0x3d2f997a	0.042870976
9	0xbc550dca	-0.013003776
10	0x3db3731f	0.08762192
11	0xbbb9d7b5	-0.0056714662
12	0x3dc39c13	0.09551253
13	0x3e1448d7	0.14480911
14	0xbdef9c4e	-0.11699735
15	0x3e9414d4	0.2892214
16	0x3e1b1fe5	0.15148886
17	0x3ea332da	0.31874734
18	0xbdb01c0c	-0.085990995
19	0x3d055940	0.03255582
20	0x3c15555c	0.00911459
21	0x3e4efbb3	0.20213203
22	0x3e2f3591	0.17110278
23	0x3d7ded94	0.06199415
24	0x3e7e26cc	0.24819487
25	0xbd3e96f7	-0.04653069
26	0xbdd6e7f2	-0.10493459
27	0x3e551470	0.20808578
28	0x3e3af712	0.18258312
29	0x3e1a2506	0.15053186
30	0xbd560c28	-0.052257687
31	0x3e7b5399	0.24543609
32	0xbce1442d	-0.027498329
33	0xbc88815d	-0.016663248
34	0x3e7ddcd2	0.24791268
35	0x3dec1e6c	0.1152924
36	0x3e38d585	0.18050201
37	0x3e6bacb9	0.23015107
38	0xbc8112a1	-0.015755953
39	0x3d86d6c7	0.06583934
40	0x3e0b2605	0.13588722
41	0x3e217213	0.15766172
42	0x3e8ae5dd	0.27128497
43	0x3dea9b02	0.11455347
44	0xbd4603fc	-0.048343644
45	0xbde1f9d9	-0.11033983
46	0x3bcc53bf	0.0062355692
47	0xbc996040	-0.018722653
48	0x3df9eea6	0.12203722
49	0x3e137657	0.14400612
50	0xbd267af9	-0.04064462
51	0xbdcb6994	-0.09932247
52	0x3d856860	0.065140486
53	0xbe1c09ad	-0.15238066
54	0xbe81a5be	-0.25321764
55	0x3d09090d	0.033455897
56	0xbd810cc1	-0.06301261
57	0x3d5c558d	0.053792525
58	0xbe490647	-0.19631301
59	0xbda96daa	-0.0827287
60	0x3c718526	0.014741218
61	0xbd98b2e2	-0.07455994
62	0x3e8b43cf	0.2720017
63	0xbded59a3	-0.115893625
64	0x3e97e321	0.29665473
65	0x3dfbf56d	0.12302671
66	0x3dfc9f15	0.1233503
67	0x3e613fa8	0.21996939
68	0x3e84993b	0.25898156
69	0x3e6f6e25	0.2338186
70	0x3dce61f4	0.10077277
71	0x3c1d23bf	0.009591042
72	0x3e0338e9	0.12814678
73	0x3eb1aec9	0.34703663
74	0x3e321b1e	0.17393157
75	0xbe274579	-0.16335095
76	0x3e5e3478	0.21699703
77	0x3e73f713	0.2382472
78	0x3deafa5a	0.11473532
79	0xbd8023ba	-0.06256814

lstm.weight_ih_l1 f4 [80, 40]
0	0xbea37938	-0.3192842
1	0x3d6f8850	0.058479607
2	0xbe3416cc	-0.17586821
3	0x3d6226f7	0.05521294
4	0xbd8dea63	-0.06929471
5	0x3e885ba5	0.2663242
6	0x3dfe158b	0.12406453
7	0xbd3097b8	-0.04311344
8	0x3e93150e	0.28727
9	0xbde1e107	-0.11029249
10	0xbde31f92	-0.11090006
11	0xbe235a35	-0.1595238
12	0xbbbbdd26	-0.00573315
13	0x3e9a0c1b	0.3008736
14	0x3e98263b	0.29716668
15	0x3e2542a5	0.16138704
16	0x3dfecd3c	0.12441489
17	0xbdcc1fd4	-0.09967008
18	0x3cda0ad5	0.026616493
19	0xbdd2b8a4	-0.10289124
20	0x3e8ad440	0.2711506
21	0xbe124ecf	-0.14287876
22	0x3d563644	0.052297845
23	0x3d15562c	0.036459133
24	0xbe2a1378	-0.16608989
25	0x3d288d93	0.04115064
26	0xbe9dfc5d	-0.308566
27	0xbe3bcb3d	-0.18339248
28	0x3db19b01	0.08672143
29	0x3d472602	0.04862023
30	0xbd91112b	-0.07083353
31	0x3dd57222	0.1042216
32	0x3ccfd0d4	0.025368132
33	0xbee45d5e	-0.44602484
34	0x3f31cc70	0.6945257
35	0x3e41e8be	0.1893644
36	0x3b43ac48	0.0029857326
37	0xbe243ee6	-0.16039619
38	0xbdf75227	-0.12076216
39	0xbd0ab9f8	-0.03386876
40	0xbe32833e	-0.17432877
41	0xbeb3082d	-0.34967175
42	0x3e0d8f04	0.13824087
43	0x3e010204	0.12598425
44	0xbe6beaa8	-0.23038733
45	0xbef3b4c7	-0.4759886
46	0xbe9e09c6	-0.30866832
47	0xbe463c72	-0.19358996
48	0xbf2356e0	-0.63804436
49	0x3d056206	0.032564186
50	0x3ece8c8d	0.40341607
51	0x3e8c4c67	0.2740204
52	0xbe6331dc	-0.22186989
53	0x3ea1bb09	0.3158801
54	0xbe6faa77	-0.23404871
55	0x3edd242b	0.43191656
56	0xbeb6670f	-0.35625502
57	0xbd28b068	-0.04118386
58	0x3ecb9d65	0.3976852
59	0xbf38a4af	-0.7212629
60	0x3e82ebb1	0.25570443
61	0xbd5c4aee	-0.053782396
62	0xbd659d67	-0.056058314
63	0xbe40f850	-0.18844724
64	0x3e450bcf	0.19242786
65	0x3d8eff8c	0.069823354
66	0xbed8514e	-0.4224953
67	0xbb5c6595	-0.0033629884
68	0x3d30a6ef	0.04312795
69	0xbddace45	-0.10683874
70	0x3e8e6e8a	0.2781871
71	0xbeb5e98b	-0.35529742
72	0xbe05dbcc	-0.13072127
73	0xbe7e708c	-0.2484762
74	0x3ebd16e3	0.36931524
75	0xbe764bfa	-0.2405242
76	0x3cf34b16	0.02969889
77	0xbe0ff95b	-0.14059965
78	0xbe0e31ab	-0.13886134
79	0x3e30cf00	0.17266464
80	0x3e734996	0.2375854
81	0x3e384093	0.17993383
82	0xbc0f0259	-0.008728587
83	0x3d12abfe	0.035808556
84	0x3e5cf0ef	0.21576284
85	0xbe6d163e	-0.23153016
86	0x3e3c996f	0.18417905
87	0x3ec02f63	0.37536153
88	0x3ebf9a27	0.37422296
89	0x3ca28f85	0.019843826
90	0x3e4048b0	0.18777728
91	0xbefc3c02	-0.49264532
92	0x3d078bdc	0.033092365
93	0xbe4e3c50	-0.20140195
94	0x3df03a5b	0.117298804
95	0xbe6961d7	-0.22791229
96	0xbe2994de	-0.16560695
97	0xbefed9a9	-0.49775437
98	0x3e1a6817	0.1507877
99	0x3cb3be4c	0.021941327
100	0xbe86834d	-0.2627205
101	0x3eabfd5c	0.33591735
102	0x3d926c71	0.0714959
103	0xbb0f77df	-0.0021891517
104	0xbda48b52	-0.08034386
105	0x3ec0ccc1	0.37656215
106	0xbd6cd91e	-0.057824247
107	0xbe957434	-0.29190218
108	0xbe98360e	-0.2972874
109	0x3e1cb26b	0.15302436
110	0x3bc789e8	0.0060894378
111	0xbe6530ac	-0.22381848
112	0x3da05901	0.07829476
113	0xbe270ec8	-0.16314232
114	0x3e7b196e	0.2452142
115	0x3e0d26ab	0.13784282
116	0xbe80e501	-0.25174716
117	0xbe7403e9	-0.23829617
118	0xbe9dd6a9	-0.30827835
119	0x3e2b691d	0.16739316
120	0xbe9aabc2	-0.30209166
121	0x3d8de9da	0.06929369
122	0x3e23496b	0.15945975
123	0x3d9e1124	0.07718113
124	0xbdf907ab	-0.12159666
125	0xbd342b1e	-0.043986432
126	0xbdfccbe4	-0.123435766
127	0xbe655819	-0.22396888
128	0xbd764455	-0.06012376
129	0x3d1416f8	0.036154717
130	0x3ec258d1	0.37958387
131	0x3e6630e2	0.22479585
132	0xbd06c16f	-0.032899316
133	0xbd3d5f58	-0.046233505
134	0xbe6002ba	-0.2187604
135	0xbe0d8aec	-0.13822526
136	0x3e2a4c2f	0.16630624
137	0x3dd39779	0.103316255
138	0xbc79585d	-0.015218821
139	0xbde8f7be	-0.11375378
140	0xbdd473de	-0.103736624
141	0xbe46ee6c	-0.19426888
142	0x3e557915	0.2084697
143	0xbcf72048	-0.03016676
144	0xbea9e16a	-0.3317979
145	0x3e43ab21	0.19108249
146	0x3e85060c	0.25981176
147	0x3e2c5433	0.16828994
148	0x3e80cc0c	0.25155675
149	0x3dc29704	0.0950146
150	0xbdc79960	-0.09746051
151	0x3e4efb91	0.20213152
152	0xbe33f3a4	-0.1757341
153	0xbe790e73	-0.24321918
154	0xbe0d474d	-0.1379673
155	0xbe95579a	-0.29168397
156	0x3e63721a	0.22211495
157	0xbe2b1ad5	-0.16709454
158	0xbdeb9569	-0.11503107
159	0x3d8faf10	0.070158124
160	0xbdd4407f	-0.10363864
161	0x3d979f2e	0.07403408
162	0x3e8673f3	0.26260337
163	0xbdfbcd72	-0.12295045
164	0xbd013a7e	-0.031549923
165	0xbe25f56f	-0.16206907
166	0xbe0db895	-0.13839944
167	0x3c20872d	0.009797853
168	0x3e37c40c	0.1794588
169	0xbc04d4ed	-0.008107406
170	0xbdb90cc3	-0.09035637
171	0x3e0023ad	0.12513609
172	0x3d72df42	0.059294946
173	0x3e4054b9	0.18782319
174	0xbe21ede6	-0.15813407
175	0x3ba8aa69	0.0051472676
176	0x3e87ab48	0.26497865
177	0xbd803510	-0.06260121
178	0x3d7adfe4	0.061248675
179	0x3c2cdbab	0.01055042
180	0xbe2f2be2	-0.17106584
181	0xbe882534	-0.26590884
182	0xbc999683	-0.018748527
183	0xbe462581	-0.19350244
184	0x3de4f7e3	0.11180093
185	0xbe8db0cb	-0.27673945
186	0xbd8dd613	-0.06925597
187	0xbdfc7ab4	-0.12328091
188	0x3ddaa41f	0.10675835
189	0x3e4e2d17	0.20134388
190	0xbcb01d6b	-0.021498403
191	0xbee482e8	-0.44631124
192	0x3ea17822	0.31536967
193	0x3e40ec6e	0.18840191
194	0x3e85b077	0.26111194
195	0xbec77e74	-0.38963664
196	0x3dd5346b	0.104103886
197	0xbe3720da	-0.17883626
198	0x3ea7ba7c	0.32759464
199	0xbe77f240	-0.24213505
200	0xbe85b492	-0.26114327
201	0x3db13727	0.086530976
202	0xbea40e74	-0.32042277
203	0x3e646c5e	0.22306964
204	0xbdfd0610	-0.12354672
205	0xbe7163ad	-0.2357318
206	0x3dde6007	0.108581595
207	0xbda7eca9	-0.08199436
208	0xbd534968	-0.051583678
209	0x3e0eea96	0.13956675
210	0x3e433f21	0.1906705
211	0x3e192f59	0.14959468
212	0x3e43a356	0.19105276
213	0xbdfb9d41	-0.12285853
214	0xbd130b2f	-0.035899337
215	0x3e243bdc	0.1603846
216	0x3ded0661	0.11573482
217	0xbd126181	-0.03573752
218	0x3db56cd1	0.08858646
219	0x3d93deb7	0.07220214
220	0x3cb8034c	0.02246251
221	0xbe9aac31	-0.30209497
222	0x3e852f2f	0.2601256
223	0x3d232a0b	0.039835017
224	0x3dee4cb2	0.11635722
225	0x3decd604	0.11564258
226	0xbdb65b3a	-0.08904119
227	0xbe4d9e4d	-0.20079918
228	0x3e130eac	0.14361066
229	0xbde4bc33	-0.11168709
230	0x3ace61e3	0.0015745725
231	0x3e43011a	0.19043389
232	0xbd0158cc	-0.031578824
233	0xbc37fdee	-0.011229975
234	0xbd011703	-0.031516086
235	0x3e69f2d6	0.22846541
236	0x3e89bff9	0.26904276
237	0x3cc9345d	0.024561102
238	0x3d76d4f8	0.060261697
239	0xbe09d2fe	-0.13459393
240	0xbc133881	-0.00898564
241	0x3e31f03e	0.17376801
242	0x3c9b2bd6	0.018941801
243	0x3d906a01	0.07051469
244	0x3adabad6	0.0016687762
245	0x3e3622bb	0.17786686
246	0xbd4fe174	-0.05075212
247	0x3e139118	0.14410818
248	0x3e0b24ec	0.13588303
249	0xbc56ee73	-0.013118374
250	0xbefb6bbd	-0.49105635
251	0xbdc109e4	-0.094257146
252	0xbe8ca3bd	-0.27468672
253	0x3edcc50c	0.43119085
254	0x3d4b8927	0.049691346
255	0xbe5f93ae	-0.21833679
