data/embD/hoc18/model_2/hoc18_best.pt (torch, 343117 bytes, 87 tensors)

embedding.weight f4 [12, 20]
0	0x00000000	0.0
1	0x00000000	0.0
2	0x00000000	0.0
3	0x00000000	0.0
4	0x00000000	0.0
5	0x00000000	0.0
6	0x00000000	0.0
7	0x00000000	0.0
8	0x00000000	0.0
9	0x00000000	0.0
10	0x00000000	0.0
11	0x00000000	0.0
12	0x00000000	0.0
13	0x00000000	0.0
14	0x00000000	0.0
15	0x00000000	0.0
16	0x00000000	0.0
17	0x00000000	0.0
18	0x00000000	0.0
19	0x00000000	0.0
20	0xbf789f81	-0.97118384
21	0x3f5e93f6	0.8694452
22	0xbf25dfa2	-0.6479436
23	0x3e892741	0.2678776
24	0xbf14eac8	-0.5817075
25	0x3e88b933	0.26703796
26	0xbff1fa48	-1.8904505
27	0xbfbfd5cd	-1.4987122
28	0xbff84c8b	-1.9398359
29	0x3d71c57e	0.059026234
30	0xbf2e401d	-0.6806658
31	0xbf64b5b5	-0.8933976
32	0x3fa42184	1.2822728
33	0xbf1ef9b7	-0.62099785
34	0x3f028274	0.50980306
35	0x3f487bf5	0.78314143
36	0xbf120f62	-0.5705472
37	0x3e1fb2f6	0.15595612
38	0x3fc5ce27	1.5453538
39	0xbf78301d	-0.96948415
40	0xbf78a018	-0.97119284
41	0x3f70deac	0.9408977
42	0xc0122e9c	-2.2840948
43	0xbe83b2f8	-0.2572248
44	0x3e8f53f1	0.2799373
45	0x3fc7b28b	1.5601362
46	0x3f7096d1	0.9398013
47	0x3f7db60c	0.99105906
48	0x3f25298c	0.6451652
49	0x3e5a343c	0.21308988
50	0x3e89bbcb	0.26901087
51	0xbf46ce35	-0.77658397
52	0xbf265098	-0.64966726
53	0xbf935169	-1.150922
54	0xc012c99c	-2.2935553
55	0xbf616195	-0.88039523
56	0x3ead9b41	0.33907512
57	0xbe66b36e	-0.22529384
58	0x3fcca465	1.5987669
59	0x40131edb	2.2987583
60	0xbf047a3b	-0.5174901
61	0xbe247bf5	-0.16062911
62	0xbe10c367	-0.1413704
63	0xbb53bc8e	-0.0032308432
64	0x3fde5138	1.7368536
65	0x3f195b9a	0.599054
66	0xbe3fbdd5	-0.18724759
67	0x3fc72dc5	1.5560843
68	0x3d32204f	0.043487843
69	0x3fafdefa	1.3739922
70	0x3fb40cd9	1.4066421
71	0x3f850098	1.0390806
72	0xbecf1482	-0.40445334
73	0xbf58705b	-0.8454644
74	0xbe7e1684	-0.24813277
75	0x3e85342a	0.2601636
76	0xbf7da610	-0.99081516
77	0xbc54e00e	-0.012992872
78	0xbf160665	-0.5860351
79	0xbff899e7	-1.9421967
80	0xbf869f69	-1.0517398
81	0xbf44b20e	-0.7683419
82	0x403f0075	2.984403
83	0xbe5964d0	-0.21229863
84	0xc018421a	-2.3790345
85	0xbf47f46d	-0.7810734
86	0xbf4ad3e6	-0.7922958
87	0xbf4f830d	-0.8105934
88	0x3f0a9b14	0.5414288
89	0x3ffc932d	1.9732414
90	0x3fcb9d76	1.5907428
91	0x3fbc6174	1.471724
92	0xbe44e971	-0.19229676
93	0xbef040ad	-0.46924344
94	0x3fc1edea	1.5150731
95	0xbe4945fe	-0.19655606
96	0xbf0dd775	-0.55406886
97	0xbe93416b	-0.28760847
98	0x3f6457f3	0.891967
99	0xbeb3dfb4	-0.3513161
100	0xbf8d3696	-1.1032283
101	0x3d67d2ac	0.056597397
102	0xbf1bac32	-0.60809624
103	0x3fa80ca9	1.3128864
104	0x3f46e35c	0.7769067
105	0xbd81c86c	-0.063370556
106	0xbf855d95	-1.0419184
107	0xbfbfe134	-1.4990602
108	0x3ed2e915	0.41193452
109	0xbf9d7e47	-1.2304162
110	0xbed5b9a0	-0.41743183
111	0x3e812c63	0.25229177
112	0xbfa5c643	-1.295113
113	0xc003a75c	-2.0570898
114	0x3e1ada70	0.1512239
115	0xbfc43ed2	-1.5331671
116	0x3fbbaa01	1.4661256
117	0x3f0e5fc9	0.55614907
118	0xbf8b0c55	-1.0863138
119	0x3f9cb1c4	1.224175
120	0xbc078757	-0.008272014
121	0x3f26bf00	0.6513519
122	0xbf1f542a	-0.622378
123	0x3c3489d3	0.011019188
124	0x3ef470cf	0.47742316
125	0x3f576c7e	0.8414992
126	0x3f77888f	0.96692747
127	0xbe5387b2	-0.20657232
128	0x3e3388d3	0.17532663
129	0xbd5409ee	-0.051767282
130	0x3e5e77c5	0.21725376
131	0xbf0d4433	-0.5518219
132	0x3de5eb01	0.11226464
133	0xbebd79b8	-0.37006927
134	0xbe502f16	-0.20330462
135	0xbff03dea	-1.8768895
136	0x3e87b09f	0.2650194
137	0xbf5c0ef6	-0.8596033
138	0x3e2ded7f	0.16985129
139	0xbf903b53	-1.1268104
140	0xbeaba96d	-0.335277
141	0x3f115792	0.56774247
142	0x3f8ac7cd	1.0842224
143	0xbfd2f034	-1.6479554
144	0x3f9a841d	1.2071568
145	0xbf43b114	-0.76442075
146	0x3f9725b2	1.1808379
147	0xbf8f328a	-1.1187298
148	0xbefd93a4	-0.49526703
149	0x4005f2bc	2.0929403
150	0xc00622af	-2.095867
151	0x3f5e6e6c	0.8688724
152	0xbe3e2bf6	-0.18571457
153	0xbed0ce70	-0.407825
154	0xbe709b1c	-0.2349667
155	0xbe83e570	-0.25760984
156	0xbf1090a7	-0.5647072
157	0xbf9a1b25	-1.2039534
158	0x3cef7245	0.029229293
159	0x3fcbe33c	1.5928721
160	0x3f232798	0.6373229
161	0x3eab1c21	0.33419898
162	0x3d1550e1	0.036454085
163	0x3f36be86	0.71384466
164	0x3f7c992a	0.9867121
165	0xbf8b4e74	-1.0883317
166	0xbeac6825	-0.33673206
167	0xbf677962	-0.9041959
168	0xbe198c14	-0.14994842
169	0x3f5bc0ab	0.85840863
170	0x3fe644dd	1.7989765
171	0x3ed18456	0.40921277
172	0x3f224c55	0.63397723
173	0xbf81b86f	-1.013441
174	0x3db6296d	0.0889462
175	0xbf7c719d	-0.9861086
176	0xbd4d2784	-0.050086513
177	0x3eecdc51	0.46261838
178	0x3c83532e	0.016030874
179	0x3ebbe7b1	0.36700204
180	0xbf23417d	-0.637718
181	0x3e3a7204	0.18207556
182	0xbfb2d18a	-1.3970196
183	0xbe17f05b	-0.14837782
184	0x3f5ee1d3	0.8706333
185	0xbf79cea7	-0.9758095
186	0x400c1137	2.1885507
187	0xbfa6ad06	-1.3021553
188	0x3fd495c2	1.6608202
189	0xbef99537	-0.48746654
190	0xbd861d02	-0.065485016
191	0x3f373264	0.71561265
192	0x3f0a91db	0.5412881
193	0xbf80ab6f	-1.0052317
194	0xbf2168c8	-0.6305051
195	0xbfbfead8	-1.4993544
196	0xbf5903da	-0.847715
197	0xbe292f11	-0.1652186
198	0x3f91f483	1.1402744
199	0xbf5cd425	-0.86261207
200	0x3d6902a5	0.056887288
201	0x3f916c43	1.1361164
202	0x3c1e4fd9	0.009662592
203	0xbf8a42fa	-1.080169
204	0x3e37dd73	0.1795557
205	0x3f96e6e4	1.1789212
206	0x3edc53a2	0.43032557
207	0x3d1d8fb8	0.03846714
208	0xbf02eed1	-0.51145655
209	0xbf837f65	-1.0273253
210	0x3f3e07ea	0.74230826
211	0x3f483965	0.7821258
212	0x3ed2c337	0.41164562
213	0xbedeb5c3	-0.43498048
214	0xbf5bd87e	-0.85877216
215	0xbf547555	-0.82991534
216	0x3fac99a6	1.348439
217	0x3eb351cd	0.35023347
218	0x3faaf346	1.3355491
219	0xbf5e9a21	-0.8695393
220	0x3ea99915	0.33124605
221	0x3f5f9812	0.87341416
222	0xbef420d6	-0.47681302
223	0xbed1f540	-0.41007423
224	0xbf0cb41d	-0.5496233
225	0x3e0dffbf	0.1386709
226	0xbf7c10f4	-0.9846337
227	0xbed64e4d	-0.41856614
228	0x3f2fe1f4	0.6870415
229	0x3f4e11b2	0.8049575
230	0x3fc4a481	1.5362703
231	0xbfb47b12	-1.4100058
232	0xbf6ca5f7	-0.9244074
233	0xbef47602	-0.47746283
234	0x3f8cc083	1.099625
235	0x3c6edaee	0.014578564
236	0xbfc7207d	-1.555679
237	0x3f4362dd	0.7632273
238	0x3f03863b	0.51376694
239	0x3ee94ce5	0.45566478

lstm.weight_ih_l0 f4 [80, 20]
0	0x3e2f1c66	0.17100677
1	0xbe326a3f	-0.17423342
2	0xbe20003d	-0.15625091
3	0x3dc10b31	0.09425963
4	0xbe53bcad	-0.20677443
5	0xbe6ec31d	-0.23316617
6	0xbeaa01f9	-0.3320463
7	0xbeb5cbe6	-0.35507125
8	0xbe2213aa	-0.15827814
9	0xbc98806b	-0.018615922
10	0x3b89f65d	0.004210277
11	0x3d73bbb5	0.059505183
12	0x3e830a25	0.25593677
13	0xbe33239b	-0.17494051
14	0x3e754639	0.23952569
15	0x3e2d7efe	0.16942975
16	0x3e5d1304	0.21589285
17	0x3d1ca8be	0.038246863
18	0x3e3258d1	0.17416693
19	0x3e492e69	0.1964661
20	0xbda70fc1	-0.08157302
21	0xbd56d119	-0.052445505
22	0x3bec3de9	0.0072095287
23	0x3e0b4f3e	0.13604447
24	0xbb887a31	-0.004164957
25	0xbde22f22	-0.11044146
26	0xbdc85a2a	-0.097828224
27	0x3e726922	0.23672917
28	0xbe1253b4	-0.14289743
29	0x3e1eece2	0.15520051
30	0x3dd33cda	0.10314341
31	0xbcfa2319	-0.030534314
32	0xbd0d5528	-0.03450504
33	0xbd8557c4	-0.065108806
34	0x3d812b4b	0.063070856
35	0x3dab3c4a	0.083611086
36	0xbe52c50d	-0.20582981
37	0x3dd985b0	0.10621202
38	0xbd481043	-0.048843633
39	0x3e3de4e4	0.18544346
40	0xbe8f6f4d	-0.28014603
41	0xbd7ea259	-0.062166546
42	0x3e0b6d0f	0.13615821
43	0x3df32820	0.118728876
44	0xbe2d6c01	-0.16935731
45	0xbeb09d06	-0.344948
46	0x3de04dc1	0.109523304
47	0xbda635d1	-0.081157334
48	0x3e101475	0.14070304
49	0x3e9c9057	0.30578873
50	0xbc3410e3	-0.010990354
51	0x3e94aebc	0.29039562
52	0xbd0691eb	-0.032854002
53	0xbdcf1efa	-0.1011333
54	0x3e9d3dbf	0.3071117
55	0xbe9fe941	-0.31232646
56	0xbda8ad1e	-0.082361445
57	0xbe1f2e39	-0.15544976
58	0x3d47d4c4	0.048786893
59	0x3e39e203	0.18152623
60	0x3d31a199	0.043367002
61	0x3cd8cbda	0.026464391
62	0x3e4936d6	0.19649825
63	0xbcabc02b	-0.020965656
64	0xbe2604c2	-0.16212752
65	0xbe3033c0	-0.17207241
66	0xbcb3a6c1	-0.0219301
67	0xbee337fd	-0.44378653
68	0xbe86f9bd	-0.2636241
69	0x3e538223	0.20655112
70	0xbc5275fa	-0.012845511
71	0x3c71d579	0.0147603685
72	0x3de4b2bf	0.111669056
73	0xbe0911b8	-0.13385665
74	0xbe3ffc78	-0.18748653
75	0x3e7a3ea4	0.24437958
76	0xbe4f7fb0	-0.20263553
77	0xbdd1d9f8	-0.10246652
78	0x3e563739	0.20919503
79	0xbd9e1389	-0.0771857
80	0xbe1fe688	-0.15615284
81	0xbd15a649	-0.036535535
82	0x3db53972	0.088488474
83	0x3c18a319	0.009316229
84	0x3e1ed6dd	0.15511651
85	0x3e2dc7e1	0.16970779
86	0xbe8781f0	-0.26466322
87	0xbea75c18	-0.3268745
88	0xbe9a428b	-0.30128893
89	0xbe120eed	-0.14263506
90	0xbe80d04c	-0.25158918
91	0xbe1194c3	-0.14216904
92	0xbd44d8bb	-0.048058253
93	0xbd9f64eb	-0.077829204
94	0x3e0c75aa	0.1371676
95	0xbdbbb7ce	-0.09165917
96	0xbe3aa650	-0.18227506
97	0x3e294d61	0.16533424
98	0x3e36b186	0.17841157
99	0x3d75e62e	0.06003397
100	0xbdb6dab3	-0.08928432
101	0x3bd8dc56	0.006618063
102	0xbe4057f4	-0.18783551
103	0x3e8ec755	0.27886453
104	0x3caadc66	0.020857047
105	0x3e0213c7	0.12702857
106	0xbe91bda9	-0.28465012
107	0x3d72a0e6	0.059235476
108	0xbe34913e	-0.1763353
109	0xbc9afd2e	-0.018919554
110	0x3c05c00a	0.008163461
111	0xbe8db25e	-0.27675146
112	0x3e3e3710	0.18575692
113	0xbe2a44ce	-0.1662781
114	0xbe8fce8a	-0.28087264
115	0x3d9dec9f	0.077111475
116	0xbe3a9dfa	-0.18224326
117	0xbd441555	-0.047871906
118	0xbe1f05d8	-0.15529573
119	0x3dbb9111	0.091585286
120	0xb8e12d9e	-0.00010737333
121	0x3e0d893a	0.13821879
122	0x3d744a0f	0.05964094
123	0xbb8364d0	-0.0040098205
124	0x3cd26dbc	0.025687091
125	0xbe3f4990	-0.18680406
126	0xbd94c3ce	-0.07263909
127	0xbd9331a0	-0.071871996
128	0xbe9b5b21	-0.30342963
129	0x3ed15cce	0.40891117
130	0xbe41c965	-0.18924482
131	0xbd2825a7	-0.041051533
132	0x3e89e539	0.26932696
133	0xbd0c56dd	-0.034262527
134	0x3e2f4d7d	0.17119403
135	0x3d967827	0.07347136
136	0xbcc81e99	-0.024428653
137	0xbe641436	-0.22273335
138	0x3d8a9589	0.06766803
139	0xbe0cfb2b	-0.13767688
140	0x3cba378f	0.02273157
141	0x3e3ae648	0.18251908
142	0x3e1d7b5d	0.1537909
143	0x3decc9b3	0.115619086
144	0x3e07a339	0.13245858
145	0x3db61c1c	0.0889208
146	0xbcbad628	-0.022807196
147	0xbe0483f4	-0.12940961
148	0xbdda5da2	-0.1066239
149	0xbdcaf719	-0.099104114
150	0x3cc71609	0.0243025
151	0xbdf58012	-0.11987318
152	0xbe6bf470	-0.23042464
153	0x3d202a1a	0.03910265
154	0xbcb85193	-0.022499835
155	0xbea9143b	-0.33023247
156	0x3d069f26	0.03286662
157	0x3dbb11bc	0.09134242
158	0x3e2b5178	0.16730297
159	0x3d5701cc	0.052491948
160	0xbe7462d3	-0.23865823
161	0x3e2925ea	0.1651837
162	0xba6a680d	-0.00089418964
163	0xbe22d4c9	-0.15901484
164	0x3e6e8df4	0.23296338
165	0x3e838d88	0.25693917
166	0x3d4da244	0.050203577
167	0x3d7f4c0e	0.06232839
168	0x3d906cc0	0.070519924
169	0x3e47f8c0	0.19528484
170	0x3e17dc9c	0.1483025
171	0x3e22ae11	0.15886714
172	0xbc8e31a2	-0.017357651
173	0xbed1c3f4	-0.40969813
174	0xbbd53bff	-0.006507396
175	0xbd30fd2c	-0.043210194
176	0xbe900e17	-0.2813575
177	0xbe6f453b	-0.23366253
178	0x3e8758d3	0.26434955
179	0x3e9eb955	0.31000772
180	0xbd4cce08	-0.050001174
181	0x3e569854	0.20956546
182	0xbdf96a24	-0.12178448
183	0x3d9ac19c	0.07556459
184	0xbd74d66c	-0.0597748
185	0x3e9b355c	0.30314147
186	0xbe24ea15	-0.1610492
187	0x3e749eec	0.23888749
188	0xbdefb668	-0.11704713
189	0xbcd32c45	-0.025777945
190	0xbd432226	-0.04763999
191	0xbe8b6580	-0.27225876
192	0x3e8e37e0	0.27777004
193	0xbe489d05	-0.19591148
194	0xbd627716	-0.05528935
195	0x3e1b320d	0.15155812
196	0xbe7a511f	-0.24445008
197	0xbdb65c99	-0.0890438
198	0x3d875311	0.066076405
199	0xbd2da150	-0.042390168
200	0xbe3fcdd8	-0.18730867
201	0x3e997bd9	0.299773
202	0x3dc80da2	0.09768225
203	0xbd4033d9	-0.046924446
204	0x3e74600e	0.23864767
205	0xbe8f905f	-0.28039834
206	0x3d84c59d	0.06483004
207	0xbdd2305b	-0.10263129
208	0xbe27a7a9	-0.16372551
209	0x3ac8eb54	0.0015328922
210	0xbe5586f7	-0.20852266
211	0x3d8c9693	0.06864657
212	0xbddc3363	-0.10751989
213	0xbdd6993c	-0.10478446
214	0xbda14274	-0.07874003
215	0x3c90283d	0.017597312
216	0xbe43eab2	-0.19132498
217	0x3d425cfb	0.047451954
218	0xbce7c86f	-0.028293816
219	0x3cc89ca2	0.02448875
220	0x3da4e7a3	0.08051994
221	0x3e85cc33	0.26132354
222	0x3da03e08	0.078243315
223	0xbd92bc2e	-0.07164799
224	0x3e9a9666	0.3019287
225	0x3c9576d0	0.01824513
226	0x3e1ff7d3	0.15621881
227	0xbe693e02	-0.2277756
228	0x3cf8aa09	0.030354517
229	0xbd98183d	-0.07426498
230	0xbd4d6ac6	-0.050150655
231	0xbe3595d7	-0.1773294
232	0x3ce52ded	0.027976
233	0xbea5eecd	-0.32408753
234	0xbe819a67	-0.25313112
235	0xbd727c87	-0.05920079
236	0xbdf4a026	-0.119446084
237	0x3d07136d	0.03297751
238	0x3e007c2a	0.12547365
239	0x3cdcfd21	0.02697617
240	0x3d58d9b8	0.052942008
241	0x3e51a499	0.20472945
242	0xbc56a8cd	-0.013101769
243	0x3e8500f7	0.259773
244	0x3c43a93f	0.011942207
245	0x3e88d0e7	0.2672188
246	0x3e064c34	0.13115007
247	0x3e8a222f	0.26979205
248	0x3eb3d3fd	0.35122672
249	0x3d974638	0.0738644
250	0x3e11569a	0.14193192
251	0x3e368675	0.17824729
252	0xbef60925	-0.48053852
253	0xbe97471a	-0.29546434
254	0xbda477fa	-0.08030696
255	0xbe36a737	-0.17837225

lstm.weight_hh_l0 f4 [80, 20]
0	0x3e0c0043	0.13671975
1	0x3e9a939a	0.30190736
2	0xbdde3858	-0.108505905
3	0xbd18b15a	-0.03727851
4	0x3d311410	0.043232024
5	0x3d9daf30	0.0769943
6	0xbbdb4608	-0.006691698
7	0x3e996ca4	0.299657
8	0x3ef99cdb	0.48752484
9	0xbf04a3d0	-0.5181246
10	0xbeb45356	-0.3521983
11	0xbea709e6	-0.3262474
12	0xbe8b2d58	-0.27183032
13	0xbe0d6e8f	-0.13811706
14	0xbeac3a1b	-0.3363808
15	0x3d8a4d14	0.06752983
16	0xbd91d5f0	-0.071208835
17	0xbe8526ba	-0.2600611
18	0x3e67bee0	0.22631407
19	0x3e7ecd5a	0.24883023
20	0x3b1a9286	0.002358587
21	0xbe93b3e9	-0.28848198
22	0x3ed67aec	0.41890657
23	0xbf1e4ef0	-0.618392
24	0xbe033e70	-0.12816787
25	0x3e83c27a	0.2573431
26	0xbe416e86	-0.18889818
27	0xbe88996e	-0.26679558
28	0x3f6a330d	0.9148415
29	0x3dfdeadb	0.12398311
30	0xbeb913b7	-0.36147854
31	0x3dba9360	0.09110141
32	0xbee61c54	-0.44943488
33	0x3e7b0977	0.2451533
34	0xbf3641e7	-0.7119431
35	0x3c62e311	0.013848082
36	0x3e5c9e27	0.21544705
37	0xbe886ddd	-0.2664632
38	0xbd89ea02	-0.067340866
39	0x3ce5ff54	0.028075852
40	0xbe1be2c3	-0.15223221
41	0xbf0ac282	-0.54203045
42	0x3e634f78	0.22198284
43	0xbdc47432	-0.09592475
44	0xbec4a0e5	-0.38404003
45	0xbdd80869	-0.10548479
46	0x3e823933	0.25434265
47	0x3edcee9d	0.43150797
48	0x3c3bc135	0.011459638
49	0x3eab8e80	0.33507156
50	0xbd33ff53	-0.043944668
51	0x3e249f9b	0.1607651
52	0xbf34b962	-0.7059537
53	0xbe1328d6	-0.14371046
54	0x3eadd2ea	0.33949977
55	0xbe39084d	-0.18069573
56	0x3e52714f	0.20551036
57	0xbb108cea	-0.0022056648
58	0x3cd02fd8	0.025413439
59	0x3e03a263	0.12854914
60	0xbe410e40	-0.18853092
61	0x3bbc2a0e	0.005742318
62	0x3e74bf4e	0.23901102
63	0xbe735092	-0.23761204
64	0x3e35cef5	0.17754729
65	0x3c0ca81d	0.008585003
66	0xbe6176c5	-0.22017963
67	0x3dfbaf6b	0.12289318
68	0xbe241148	-0.16022217
69	0xbe3bb8c9	-0.18332209
70	0xbe86aa3b	-0.2630175
71	0xbf03a71a	-0.5142685
72	0xbeb40419	-0.35159376
73	0x3e060f66	0.13091812
74	0xbe3aaed5	-0.18230756
75	0xbe0a674b	-0.13515966
76	0x3e95a3fa	0.29226667
77	0xbe85a9e3	-0.26106176
78	0xbdcb867a	-0.09937759
79	0xbcc4589e	-0.023968037
80	0xbd75440d	-0.05987935
81	0xbce4e6cc	-0.027942084
82	0x3e39fb91	0.18162371
83	0xbe46cd7e	-0.19414327
84	0xbe65000b	-0.22363298
85	0x39a7981f	0.0003196606
86	0x3dd46568	0.10370904
87	0xbc2d8f47	-0.010593242
88	0xbe4359cb	-0.19077222
89	0xbe0d7b02	-0.13816455
90	0xbb9860b3	-0.0046501993
91	0xbf1110e0	-0.56666374
92	0xbde8af9d	-0.113616206
93	0x3d2c6635	0.04208966
94	0xbda384b9	-0.07984299
95	0x3f003479	0.50080067
96	0xbe6ca4b4	-0.23109704
97	0xbc2f81cf	-0.010712101
98	0x3c6c06d6	0.014405927
99	0x3dfb83ea	0.1228102
100	0xbd703ef8	-0.0586538
101	0xbe8209e4	-0.2539817
102	0x3d77cc13	0.060497355
103	0xbe952d64	-0.29136193
104	0x3d7afa2b	0.061273735
105	0x3eed0c33	0.4629837
106	0xbc81f654	-0.015864529
107	0xbe88ca4f	-0.2671685
108	0x3e92a0eb	0.28638396
109	0x3eb8eb24	0.36116898
110	0x3dfe35b4	0.12412587
111	0x3df397ce	0.11894189
112	0xbeae2ba6	-0.34017676
113	0x3d529a10	0.051416457
114	0xbf2f2786	-0.6841968
115	0x3da5206a	0.08062823
116	0x3dbf7b29	0.09349663
117	0xbdf37987	-0.11888414
118	0x3db7c5da	0.08973284
119	0x3d953591	0.072856076
120	0xbe892939	-0.26789263
121	0xbd8c9154	-0.06863657
122	0x3e80f55c	0.25187194
123	0x3d44dec8	0.048064023
124	0x3d1b0c84	0.037853733
125	0xbd8f6766	-0.070021436
126	0x3c50202b	0.012702982
127	0xbe84e115	-0.25952974
128	0x3ed0ad45	0.40757194
129	0xbe787d29	-0.24266495
130	0xbe43c94e	-0.1911976
131	0x3e48f99e	0.19626471
132	0xbe2c1950	-0.16806531
133	0xbe98546c	-0.2975191
134	0xbea8f695	-0.33000627
135	0x3e4b79b3	0.19870643
136	0x3e2ceb01	0.16886522
137	0xbe9fe23f	-0.312273
138	0x3e3d4723	0.18484168
139	0x3e0e1f30	0.13879085
140	0xbd81eadc	-0.06343624
141	0x3dd1cd6e	0.10244261
142	0xbe86eaa3	-0.2635089
143	0xbeab5059	-0.33459738
144	0x3dd4a73d	0.10383461
145	0x3d3ce37e	0.04611539
146	0x3e62c343	0.22144799
147	0x3e8aa510	0.27079058
148	0xbd979b79	-0.07402701
149	0xbc9d46fd	-0.019198889
150	0xbe735ee1	-0.23766662
151	0xbeef16e8	-0.46697164
152	0xbd1c89dd	-0.038217414
153	0x3ea0ed0c	0.31430852
154	0xbe954e9d	-0.2916154
155	0x3e7d09b0	0.24710727
156	0xbdbb5124	-0.09146336
157	0xbead27f2	-0.33819538
158	0x3f0540cf	0.52052015
159	0x3f18c1ab	0.59670514
160	0xbe6975ad	-0.22798796
161	0xbd1db928	-0.038506657
162	0x3f63571a	0.8880478
163	0xbf19e513	-0.60115165
164	0xbe846a1e	-0.2586221
165	0x3f008958	0.5020957
166	0x3df485e5	0.11939601
167	0x3f27c308	0.6553197
168	0xbdd0b73a	-0.10191198
169	0xbf07a010	-0.5297861
170	0x3e98bdc4	0.2983228
171	0xbee0f815	-0.43939272
172	0x3f0a5852	0.54041016
173	0xbe473c0d	-0.19456501
174	0xbc2c3821	-0.010511429
175	0xbe2decb7	-0.16984831
176	0x3daef5da	0.08542986
177	0xbf293c46	-0.66107595
178	0x3f099f34	0.5375855
179	0x3ee07b74	0.43844187
180	0x3d15f514	0.036610678
181	0x3d402a64	0.046915427
182	0x3cc9ea4e	0.024647858
183	0xbddd3ccb	-0.10802611
184	0xbe6b7917	-0.22995411
185	0x3d544a2d	0.051828552
186	0x3d577570	0.05260223
187	0x3edf346b	0.4359468
188	0xbea86010	-0.3288579
189	0xbe6c3845	-0.2306834
190	0x3e5bd389	0.21467413
191	0xbea924db	-0.3303593
192	0xbf262be3	-0.64910716
193	0x3ed9bb46	0.4252569
194	0xbed062a2	-0.4070025
195	0xbdea1bc1	-0.11431075
196	0x3d5d3f20	0.05401528
197	0xbf189dd7	-0.59615844
198	0xbe5ed85e	-0.21762225
199	0x3db799e0	0.08964896
200	0xbee9e6ae	-0.45683807
201	0x3e3f33c1	0.18672086
202	0x3f3320d6	0.6997198
203	0xbdb6a122	-0.089174524
204	0x3abd0d3c	0.00144235
205	0xbea731ba	-0.32655126
206	0xbd117a97	-0.0355173
207	0x3f2b067f	0.6680679
208	0xbe29e171	-0.16589905
209	0x3e8d1f31	0.2756286
210	0x3ec4e4ca	0.38455802
211	0x3da3edb9	0.080043264
212	0xbe15b40f	-0.14619468
213	0x3df4c67f	0.119519226
214	0xbf1ed0a8	-0.62037134
215	0xbf5f8b60	-0.87322044
216	0x3e21a517	0.15785633
217	0x3edfd26c	0.43715227
218	0xbe92ecd6	-0.28696316
219	0x3ecf12fc	0.4044417
220	0xbf0d8427	-0.55279773
221	0x3e8dcfd9	0.27697638
222	0xbea7a546	-0.3274328
223	0xbe92e92e	-0.28693527
224	0x3dfc7735	0.123274244
225	0xbd140f87	-0.03614762
226	0x3eacee0b	0.33775362
227	0xbe07e285	-0.13270004
228	0xbd4fc9cb	-0.050729554
229	0x3e881896	0.26581258
230	0x3d9f2ecc	0.07772598
231	0xbe92cca9	-0.28671768
232	0xbe7cec98	-0.24699628
233	0xbc5a7ff7	-0.013336173
234	0xbd801360	-0.062536955
235	0xbdc31740	-0.09525919
236	0x3e7c2585	0.24623688
237	0xbe45e6d9	-0.19326343
238	0x3e251266	0.161203
239	0x3e016d2d	0.12639304
240	0xbeefe8e4	-0.4685737
241	0x3e8a3589	0.2699397
242	0xbde9fb51	-0.11424888
243	0xbdd6a1c7	-0.10480075
244	0xbd920530	-0.07129896
245	0x3debdb1b	0.115164004
246	0xbed70475	-0.41995588
247	0xbecc44ae	-0.39896148
248	0x3dcfc1f4	0.101444155
249	0xbd8f5594	-0.069987446
250	0x3d02b49c	0.031910524
251	0x3ed40494	0.41409743
252	0xbe18a3fe	-0.14906308
253	0x3e0d3749	0.13790621
254	0xbe607b11	-0.21921946
255	0x3e1d2f61	0.15350105

lstm.bias_ih_l0 f4 [80]
0	0x3e83d98a	0.25751907
1	0xbcd6ef02	-0.026237015
2	0x3df06f22	0.11739947
3	0xbd944dde	-0.072414145
4	0x3e0ef38b	0.13960092
5	0x3e81ebc8	0.253752
6	0x3e88d2cd	0.26723328
7	0x3e6c75da	0.23091832
8	0x3e84308e	0.25818294
9	0x3e144247	0.14478408
10	0xbdcabac9	-0.09898908
11	0x3e86323d	0.26210204
12	0x3e60c8dc	0.21951622
13	0x3e84edb3	0.259626
14	0x3d43769a	0.04772053
15	0xbdb5e9a3	-0.08882453
16	0xbe4aa326	-0.19788799
17	0x3e1774e3	0.14790682
18	0x3eb991d4	0.3624407
19	0xbd9d3880	-0.07676792
20	0x3e99f227	0.3006756
21	0x3e2275e9	0.15865292
22	0x3de7a0e8	0.11309987
23	0xbe1aac47	-0.15104781
24	0x3e38ac44	0.18034464
25	0xbe6cc53c	-0.23122114
26	0x3d69619e	0.05697786
27	0x3e11fa88	0.14255726
28	0xbd33fe9b	-0.043943983
29	0x3d815c85	0.06316475
30	0x3de0f7ca	0.10984762
31	0x3ecb8080	0.39746475
32	0xbe2ff8be	-0.17184731
33	0x3e04282e	0.12905952
34	0xbe0d6264	-0.13807064
35	0x3e90ca81	0.28279498
36	0x3dd9054a	0.10596712
37	0xbde9bd79	-0.11413092
38	0x3de8d70f	0.11369144
39	0x3e2dd2de	0.1697497
40	0xbcfa033a	-0.030519117
41	0xbd80e9c2	-0.06294586
42	0x3e73beb7	0.2380322
43	0x3d5cf1d0	0.053941548
44	0xbdc8ab0d	-0.0979825
45	0x3ccf845a	0.025331665
46	0x3e60821a	0.2192463
47	0xbbf9947c	-0.0076165777
48	0x3e0b8cf3	0.13627987
49	0x3abc0592	0.0014344922
50	0xbdd2422d	-0.10266528
51	0xbe5fcc6f	-0.21855329
52	0xbd7ff21e	-0.06248676
53	0x3d3a0413	0.04541404
54	0x3d902a08	0.07039267
55	0xbbaabdbe	-0.0052106073
56	0x3d0bd412	0.034137793
57	0xbc7dbc0c	-0.015486728
58	0x3e204e84	0.15654951
59	0x3dccf298	0.100072086
60	0x3e308681	0.17238809
61	0x3de120d8	0.109925926
62	0xbd8126ae	-0.06306206
63	0x3e16c516	0.1472362
64	0xbe24d01b	-0.16095011
65	0x3df9931c	0.12186262
66	0x3e9ea118	0.3098228
67	0x3e4cf384	0.20014769
68	0x3aa2c530	0.0012418386
69	0x3e229ca3	0.15880065
70	0x3e6ef315	0.23334916
71	0x3eaaf688	0.33391213
72	0x3e51fedc	0.20507377
73	0x3ec58a15	0.3858191
74	0xbc9cb537	-0.019129379
75	0x3ea2dea5	0.3181049
76	0x3e8c4b69	0.27401283
77	0x3e86f648	0.26359773
78	0x3ea7feee	0.32811683
79	0x3d171d0a	0.03689293

lstm.bias_hh_l0 f4 [80]
0	0x3e76c61c	0.2409901
1	0x3cd37894	0.025814332
2	0x3d8305b8	0.06397575
3	0x3c7957f6	0.015218725
4	0xbe0303a4	-0.12794358
5	0x3e887d31	0.26658013
6	0x3e70f6c5	0.23531635
7	0xbda13dd1	-0.07873119
8	0x3ec2dc9a	0.3805893
9	0x3e17c572	0.14821413
10	0xbd498238	-0.049196452
11	0x3da1a678	0.078930795
12	0x3e354169	0.17700733
13	0x3e8952bb	0.2682093
14	0x3dacc9b0	0.08436906
15	0xbbcb4ac6	-0.006203982
16	0xbd8d0128	-0.06884986
17	0x3b172ca8	0.0023067389
18	0x3c1b2241	0.009468616
19	0xbe1d7466	-0.15376434
20	0x3e33ef35	0.17571719
21	0x3e08313c	0.13300031
22	0x3eb4d92c	0.3532194
23	0xbcd18701	-0.02557707
24	0x3e76598a	0.24057594
25	0xbe3fffd9	-0.18749942
26	0x3d4ed9cc	0.050500676
27	0x3bcc5390	0.0062355474
28	0xbc800386	-0.01562668
29	0x3dab138a	0.08353336
30	0xbc26652e	-0.010155959
31	0x3ecef281	0.4041939
32	0x3dfa330c	0.12216768
33	0xbdc0636c	-0.09393963
34	0x3e0e3892	0.13888767
35	0x3eab55bb	0.33463845
36	0x3e2a4547	0.1662799
37	0x3db8ef8b	0.09030064
38	0x3e783658	0.2423948
39	0x3c6a5def	0.014304622
40	0xbccdfe43	-0.025145655
41	0x3bcea52e	0.006306312
42	0xbe0c4d9a	-0.13701478
43	0xbdb25f95	-0.08709637
44	0xbd4dbf9f	-0.050231572
45	0xbcbdbee3	-0.023162311
46	0x3e08080b	0.13284318
47	0xbe22e586	-0.15907869
48	0xbdd7ed69	-0.10543329
49	0xbe252136	-0.1612595
50	0x3e030f41	0.12798788
51	0xbd8a6827	-0.06758147
52	0xbae6e1c4	-0.0017614891
53	0x3e381577	0.17976938
54	0x3dc07ac9	0.093984194
55	0xbda489f7	-0.08034127
56	0xbe1bc6da	-0.15212575
57	0xbe84468c	-0.25835073
58	0x3d8fbf65	0.070189275
59	0x3d1d1b6f	0.03835624
60	0x3ea4f020	0.3221445
61	0x3d883e40	0.06652498
62	0x3ea93565	0.3304855
63	0xbd371544	-0.044698015
64	0x3e315d89	0.17320837
65	0x3e62571e	0.22103545
66	0x3ced90e7	0.028999759
67	0x3b0b35e5	0.002124184
68	0x3c369d61	0.0111459205
69	0xbd615a49	-0.055017743
70	0x3e2aa01f	0.16662644
71	0x3ebfcad6	0.3745944
72	0x3e55ff9a	0.20898286
73	0xbce5061e	-0.027957018
74	0x3e9214d2	0.2853151
75	0x3ea2a66d	0.31767598
76	0x3d708ac8	0.058726102
77	0x3d5a3b00	0.053278923
78	0x3e68abdb	0.22721808
79	0x3d824110	0.06360066

lstm.weight_ih_l0_reverse f4 [80, 20]
0	0xbe3b6595	-0.18300469
1	0xbd0f8561	-0.03503931
2	0x3d844ed3	0.06460347
3	0x3d44f5e9	0.04808608
4	0xbe633c1b	-0.22190897
5	0x3e2b7aef	0.16746114
6	0xbe53493c	-0.20633405
7	0x3e26c473	0.16285877
8	0xbe1a5fc3	-0.15075593
9	0x3e545a51	0.20737578
10	0xbcc791e0	-0.02436155
11	0xbe08a31d	-0.13343473
12	0x3dd3f73c	0.103498906
13	0xbd5db3b3	-0.054126453
14	0x3df37dbc	0.11889216
15	0x3e90d3d8	0.28286624
16	0xbe2584f2	-0.16163996
17	0xbe157d02	-0.14598468
18	0x3d7e0e00	0.06202507
19	0x3ba42d63	0.0050102933
20	0xbdd61b90	-0.10454476
21	0x3c675814	0.014120121
22	0xbe22a0e3	-0.15881686
23	0xbe367872	-0.17819384
24	0x3dbb45c5	0.09144167
25	0xbd92b4ce	-0.07163392
26	0x3ec48f8a	0.38390762
27	0x3cd47b49	0.025937693
28	0x3dad5113	0.08462729
29	0x3dcb4284	0.09924796
30	0xbea6e068	-0.32593083
31	0x3e0e1d9e	0.13878486
32	0xbdb05fc2	-0.08612014
33	0x3eaf371a	0.34221727
34	0xbe89d9fd	-0.26924124
35	0x3e3cf0c3	0.18451218
36	0xbde54160	-0.1119411
37	0xbe9b2484	-0.30301297
38	0xbe4723c1	-0.19447233
39	0xbe68b89e	-0.22726676
40	0xbda4b43c	-0.080421895
41	0xbd6f0f6b	-0.058364313
42	0xbe267b10	-0.16257882
43	0xbec3fd9d	-0.3827943
44	0x3da9b496	0.08286397
45	0x3da668ba	0.08125444
46	0xbe46cec8	-0.19414818
47	0xbdc27e1f	-0.09496712
48	0xbe80a96a	-0.25129253
49	0xbd6baa67	-0.057535555
50	0xbea21b68	-0.31661534
51	0x3cfa1550	0.03052774
52	0xbcbb37e4	-0.0228538
53	0x3d5f184c	0.05446653
54	0xbc3e7ebd	-0.011626896
55	0x3de7445e	0.11292337
56	0xbea66464	-0.32498467
57	0xbe7d75fc	-0.24752039
58	0x3e9a51cb	0.30140528
59	0x3e107c17	0.14109837
60	0x3d1161a8	0.035493523
61	0xbd774495	-0.06036814
62	0x3e1278de	0.1430392
63	0xbe5b36ce	-0.21407625
64	0x3d652b03	0.055949222
65	0x3e2e6bf3	0.17033367
66	0xbe89b371	-0.26894715
67	0x3e600730	0.21877742
68	0xbdddaecb	-0.10824355
69	0x3e1c0d94	0.15239555
70	0x3e95f4a9	0.29288223
71	0x3d6a5e0a	0.05721859
72	0xbe62dba8	-0.22154105
73	0x3ceae1d7	0.028672142
74	0xbe4f3560	-0.20235205
75	0xbdbde2f2	-0.09271802
76	0xbd379853	-0.044823002
77	0xbd07ae20	-0.033125043
78	0x3e104fc0	0.14092922
79	0x3e83bf0d	0.25731698
80	0xbecd1c47	-0.40060636
81	0x3e99c1ae	0.30030578
82	0x3de1a04f	0.110169046
83	0x3d207380	0.03917265
84	0x3e0dd308	0.13850033
85	0x3e218316	0.15772662
86	0x3dd48fe7	0.1037901
87	0x3d87b5e1	0.066264875
88	0xbe38dd6b	-0.18053214
89	0xbe641185	-0.22272308
90	0xbca1924d	-0.019723082
91	0xbe18e156	-0.14929709
92	0xbe309d9c	-0.17247623
93	0xbdbd0296	-0.09229009
94	0x3c83ea5a	0.016102958
95	0xbd665fba	-0.056243636
96	0xbe840796	-0.25787038
97	0xbe5263b8	-0.20545852
98	0xba8358eb	-0.0010021006
99	0xbdaef554	-0.085428864
100	0x3d8fa73d	0.0701432
101	0x3ed26c27	0.4109814
102	0xbe33ef1d	-0.17571683
103	0x3dd96d80	0.106165886
104	0x3ddfc194	0.10925594
105	0x3e9da6e7	0.307914
106	0x3da9a868	0.08284074
107	0xbdffa4ce	-0.12482606
108	0xbec926d7	-0.39287445
109	0x3dee269c	0.11628458
110	0xbe9fc2a2	-0.3120318
111	0xbd58a742	-0.052893884
112	0x3daee952	0.08540596
113	0xbe163c3f	-0.1467142
114	0xbe448326	-0.19190654
115	0xbe48c98b	-0.19608133
116	0xbdc10887	-0.094254546
117	0xbd04ded4	-0.032439068
118	0x3e5164b4	0.20448571
119	0x3e26f16a	0.1630303
120	0xbe7a6cc7	-0.24455558
121	0xbdd40612	-0.1035272
122	0x3ebd1453	0.3692957
123	0xbe953f9c	-0.29150093
124	0x3d517400	0.051136017
125	0xbebcc98b	-0.36872515
126	0xbdf7b43f	-0.12094926
127	0xbefcc268	-0.4936707
128	0x3ec1db5b	0.37862667
129	0xbd530ece	-0.05152779
130	0x3d0e8ca2	0.034802087
131	0x3e338d0a	0.17534271
132	0x3d4d6dec	0.050153658
133	0xbe52824f	-0.20557521
134	0xbc8ac93c	-0.01694166
135	0xbd8a4aa3	-0.06752517
136	0x3c0d1eea	0.0086133275
137	0x3e0d970e	0.13827154
138	0x3d0f5757	0.034995403
139	0x3e758b76	0.23978981
140	0x3c9e8ab6	0.019353252
141	0x3dbe5b65	0.09294776
142	0x3f03ce61	0.51486784
143	0x3d0b419a	0.03399811
144	0x3e48ab0d	0.195965
145	0xbe28f81c	-0.16500896
146	0x3e6b6486	0.22987565
147	0x3e5a214d	0.21301766
148	0x3e6812af	0.22663377
149	0x3e4608da	0.19339314
150	0xbe0a7ea1	-0.13524868
151	0x3ed21765	0.41033474
152	0xbea3fa93	-0.3202711
153	0xbcd160a6	-0.02555878
154	0x3dece6e0	0.115674734
155	0xbea9835b	-0.3310803
156	0xbdf53470	-0.11972892
157	0xbdfbe07d	-0.12298677
158	0xbe7ad482	-0.24495128
159	0xbc94d398	-0.018167302
160	0x3c78a349	0.015175649
161	0x3dc7215f	0.09723162
162	0x3e02cb97	0.12772976
163	0x3e797596	0.24361262
164	0x3e8aa962	0.27082354
165	0xbedb38be	-0.42816728
166	0xbe94454f	-0.28959128
167	0x3e38cdca	0.18047252
168	0xbdb63d2b	-0.088983856
169	0x3d071bb3	0.0329854
170	0xbaf4905c	-0.0018658745
171	0x3e42f4ef	0.19038747
172	0xba4aab12	-0.000773118
173	0xbd6856bb	-0.056723338
174	0x3ee38972	0.444408
175	0xbd3e011e	-0.046387784
176	0xbd70fb70	-0.05883354
177	0xbe02d988	-0.12778294
178	0xbd80fe2b	-0.06298479
179	0x3e26cb1d	0.16288419
180	0xbd64714d	-0.055772115
181	0xbd8c86ed	-0.068616726
182	0xbcd7713c	-0.026299112
183	0x3d916b8e	0.071005926
184	0x3e8be441	0.2732258
185	0x3c81e5cb	0.015856644
186	0xbe7dc8c8	-0.24783623
187	0x3d786b1c	0.060649022
188	0xbd185dbb	-0.037198763
189	0xbd32ff6e	-0.043700628
190	0xbe924758	-0.28570056
191	0xbddea3d4	-0.108710915
192	0x3d457a20	0.04821217
193	0xbde51b33	-0.111868285
194	0x3cf71465	0.030161092
195	0xbe5e8215	-0.2172931
196	0xbd7d4a22	-0.061838277
197	0xbdad2a25	-0.08455304
198	0x3cb2df25	0.02183492
199	0xbe61ed45	-0.22063167
200	0x3e6fd085	0.23419388
201	0x3d46d488	0.04854253
202	0x3dc95353	0.09830346
203	0xbe364aa7	-0.17801915
204	0x3e55da94	0.20884162
205	0xbdeadef3	-0.114683054
206	0xbe2ed315	-0.17072709
207	0xbe537a7e	-0.20652196
208	0xbebe41b1	-0.37159494
209	0x3b72b07c	0.0037031462
210	0xbe227f0e	-0.1586878
211	0xbe1fd2fe	-0.15607831
212	0x3e3e58fe	0.18588635
213	0x3d6a2870	0.05716747
214	0x3e441ecc	0.19152373
215	0x3e51b1f4	0.2047804
216	0xbe8f3607	-0.27970907
217	0xbd7ac3ca	-0.061221875
218	0x3e2b7956	0.16745505
219	0xbdfe02b9	-0.12402863
220	0x3c817198	0.015801236
221	0xbdb30ef5	-0.08743087
222	0xbda61038	-0.08108562
223	0xbe1f9c5f	-0.15586995
224	0xbddb4315	-0.10706154
225	0x3e57b48c	0.21064967
226	0xbe1114ac	-0.14168042
227	0xbcf0499a	-0.029331971
228	0xbdc99ae8	-0.09843999
229	0xbd4ba4fc	-0.04971789
230	0xbdcf559f	-0.10123753
231	0x3e82ffea	0.25585872
232	0x3dba0afe	0.09084128
233	0xbbe8291f	-0.00708498
234	0xbb9db3c0	-0.0048126876
235	0xbea0f3ea	-0.31436092
236	0xbe2f1936	-0.17099461
237	0xbd802ed6	-0.06258933
238	0x3e6f83d5	0.23390134
239	0x3e267bfa	0.16258231
240	0xbeebf7b9	-0.46087435
241	0x3ea003b9	0.3125284
242	0xbe201e22	-0.15636495
243	0xbe80dd69	-0.25168923
244	0xbe2d28a4	-0.16910034
245	0x3e45620c	0.19275683
246	0x3e1f442d	0.15553351
247	0xbcbe3ca6	-0.023222279
248	0x3cb47ceb	0.022032222
249	0xbda10eb7	-0.07864135
250	0xbe11cc65	-0.14238127
251	0xbdb62c3d	-0.088951565
252	0x3e570ef6	0.21001801
253	0x3b02b1a2	0.0019942303
254	0x3c952188	0.018204466
255	0xbdb668db	-0.08906718

lstm.weight_hh_l0_reverse f4 [80, 20]
0	0xbe15d6fd	-0.14632793
1	0xbdb16e2c	-0.08663592
2	0xbdc60cf7	-0.096704416
3	0x3e9fef71	0.31237367
4	0x3f0bdfeb	0.54638547
5	0x3e290f95	0.1650985
6	0x3d1fb407	0.038990047
7	0xbdaf8640	-0.08570528
8	0xbe2e0f49	-0.16998018
9	0x3d900411	0.070320256
10	0xbdfafd6e	-0.12255369
11	0xbcafcf41	-0.021461131
12	0xbe5b56c5	-0.21419819
13	0x3eb469ca	0.3523696
14	0x3dc31f5e	0.09527467
15	0x3cf58cdb	0.029974392
16	0xbe988a82	-0.29793173
17	0x3f139862	0.5765439
18	0xbe8e0ab2	-0.27742535
19	0xbda2b516	-0.07944696
20	0x3e9c45a4	0.30521882
21	0x3eb89c73	0.3605686
22	0xbe4585ff	-0.19289397
23	0x3ede9ca2	0.43478876
24	0xbe021078	-0.12701595
25	0x3f078d2d	0.5294979
26	0xbeb6bbd8	-0.35690188
27	0xbed3075c	-0.41216552
28	0x3e6e50d2	0.23273018
29	0x3dbdba59	0.092640586
30	0x3dad5de7	0.08465176
31	0x3d28322c	0.041063473
32	0x3f464b80	0.77458954
33	0xbe5693ef	-0.2095487
34	0x3e076286	0.13221177
35	0xbea9b6b6	-0.3314721
36	0xbee2f3f0	-0.44326735
37	0x3e81d149	0.25354984
38	0xbcb4705a	-0.02202623
39	0x3e82eaae	0.2556967
40	0xbe8dbd5d	-0.27683535
41	0xbef0117d	-0.46888342
42	0x3d0ff11b	0.035142045
43	0x3f1e1ecd	0.6176575
44	0x3eab9371	0.33510926
45	0xbec12a6a	-0.37727672
46	0x3db06b9b	0.08614274
47	0xbe76b8d1	-0.2409394
48	0xbee3742f	-0.4442458
49	0x3d23b7d4	0.039970234
50	0x3e88cd36	0.26719064
51	0x3e3b6566	0.18300399
52	0xbe0464d7	-0.12929092
53	0x3e385478	0.18000972
54	0xbeaacf11	-0.33361104
55	0xbe0cb1c7	-0.13739692
56	0xbe420765	-0.18948133
57	0xbd87b9df	-0.06627249
58	0x3dbbd007	0.091705374
59	0x3d5891df	0.05287349
60	0x3ee22f1d	0.4417657
61	0xbe02aa31	-0.12760235
62	0xbea2571e	-0.3170709
63	0x3e95a8bc	0.29230297
64	0x3e27df38	0.16393745
65	0x3e43e544	0.19130427
66	0xbe8e7a21	-0.27827552
67	0xbcb7707f	-0.02239251
68	0xbd80cfc5	-0.06289629
69	0x3eb60504	0.35550702
70	0xbeb6d650	-0.35710382
71	0xbe2fb0b2	-0.17157248
72	0x3f30bcd2	0.69038117
73	0xbe937e51	-0.2880731
74	0x3dc62b03	0.096761726
75	0x3e1d53ee	0.15364048
76	0xbebc18ce	-0.36737674
77	0xbccd6a2b	-0.025075039
78	0x3c3b7d1f	0.011443405
79	0xbdc94d4a	-0.09829195
80	0xbcb5d47e	-0.02219605
81	0xbe912222	-0.28346354
82	0xbdea0f5d	-0.114287116
83	0x3e6c0580	0.23048973
84	0x3e6062cd	0.2191269
85	0x3e228b63	0.15873484
86	0x3f1483d8	0.5801368
87	0xbf0f2a3f	-0.5592384
88	0xbd412e5e	-0.04716336
89	0x3e55831b	0.20850794
90	0x3f0f390c	0.5594642
91	0x3ca5123e	0.0201503
92	0xbd68919b	-0.056779485
93	0x3db9891b	0.09059354
94	0xbea067fe	-0.3132934
95	0xbdf52344	-0.11969617
96	0xbefd963f	-0.4952869
97	0x3e2ed5da	0.17073765
98	0xbec929a1	-0.39289573
99	0x3ea9c60f	0.3315892
100	0xbda7c075	-0.08191005
101	0xbe948c20	-0.29013157
102	0xbdc2e820	-0.095169306
103	0x3f2bcfae	0.6711377
104	0x3f08a09f	0.5337009
105	0xbd27e695	-0.040991385
106	0xbecb2283	-0.39674768
107	0xbedaac51	-0.42709592
108	0xbf22745f	-0.6345882
109	0x3eb5cb8b	0.35506853
110	0xbdf74060	-0.120728254
111	0xbe3cd780	-0.18441582
112	0x3f25daaf	0.6478681
113	0x3e24f2a0	0.16108179
114	0xbe76e765	-0.24111708
115	0xbd9aa328	-0.07550651
116	0xbeadc532	-0.3393951
117	0xbdb8a020	-0.090149164
118	0xbf0d7f07	-0.55271953
119	0xbeec7c6c	-0.46188676
120	0xbe783284	-0.2423802
121	0x3eb04d76	0.34434098
122	0x3e26a7fb	0.16275017
123	0xbc4e46ff	-0.012590169
124	0x3e8943ee	0.2680964
125	0xbd527593	-0.05138166
126	0x3ecf4082	0.40478903
127	0xbdcf84b0	-0.1013273
128	0xbe68bc77	-0.22728144
129	0x3e341e63	0.17589717
130	0x3f1a780e	0.6033944
131	0x3e255d02	0.16148761
132	0xbe8b6ab5	-0.27229849
133	0x3da76c50	0.08174956
134	0x3f0b6d15	0.5446332
135	0x3e8d2b39	0.2757204
136	0x3e7b4fbc	0.24542135
137	0xbee7bd2c	-0.45261514
138	0x3ccd361d	0.025050217
139	0x3e3c4c8a	0.18388572
140	0x3e63967f	0.22225378
141	0xbdbcce81	-0.09219075
142	0x3ec491d4	0.38392508
143	0x3daba6e4	0.08381441
144	0x3dec0f4b	0.115263544
145	0xbd0fc04e	-0.035095505
146	0x3e18be7b	0.14916413
147	0xbcc0df37	-0.023543937
148	0x3cd4ed92	0.025992189
149	0x3c8823ad	0.016618574
150	0xbeb87ab0	-0.36031103
151	0xbd990331	-0.07471312
152	0x3eee59b9	0.46552828
153	0x3e820108	0.25391412
154	0xbe1714ec	-0.14754075
155	0xbe5b9715	-0.21444352
156	0xbe08cfea	-0.13360563
157	0xbe387572	-0.18013552
158	0xbc174647	-0.009233064
159	0xbe3bbf1a	-0.18334618
160	0xbda3f9bd	-0.08006618
161	0x3c1749eb	0.009233932
162	0xbe086410	-0.13319421
163	0x3d648584	0.055791393
164	0xbce31a38	-0.027722463
165	0xbe5013b4	-0.20320016
166	0x3e10b159	0.14130153
167	0xbe04b4b2	-0.12959555
168	0xbcb1930a	-0.021676559
169	0x3e145f1b	0.14489405
170	0x3dcf5eb6	0.101254866
171	0xbe3df874	-0.18551809
172	0xbe827503	-0.25479898
173	0x3dc1030c	0.09424409
174	0x3c3c0590	0.011475936
175	0x3c9bab5e	0.019002613
176	0xbe2f830e	-0.17139837
177	0x3dce1017	0.10061663
178	0xbe583607	-0.2111436
179	0xbba597e9	-0.0050535095
180	0x3ecdb7e6	0.40179366
181	0x3d41dbfa	0.047328927
182	0x3e2bf2a9	0.16791786
183	0xbdfc90a4	-0.123322755
184	0xbe85a76f	-0.26104304
185	0xbe523fe9	-0.20532192
186	0xbe5f9452	-0.21833923
187	0xbde1d8d2	-0.11027683
188	0xbdb6c6e6	-0.089246556
189	0xbe4b1475	-0.19832022
190	0x3eacb7f2	0.3373409
191	0xbdf6e53c	-0.12055442
192	0x3ebbbe59	0.3666866
193	0x3e451e2e	0.19249794
194	0xbc6627cb	-0.014047573
195	0x3a893671	0.0010468495
196	0x3db9b0b1	0.09066904
197	0xbe5c064a	-0.21486774
198	0xbd546e5f	-0.05186307
199	0x3e38456b	0.17995231
200	0xbf0eb60e	-0.55746543
201	0xbe81007f	-0.2519569
202	0xbebde939	-0.37091997
203	0xbe51a704	-0.20473868
204	0xbe748be9	-0.23881496
205	0xbf0d4e99	-0.55198056
206	0xbf17c73f	-0.592884
207	0x3e7b035d	0.24513002
208	0xbc87ce9e	-0.016578015
209	0xbe5d176f	-0.2159097
210	0x3d99f912	0.075182095
211	0x3eae93b9	0.34097078
212	0xbe72d673	-0.23714618
213	0x3f0dc98e	0.55385673
214	0x3e29bbf0	0.16575599
215	0xbe56ab86	-0.20963868
216	0x3e0add22	0.13560918
217	0xbe8c1a01	-0.2736359
218	0x3e5bac9f	0.21452568
219	0x3e3dd41a	0.18537942
220	0x3e1f632f	0.1556518
221	0xbe486fe9	-0.1957394
222	0x3db5349d	0.08847926
223	0x3f5ebd69	0.87007767
224	0x3e040e24	0.12896019
225	0x3e6b6040	0.22985935
226	0xbe932f52	-0.2874704
227	0x3ce0ff2b	0.027465424
228	0xbe210833	-0.15725784
229	0x3ccb0b2b	0.024785599
230	0xbebe81ba	-0.3720835
231	0xbe9b746e	-0.30362266
232	0x3ebfd341	0.3746586
233	0xbe126b2c	-0.14298695
234	0xbee2aa36	-0.44270486
235	0x3dc2ff65	0.09521369
236	0xbb8bd14c	-0.0042668935
237	0xbea084f0	-0.31351423
238	0xbe214590	-0.15749192
239	0x3e74a9fd	0.2389297
240	0x3eaa0ae3	0.3321143
241	0xbeabfd4b	-0.33591685
242	0xbddb6d0c	-0.107141584
243	0x3ebae477	0.3650243
244	0x3d9552d8	0.07291192
245	0xbdc16e5e	-0.09444879
246	0x3e87beaf	0.26512668
247	0xbe5cb521	-0.2155347
248	0xbd655ed9	-0.055998657
249	0xbcba7786	-0.022762071
250	0x3f0b8ba9	0.5450998
251	0x3cb73577	0.022364361
252	0x3e97e73a	0.296686
253	0xbd923d60	-0.071406126
254	0xbe3321e1	-0.17493393
255	0x3e396519	0.18104972

lstm.bias_ih_l0_reverse f4 [80]
0	0x3dbb80f1	0.09155453
1	0x3d1e190c	0.038598105
2	0x3d9ef13f	0.07760858
3	0x3d08b30c	0.033373877
4	0xbe0e48a5	-0.13894899
5	0xbd8e6f07	-0.069547705
6	0xbc1f3548	-0.009717293
7	0x3e666ce7	0.2250248
8	0xbe094aa0	-0.13407373
9	0x3dbb9301	0.09158898
10	0x3e3ca1c2	0.1842108
11	0x3e92cac4	0.28670323
12	0x3ea98eee	0.3311686
13	0x3ddc9cdb	0.10772105
14	0x3d900f36	0.07034151
15	0xbe360080	-0.17773628
16	0x3e986488	0.297642
17	0x3ea3e246	0.3200857
18	0xbd60a77b	-0.05484722
19	0xbe23237c	-0.15931505
20	0xbe278eea	-0.16363111
21	0xbd91e145	-0.07123045
22	0x3e1f6fde	0.15570018
23	0x3c88901d	0.016670281
24	0xbd866aa0	-0.06563306
25	0x3e5b1f17	0.21398579
26	0x3ca5b9a0	0.020230114
27	0x3dc9662e	0.09833942
28	0xbc80076a	-0.015628535
29	0xbd1b0438	-0.03784582
30	0x3de1c83e	0.11024521
31	0x3e3e2c2b	0.18571536
32	0x3e85beea	0.26122218
33	0x3e41ee23	0.18938498
34	0x3d8e6531	0.069528945
35	0xbdbf38a7	-0.093369775
36	0x3df6e786	0.12055878
37	0xbd987060	-0.07443309
38	0x3d7de937	0.06198999
39	0x3e5dc37a	0.216566
40	0xbda6873b	-0.08131262
41	0x3e22b38e	0.15888807
42	0xbd9fc873	-0.078019045
43	0x3d19209e	0.03738462
44	0xbdd0cf14	-0.10195747
45	0xbd8f5286	-0.06998162
46	0x3e304c7d	0.17216678
47	0x3d7f3747	0.062308576
48	0xbe0fec36	-0.14054951
49	0xbd0098cc	-0.03139572
50	0x3dc1432b	0.094366394
51	0x3e2076d3	0.15670328
52	0x3d51e313	0.051241945
53	0x3da249e7	0.07924252
54	0x3e01cff7	0.12676989
55	0xbd016314	-0.03158863
56	0xbb56404c	-0.0032692133
57	0xbddfbfbf	-0.109252445
58	0x3e628f7f	0.22125052
59	0x3e326d49	0.17424501
60	0xbda88bed	-0.08229814
61	0x3e83eeab	0.25768027
62	0x3e920ade	0.28523916
63	0x3eb39494	0.35074294
64	0x3d39d80b	0.04537205
65	0x3d87121a	0.065952495
66	0x3df3e8d4	0.11909643
67	0xbda79341	-0.08182383
68	0xbe1d2528	-0.15346205
69	0x3dd5ab41	0.10433055
70	0xbbfccc82	-0.007714809
71	0x3de2252a	0.11042245
72	0x3e519a16	0.20468935
73	0x3ceaf9ec	0.028683625
74	0x3be2ab9c	0.00691743
75	0x3e57302d	0.21014471
76	0x3dd82ded	0.10555635
77	0x3eb99c5a	0.362521
78	0xbd21ae9c	-0.03947316
79	0x3e9956e4	0.29949105

lstm.bias_hh_l0_reverse f4 [80]
0	0x3c90a379	0.017656075
1	0xbe8d106b	-0.27551588
2	0xbdc0f66e	-0.09422003
3	0xbd3e60c8	-0.046479017
4	0xbde166ef	-0.11005961
5	0x3e4bc1af	0.19898103
6	0x39666311	0.00021971414
7	0xbe0bd6b3	-0.1365612
8	0xbdd56fe1	-0.1042173
9	0x3df5f5d8	0.120097816
10	0x3d8928bc	0.066972226
11	0xbcd18472	-0.02557585
12	0x3e0925f3	0.13393383
13	0x3e6b7d97	0.22997127
14	0x3e41b400	0.18916321
15	0xbdcc6b89	-0.09981448
16	0x3eb9ab34	0.3626343
17	0x3ddf950b	0.109170996
18	0xbe0088f6	-0.12552246
19	0xbde0c7a9	-0.10975582
20	0x3ddba3e4	0.10724619
21	0x3c1470b5	0.009060075
22	0x3e87627e	0.2644233
23	0x3e6ebcc9	0.23314203
24	0xbe0d1a26	-0.13779506
25	0xbe545823	-0.20736746
26	0xbe48f31d	-0.1962399
27	0xbd0196a2	-0.031637795
28	0x3e23d5a3	0.15999465
29	0x3e751f4c	0.2393772
30	0x3ea939c9	0.330519
31	0xbb2e4dee	-0.0026596743
32	0xbd84e8ec	-0.06489739
33	0x3be7ea60	0.0070775
34	0x3e071532	0.13191679
35	0x3e204c5f	0.15654133
36	0xbcdf8d70	-0.027289122
37	0xbdd32b56	-0.10311
38	0x3d5eb7fd	0.054374684
39	0x3cb05576	0.021525126
40	0xbcd14b21	-0.02554852
41	0x3d2dc4d0	0.042424023
42	0xbe092cb7	-0.13395964
43	0x3e136ba8	0.14396536
44	0x3e29cf47	0.16582976
45	0xbe5a5a1a	-0.21323434
46	0xbd90d8d6	-0.07072608
47	0xbe27b2c5	-0.16376789
48	0xbdbc3bea	-0.09191115
49	0x3d969786	0.073531196
50	0x3e346bfe	0.17619321
51	0x3e3dd22e	0.18537208
52	0x3daa502c	0.08316073
53	0xbe0eaa7f	-0.13932227
54	0xbd9329e9	-0.07185728
55	0xbe798fcb	-0.24371259
56	0x3d475ec1	0.04867435
57	0xbca51a4f	-0.020154146
58	0xbdac3964	-0.08409384
59	0xbd8932e9	-0.066991635
60	0x3e62e427	0.22157346
61	0x3eb9dcfa	0.36301404
62	0x3e48dc6c	0.19615334
63	0x3dd33b2b	0.1031402
64	0xbe0cea4e	-0.13761255
65	0x3e936a0e	0.2879185
66	0x3e4de071	0.20105149
67	0x3e11589a	0.14193955
68	0x3ba7172c	0.005099198
69	0xbc541159	-0.012943589
70	0x3d84fac9	0.06493146
71	0xbdcfb3fa	-0.1014175
72	0x3c91d16f	0.017800061
73	0x3e2e3932	0.17014006
74	0xbdeeabe8	-0.11653882
75	0x3d36e28b	0.044649642
76	0x3e95d02b	0.29260382
77	0x3c81bfc2	0.015838508
78	0x3e1b3fa4	0.15160996
79	0x3d30fdc6	0.043210767

lstm.weight_ih_l1 f4 [80, 40]
0	0x3ceaec8c	0.028677247
1	0x3e9e604e	0.3093285
2	0x3e8043d9	0.25051764
3	0x3ea02db7	0.31284878
4	0xbda96916	-0.08271997
5	0xbc93978d	-0.018016601
6	0x3e19161e	0.14949843
7	0xbe8059f0	-0.25068617
8	0x3e289f82	0.16467097
9	0x3da8b1a1	0.08237005
10	0x3e81a549	0.25321415
11	0x3d0d883c	0.03455375
12	0xbd3bbf88	-0.045836955
13	0xbecef370	-0.40420103
14	0xbe9efe81	-0.31053546
15	0x3e1590bf	0.14605998
16	0x3c4153a2	0.011799725
17	0xbea98263	-0.3310729
18	0x3cd7239c	0.026262097
19	0xbda6ad6a	-0.08138545
20	0x3e2ab2a9	0.16669716
21	0xbe1cfc67	-0.15330659
22	0xbd20e975	-0.039285142
23	0xbe1eb84f	-0.15499996
24	0xbd76144f	-0.06007796
25	0xbe9cb882	-0.30609518
26	0x3e55c311	0.20875193
27	0x3da50fb8	0.08059639
28	0xbe6b2a90	-0.22965455
29	0xbdb2c434	-0.08728829
30	0xbb9e6677	-0.004833992
31	0xbc6bb5c6	-0.0143866
32	0x3cf9bab2	0.030484531
33	0x3b8a3e54	0.004218856
34	0x3e767edd	0.24071832
35	0x3e273982	0.16330531
36	0xbe4f7d2b	-0.20262592
37	0x3e47acc1	0.19499494
38	0xbe8f8ee8	-0.28038716
39	0x3e6b50a9	0.22979988
40	0xbe1d1ae4	-0.15342289
41	0xbd700951	-0.058602635
42	0xbcac6701	-0.02104521
43	0x3e1d95ae	0.1538913
44	0xbe1cd1c5	-0.15314396
45	0x3e32fc24	0.17478997
46	0xbcc8fdf6	-0.02453516
47	0xbdabc5ad	-0.08387313
48	0x3e33dac3	0.1756392
49	0xbd914f4c	-0.07095203
50	0xbc0ee56f	-0.008721693
51	0x3e367f50	0.17822003
52	0xbd40ddae	-0.04708641
53	0x3dbffbe4	0.09374216
54	0xbf4b4988	-0.79409075
55	0xbb836b28	-0.0040105768
56	0x3da63d90	0.08117211
57	0xbebd3c14	-0.36959898
58	0xbecc4ce8	-0.39902425
59	0xbe05328f	-0.13007568
60	0xbeb4d794	-0.35320723
61	0x3e8948f5	0.26813474
62	0xbe471ee1	-0.19445373
63	0xbd767ed7	-0.060179558
64	0xbe06a570	-0.13149047
65	0xbed1681f	-0.4089975
66	0xbdbff5da	-0.09373064
67	0x3e0019df	0.12509869
68	0x3e262b6d	0.16227503
69	0xbe0a2e13	-0.13494138
70	0xbc6b900b	-0.014377604
71	0xbdde0c05	-0.10842136
72	0x3d413520	0.047169805
73	0xbe4d06a4	-0.20022064
74	0x3e144b4b	0.14481847
75	0xbdd57bd2	-0.104240075
76	0x3dceb5cb	0.10093268
77	0xbe6b823e	-0.22998902
78	0xbd9ca532	-0.07648696
79	0xbe08e8f3	-0.13370113
80	0xbd894ae3	-0.06703737
81	0xbd8c3597	-0.06846159
82	0xbdf918eb	-0.12162956
83	0xbe991e0e	-0.29905742
84	0xbdb10cc3	-0.08645012
85	0xbd5153e0	-0.05110538
86	0x3cb0acd8	0.021566793
87	0xbe8f99a3	-0.28046903
88	0xbdf54330	-0.119757056
89	0x3ea49a32	0.32148892
90	0x3e8648dc	0.26227462
91	0xbecb53cc	-0.3971237
92	0x3e7d9dbf	0.24767207
93	0x3d2e7e91	0.042601172
94	0xbe560a21	-0.20902301
95	0xbdefcbf9	-0.117088266
96	0x3c231ee4	0.009956095
97	0xbe5bde03	-0.2147141
98	0x3d3f4ed1	0.046706025
99	0xbeb0d969	-0.3454087
100	0xbed410bb	-0.41419014
101	0xbd9ed17e	-0.07754801
102	0x3d106fe3	0.035262953
103	0x3ef5111c	0.47864616
104	0x3de436cb	0.111432634
105	0x3dbe2a14	0.092853695
106	0x3e9731a0	0.29530048
107	0x3e41c0c6	0.18921193
108	0x3dd44351	0.10364402
109	0xbcd8bc75	-0.02645705
110	0x3ebd721f	0.3700113
111	0xbe2a1920	-0.16611147
112	0xbeb2e530	-0.3494048
113	0x3e3b8bd3	0.18315057
114	0xbd5801ed	-0.05273621
115	0x3c1f084f	0.009706571
116	0xbe1748cf	-0.14773868
117	0xbe072b72	-0.13200167
118	0x3bd6b44e	0.0065522557
119	0xbe30c0b0	-0.17261004
120	0x3ddba1a4	0.1072419
121	0xbe345952	-0.17612198
122	0xbe3ec2d8	-0.18629014
123	0x3e7e3fcf	0.24829029
124	0x3e815737	0.25261852
125	0x3dc0752c	0.09397349
126	0x3e6a1989	0.22861303
127	0xbe8fa6d4	-0.28056967
128	0xbeb11e56	-0.34593457
129	0x3e90ad5e	0.2825727
130	0xbe5cbf98	-0.21557462
131	0xbdb5acd0	-0.08870852
132	0x3d8ea053	0.06964173
133	0x3e23ed9e	0.16008613
134	0xbe1c03ca	-0.1523582
135	0x3e4246cb	0.18972318
136	0xbe159860	-0.14608908
137	0x3dbb6e10	0.09151852
138	0xbeb66257	-0.35621902
139	0x3e257854	0.16159183
140	0x3d5f27cd	0.054481316
141	0x3e1e4589	0.15456213
142	0xbe1e9b2c	-0.15488881
143	0xbd93a177	-0.07208531
144	0xbe27f0b3	-0.16400413
145	0x3e8f3887	0.27972814
146	0xbdf87412	-0.12131514
147	0x3d6d354f	0.057912167
148	0x3b24629a	0.0025083185
149	0xbd2b0d55	-0.04176076
150	0xbdd51054	-0.10403505
151	0xbe2629ca	-0.16226879
152	0x3e60df63	0.21960215
153	0x3e8c38e8	0.27387166
154	0x3e371503	0.17879109
155	0x3e7c3ae5	0.24631841
156	0x3e4005d7	0.18752228
157	0xbc833293	-0.016015327
158	0xbe0b2bb8	-0.13590896
159	0xbe9a0128	-0.30079007
160	0x3d962577	0.073313646
161	0xbd4b003c	-0.04956077
162	0xbea54e99	-0.32286528
163	0x3c7cf4a9	0.015439191
164	0xbea3a630	-0.31962729
165	0x3e45ef56	0.1932958
166	0x3d63b5b0	0.055593193
167	0x3d4c0268	0.049806982
168	0x3d48c8d6	0.049019657
169	0xbe0b977d	-0.13632007
170	0xba68f78b	-0.00088869844
171	0xbd5dd1c3	-0.054155122
172	0xbeca9566	-0.39567107
173	0x3db9fd40	0.09081507
174	0x3e986439	0.29763964
175	0xbde604ac	-0.1123136
176	0xbdcac31e	-0.09900497
177	0xbe588c88	-0.21147358
178	0x3e412381	0.188612
179	0xbe486974	-0.19571477
180	0x3e5336e3	0.20626406
181	0x3cfbd0cd	0.030739212
182	0xbe2d4076	-0.16919121
183	0x3d4824e2	0.0488633
184	0x3e1676ba	0.14693728
185	0xbdb414fa	-0.087930635
186	0x3eea550d	0.45768014
187	0xbdcd17e5	-0.10014323
188	0xbd8a77cd	-0.067611314
189	0x3dc41dff	0.09576034
190	0x3dc4102f	0.09573399
191	0x3df3c86d	0.119034626
192	0xbe736c90	-0.23771882
193	0x3db45aa0	0.08806348
194	0xbeae9d05	-0.3410417
195	0x3afd12be	0.0019307954
196	0xbd990d54	-0.07473245
197	0x3d002f95	0.031295378
198	0xbe8fc904	-0.2808305
199	0x3e84197c	0.25800693
200	0xbe6540ca	-0.22387996
201	0xbc69cbb0	-0.014269754
202	0x3d1fde66	0.039030455
203	0xbebab343	-0.3646489
204	0xbd047f40	-0.032347918
205	0x3e80b0a6	0.25134772
206	0x3ebdca5c	0.3706845
207	0x3e7a5ad3	0.24448709
208	0x3cf9f004	0.030509956
209	0x3c9d3e0a	0.019194622
210	0xbdb76fc4	-0.089568645
211	0xbe8d0f46	-0.27550715
212	0xbc134504	-0.008988623
213	0xbecdb8b4	-0.4017998
214	0x3dafddd8	0.08587235
215	0xbe05ff0a	-0.13085571
216	0x3e3a3848	0.18185532
217	0xbe8364dd	-0.2566289
218	0x3e9df914	0.30854094
219	0x3dc74b8e	0.09731208
220	0xbda6da03	-0.08147051
221	0x3ed4c038	0.415529
222	0xbe6e6e45	-0.23284252
223	0x3e39726c	0.18110055
224	0x3e08d02d	0.13360663
225	0x3e053780	0.13009453
226	0x3eb020e3	0.3440009
227	0xbd0c181b	-0.034202676
228	0xbdd02773	-0.10163774
229	0x3e388c8e	0.18022367
230	0x3db72dd3	0.08944287
231	0x3e1f3437	0.15547262
232	0x3d3159f1	0.043298665
233	0xbe741ac7	-0.2383834
234	0xbe1ee7a3	-0.1551805
235	0xbe07249a	-0.13197556
236	0xbe6f1331	-0.23347165
237	0xbeb8677f	-0.3601646
238	0xbe7a32d1	-0.24433447
239	0xbe280d34	-0.16411287
240	0x3e132dcd	0.1437294
241	0xbe585bb4	-0.21128732
242	0x377ce528	1.5073725e-05
243	0x3e8e963e	0.27849
244	0x3e98ad6b	0.29819807
245	0x3e438099	0.19092025
246	0xbeab66e8	-0.3347695
247	0x3e2f6159	0.17126979
248	0xbee0abbd	-0.43881026
249	0xbf20393d	-0.6258734
250	0xbe720031	-0.23632886
251	0xbe0047c8	-0.12527382
252	0x3d90edd3	0.07076611
253	0x3e7ee1fe	0.24890897
254	0xbe0d5137	-0.13800512
255	0x3e689a93	0.22715215
