data/embD/hoc18/model_3/hoc18_best.pt (torch, 343117 bytes, 87 tensors)

embedding.weight f4 [12, 20]
00000000: 0000 0000 0000 0000 0000 0000 0000 0000
00000010: 0000 0000 0000 0000 0000 0000 0000 0000
00000020: 0000 0000 0000 0000 0000 0000 0000 0000
00000030: 0000 0000 0000 0000 0000 0000 0000 0000
00000040: 0000 0000 0000 0000 0000 0000 0000 0000
00000050: 0268 c13e 07ce c73e c83a b43f 355f 95bf
00000060: 2e5c 11bf 9abb 10bf 175f f0bf a296 26bf
00000070: 6841 f93e f7e5 08bf d314 b63f 7e26 0340
00000080: 6c5a 273f 5974 863f a765 1f3f 5462 75bd
00000090: a7eb 733e 1313 7f3f ebb3 b73e 42a0 d9bf
000000a0: 60f0 b33f 2b55 8bbf 97c4 99bf 617c c93e
000000b0: 80a3 3dc0 b586 82be f1f5 3d3f 494c 8dbf
000000c0: 6bd3 cabc c59b 6a3e 3beb 7f3e d250 50bf
000000d0: 74f7 58be 97b8 85bf fa5e 87bf 6536 53bd
000000e0: 165c 38be 41cd bc3f 57e3 52bf 955f 01bf
000000f0: 4940 b8bf d7db 8dbe 77aa bb3e c2e0 4ebf
00000100: 4eab c93e d974 b6be 3956 7c40 8905 2e3f
00000110: 1fbf 183e b500 1bbf 4dad f93f 0ce8 42bf
00000120: e9ff b53e 179c f0be c0b8 abbf 2b7f d83e
00000130: 073e 10be 8742 d4be 74e3 8abf b664 e2bf
00000140: c5b0 c6bd 9358 7c3f e385 8abf 39dd 5dbf
00000150: 51e8 f83e d829 843f 6d7f d0be 82a1 853f
00000160: 5a80 ce3e a489 70bf 73df 22bf e0f3 a33d
00000170: 4ce0 fcbe 547d 35bf 7e55 8fbd 95f8 96bf
00000180: a220 3bbe 92c6 5f3f a2db 0140 cab6 bdbf
00000190: 3bf8 75bf bf50 21c0 5619 ebbe 960b b1be
000001a0: 8080 12bf fe07 23be d7bf 603e 92c8 49c0
000001b0: afc9 59bf 78de 453f a033 6cbf 3e28 f23f
000001c0: 68df 113f d2a4 0ec0 6dfe 52be 6b49 87bf
000001d0: a9ff 46c0 0ec6 2bbd 2ad1 8b3f 8dbd 213f
000001e0: 8040 1f3f 3b17 b03f 1e52 8a3e dc94 87bf
000001f0: 4b85 d8bf f75f 63bd 527f e53e 5123 a23e
00000200: 2f22 c8be 071c 1abf 7117 2abf b41c a8bf
00000210: f163 3f3f 21de 5fbf 8a6f 85be ba9d 2b3e
00000220: 1b42 f2bf 0e32 8dbf 9bb9 573d 69af 00c0
00000230: 108b a03f b0fe 69be 78e0 acbc a09c 153f
00000240: 6686 00bf 13e2 e03e 7b52 afbf 4a2c 3fbf
00000250: c097 983f 0637 363e 219c 903f 0a40 ae3e
00000260: 9aa4 eb3e 87d2 8d3e f3f3 8abf 3ef8 8ebf
00000270: f973 323f 333c 3e3f 9f06 033f 2132 dc3f
00000280: 4c5c 78bf 17c6 3b3f 869a 11bf ee56 ab3f
00000290: fc79 1cbf 51f2 89bf 580e 063f 560b 49bf
000002a0: 1522 cbbe c45c 0bc0 04e8 8fbf 41bf aebf
000002b0: c4cb c83d 3a87 143f e0c3 11bf 2c8f cb3f
000002c0: 869b 3abf b0b8 40be a1af 943e 7ce1 6bbf
000002d0: e6fa 5cbf 7670 86be 87ff 96be 4427 aabe
000002e0: 12d1 a3bf ba17 893f 96be 433f 6d19 963f
000002f0: 66fc 923e 9238 3bbf f8c9 833e cba8 99bf
00000300: 0e06 89bf 6d72 c0be 125a 323f 435b 74bf
00000310: c189 2c3f 6a17 24bf d669 06c0 71a6 d0bf
00000320: 8c8b c7bf 01c0 d8bf 9413 b0bf 3eae f6be
00000330: 677e 89be 4267 4a3d 895e fabf 4854 473f
00000340: ff9e a23f ae82 6c3f 3304 c03d c99f 86bf
00000350: 43e3 eb3d 9b8d 293f 2398 f63e 3f2b 2cbf
00000360: cac6 073f 8d8d 923e 8dcf 953e 71f9 c2be
00000370: f268 a9bf 3ba2 043f 1547 bf3f 6201 48bf
00000380: b0fa b93d 677d 143f b4a9 57bf cbb5 fd3e
00000390: d79c 02be 3372 d5be cd59 89bf 006b 6dbd
000003a0: b169 4a3f 28fc 10c0 d9f6 9dbf dc79 513d
000003b0: 1e36 bbbd 63d1 27be 7c9b 0d3f 5b66 62bc
0.0 0.0 0.0 0.0 0.0 0.0 0.0 0.0
0.0 0.0 0.0 0.0 0.0 0.0 0.0 0.0
0.0 0.0 0.0 0.0 0.37774664 0.39024374 1.4080439 -1.166968
-0.5678128 -0.5653626 -1.8779019 -0.650736 0.48682714 -0.534759 1.4225105 2.0492244
0.6537235 1.0504256 0.62264484 -0.059908226 0.23820363 0.9963848 0.35879454 -1.7002032
1.4057732 -1.0885366 -1.201312 0.39352706 -2.9631042 -0.25493398 0.742034 -1.1038905
-0.024759015 0.22910984 0.24992077 -0.8137332 -0.21188146 -1.0446957 -1.057586 -0.051565547
-0.18003878 1.4750139 -0.82378143 -0.5053647 -1.4394618 -0.27706787 0.36653492 -0.80811703
0.39388508 -0.35636023 3.9427626 0.67977196 0.14916657 -0.60547954 1.9506012 -0.76135325
0.35546806 -0.46994087 -1.3415756 0.4228452 -0.14086162 -0.41457006 -1.0850663 -1.7686985
-0.09701685 0.98572654 -1.0822109 -0.86665684 0.48614743 1.032527 -0.40722218 1.0439913
0.403323 -0.9396002 -0.63622206 0.080055 -0.49389875 -0.7089436 -0.06998728 -1.1794611
-0.18274167 0.8741237 2.0290303 -1.4821408 -0.96081895 -2.5205534 -0.45917767 -0.34579152
-0.57227325 -0.15921018 0.21948181 -3.1528668 -0.8507337 0.77292585 -0.92266273 1.8918531
0.56981516 -2.2288098 -0.20604868 -1.056928 -3.1093543 -0.041936927 1.0923207 0.63179857
0.62207794 1.3757089 0.27015775 -1.0592303 -1.6915678 -0.05551144 0.448237 0.3166757
-0.3908858 -0.60199016 -0.6644202 -1.313376 0.74761873 -0.87448317 -0.2606166 0.16759387
-1.8926424 -1.10309 0.05266724 -2.0107062 1.2542439 -0.22851062 -0.021103129 0.58442116
-0.50205076 0.4392248 -1.3697046 -0.74676955 1.192131 0.17794427 1.1297647 0.34033233
0.4602402 0.27699682 -1.0855697 -1.1169508 0.6970821 0.74310607 0.5118198 1.7202798
-0.97015834 0.73349136 -0.5687641 1.3385904 -0.61123633 -1.0777074 0.52365637 -0.7853292
-0.3967444 -2.177537 -1.124268 -1.3652116 0.0980449 0.5801884 -0.56939507 1.5903068
-0.7289356 -0.18820453 0.29040244 -0.92140937 -0.8632034 -0.26257676 -0.29491827 -0.33233082
-1.2798178 1.0710366 0.76462686 1.1726509 0.2870819 -0.73133194 0.25740027 -1.2004637
-1.0704973 -0.375873 0.69668686 -0.95451754 0.67397696 -0.6409823 -2.1002097 -1.6300794
-1.5589461 -1.6933595 -1.3755975 -0.4817981 -0.2685425 0.04941488 -1.95601 0.7786298
1.2704772 0.923869 0.09375801 -1.0517513 0.11517956 0.662317 0.48162946 -0.6725349
0.53037703 0.2862362 0.2925991 -0.38080934 -1.3235152 0.51810044 1.4943568 -0.7812711
0.09081018 0.5800385 -0.8424332 0.4955276 -0.12755142 -0.4168869 -1.073053 -0.05796337
0.7906752 -2.2653904 -1.2340957 0.051141605 -0.091411814 -0.16388468 0.55315375 -0.013818349

lstm.weight_ih_l0 f4 [80, 20]
00000000: 552b 743e 8252 7abe c52a 84be 99a0 9e3d
00000010: 89bc 3dbe ccb7 f4bd e314 a23d 1623 86bd
00000020: 5e2d 413e 7803 9f3e 25df f7bd 7969 2fbe
00000030: 23b5 803d a2bb 2b3d 32a3 c7be db16 3abd
00000040: 1477 073d 6bf9 e73d a4cd 6bbd 29f9 4d3c
00000050: 0d86 1d3e 1007 9d3d 0634 1fbd 84e3 c83c
00000060: 03c4 70be 254c 933c d7f6 b83d 6a17 d9bd
00000070: a17c f8bd 01a7 8abd f1d0 213e 23da 283e
00000080: 1c86 b83e 12aa 35bd a133 02be 1dac d4bc
00000090: 8b8e 99be e5d7 8ebc 8c32 243e 5d74 b8bd
000000a0: fd2b 9bbe 7f19 a2bc 47f7 553d 08ae 55be
000000b0: 84df cb3d ff5e 8ebd 0ab1 1e3e f8ca 39bc
000000c0: 1824 f93d 90e5 9fbd add7 fe3c 0f9d 233e
000000d0: bfea b4bd 6a57 0bbe 6eda a93e 3d8f c33d
000000e0: 0f4c 26be ddd4 69be eff8 07bd 40d6 adbe
000000f0: 1ccc bebc 1f41 0bbe 8b34 a2be dff4 48be
00000100: ab5b e7bd b8bc 603e 01f8 6a3e fdcd 5d3e
00000110: 00fb 2cbd 7c3f 1cbe 3041 e9bc 8d15 5bbe
00000120: 44d5 9c3d 18b2 8abe d0f4 abbe fa04 77bd
00000130: ff09 e7bd 751e 133c eb95 8abc 5a39 233e
00000140: 46de 1abe bf27 06be 5bbf a6be aa3b 8d3e
00000150: 281a 6fbe 8b7b 003e 53b9 ef3d 2198 bdbd
00000160: 9ae1 15be 226e 6abe 1b98 c7bd 0ac1 43be
00000170: e115 9bbe 2f83 8dbe f65b 3cbe 20a6 eb3d
00000180: 8e74 cb3c 3e48 353e 5f24 fdbd 07cf 103e
00000190: 40b0 153e b9cf 03bf f62c 813d dcc6 c2bd
000001a0: 8b61 77bc b2f2 ef3e 70ea 2e3e a849 2fbd
000001b0: 3efb b03d df27 c63d 0c8a 46be 9da6 68be
000001c0: 1c9c 7abe 6265 e6bd 4372 b3be d033 cdbd
000001d0: 51ca fdbd 9029 1b3e fa6c 533e e9a3 21bc
000001e0: 00f1 82bc 7d23 0ebe a095 24be 8292 123e
000001f0: 0cbd 15bd 7328 5abd 18ae babe 1913 f0bd
00000200: 4eda c13d 3c8b 233e 19f8 8d3d 68d2 a13e
00000210: adb9 453e 9ba8 193e b44d 7b3d f285 4fbe
00000220: 3e10 95bd 76c6 313e f782 283e 6dd7 e43d
00000230: 3e81 c83c f375 603e 568b 133d 76ef cbbd
00000240: 1d22 85be 39cb aa3e 83fc 86bd 57a0 a03e
00000250: ef70 403e ad79 8ebe ce45 7dbe eaa3 ad3b
00000260: 9af3 6cbe 1b02 00be 933f 9bbd 9f4f cdbd
00000270: 8b58 51be 0461 1dbd ce5b 9cbd 760d 5bbe
00000280: 8a2e 8a3d c853 6e3e 870d 89be bbcd 8b3d
00000290: 1076 c43d c3a4 a73c 2f71 03be e2aa ec3c
000002a0: 6e2b 2c3d de90 9d3d 4530 65bd 5ae8 49be
000002b0: 806a 813d 26b2 bd3b e316 cd3d cdca 69be
000002c0: 5ffa 96bd adb4 74be ce8f 9a3e d7c4 ec3d
000002d0: 01e3 d93c 3e10 5e3c 9a2b 92bd 63cf ce3e
000002e0: 64e5 0a3e 76e1 87bd d3d4 a93e 7075 073e
000002f0: 492a 983e 2eb6 1bbd 5f9c b73e 0d3a 123e
00000300: 4bbb 84be 1fbf 473e ea08 98bd a1e8 263d
00000310: a7fb 063e a42b b0bc eecf e13d 24a8 fc3d
00000320: 5866 d83b 3c33 4fbd 2700 0d3d fd72 bdbd
00000330: 4561 073e 319d 063e 6460 50be 27fd 9cbe
00000340: 79aa 053e 7997 783e ffd4 0bbe f687 5abe
00000350: 0f56 25bd 9e7c 33be b7e3 063d 2e88 4f3d
00000360: 13d8 34be bcbc ddbd 4a18 febd 921f d2bd
00000370: 009e 5abd 1464 863e 01b1 7bbc 880f 05bd
00000380: a11d 6abe e0b8 0fbe 6353 d43c 3b55 943a
00000390: 0bc6 7a3e a620 023d 7da6 7dbd c06e 2f3d
000003a0: ffa2 b33c dc6f 9dbe 3923 5dbe 5baf 8bbc
000003b0: aebe 5bbd 20bb 493e 28e1 833e 7e23 abbb
000003c0: 0924 9dbd 8339 bc3c 717c e4bd 6c75 dcbd
000003d0: c71c 45bd 1977 a8bd 313a 3f3d adad e5bc
000003e0: 20d9 18bd 7d9d 8d3b 6eec 353e f1cd 14be
000003f0: 293f f6bd c74b 8dbe ee8a bb3d b60d 053e
0.23844655 -0.24445537 -0.2581388 0.07745475 -0.18528952 -0.11949119 0.0791414 -0.06549661
0.18864962 0.31057334 -0.12103108 -0.17130078 0.06284549 0.041926987 -0.38991696 -0.045431953
0.033072546 0.113268696 -0.05756916 0.012571611 0.15383168 0.07667363 -0.038867973 0.02452255
-0.23512273 0.017980644 0.09031456 -0.10600169 -0.12133146 -0.06770135 0.15802361 0.16489463
0.36039817 -0.044351645 -0.12715007 -0.025960976 -0.29991564 -0.01743693 0.16034907 -0.090065695
-0.30306998 -0.019787548 0.052237775 -0.20867169 0.099547416 -0.06951713 0.15497223 -0.011339895
0.121650875 -0.078074574 0.031108702 0.15977882 -0.08833837 -0.13607565 0.3317446 0.09548805
-0.16239952 -0.22835107 -0.033196386 -0.33952522 -0.023290686 -0.1359906 -0.31680712 -0.19624661
-0.11296781 0.2194699 0.22946168 0.2166061 -0.04223156 -0.15258592 -0.028473467 -0.2139494
0.07657865 -0.27089 -0.33585215 -0.06030748 -0.112812035 0.0089794295 -0.01691719 0.15939847
-0.15123853 -0.131011 -0.32567868 0.27584583 -0.23349822 0.12547128 0.1170527 -0.09257532
-0.14636841 -0.22893575 -0.09745809 -0.19116607 -0.3029013 -0.27639148 -0.18394455 0.11506295
0.024835851 0.1770334 -0.12360453 0.14141475 0.14618015 -0.51488835 0.06307404 -0.09510586
-0.01509894 0.4686485 0.17081618 -0.042794853 0.08641671 0.096755736 -0.19388598 -0.22719808
-0.24473614 -0.11249806 -0.35048112 -0.10019648 -0.123921044 0.15152574 0.2064704 -0.009865739
-0.015984058 -0.13880725 -0.16072702 0.14313701 -0.036557242 -0.05326123 -0.36460948 -0.117223926
0.094654664 0.15971082 0.069320865 0.3160584 0.19309111 0.15005724 0.0613534 -0.2026594
-0.072784886 0.17360863 0.16456209 0.11173902 0.02447569 0.21919994 0.036021553 -0.09957783
-0.2600259 0.33358172 -0.065911315 0.3137233 0.18793081 -0.27827206 -0.2473366 0.005299081
-0.23139802 -0.12500803 -0.07580485 -0.10024952 -0.20443933 -0.0384226 -0.07634698 -0.21391854
0.06747158 0.23274148 -0.26768133 0.06826349 0.09592831 0.020464307 -0.12836145 0.028890077
0.042033605 0.07693647 -0.055954237 -0.19717541 0.063191414 0.005789059 0.10014131 -0.22831269
-0.07371973 -0.23897047 0.3018784 0.11560982 0.026597502 0.013553677 -0.071372226 0.40392599
0.13564068 -0.066348 0.33170184 0.13228393 0.2971976 -0.038015537 0.3586149 0.14279957
-0.25924143 0.195065 -0.07423575 0.040749196 0.13181935 -0.021505184 0.110259876 0.12336758
0.006603997 -0.05058597 0.034423973 -0.09250448 0.13220699 0.13145901 -0.2034927 -0.3066189
0.13053311 0.24276532 -0.1365547 -0.21340927 -0.040365275 -0.17528006 0.03293201 0.05066698
-0.17660551 -0.10827014 -0.124069765 -0.10259928 -0.053373337 0.2624823 -0.015362025 -0.032485515
-0.22862865 -0.14035368 0.025918668 0.0011316905 0.2448961 0.031769417 -0.061926354 0.04283023
0.021928309 -0.30749404 -0.21595468 -0.01705139 -0.053648643 0.19700289 0.25757718 -0.005222737
-0.07672889 0.022976642 -0.11156548 -0.10764584 -0.048123147 -0.08225841 0.046686355 -0.028036917
-0.03731644 0.0043217526 0.17765972 -0.14531685 -0.120237656 -0.27596876 0.09157358 0.12993512

lstm.weight_hh_l0 f4 [80, 20]
00000000: 6d3a 29be 8f63 96be d5d8 543e 9831 e3bc
00000010: cec0 2cbd 2d42 e83d c4c6 28be 9f46 21be
00000020: 1113 423e 05f3 2dbe 791c af3e cb3d e43c
00000030: 40ac 8c3d c9fb f73c 00de 993d e436 b03e
00000040: 848f 4b3d 5832 7d3d eb67 58be 723f 043d
00000050: b58f e93d 6530 adbe af44 08bf 377c 5bbe
00000060: b7ce 1c3e d5da 7abf e2d8 d0be 38a5 c13e
00000070: 226a 0ebe 4f92 bbbe 0275 c1bd 7058 4cbe
00000080: c530 34bf d2d6 8cbe ded5 aebd 0fda 6cbe
00000090: 6153 13be 5623 55be 6a02 b43c d1c8 083f
000000a0: 7eb9 98be 1480 9cbe 3c2b 213e 1677 97bd
000000b0: 28a9 8fbd f2f4 923e 258f 21bf 30ff a43e
000000c0: 072d c1be 6464 cf3c f0af ebbd 1105 e93d
000000d0: 667a 923e 5c7f 7d3d c289 4dbe 518e 7ebe
000000e0: abaa 153d bcd6 c93c bc6b fc3d 7fb8 923e
000000f0: 67c5 26bf f792 d8be 259d c13e 1fb3 633b
00000100: 50b6 5f3d abc4 95bd f32f 853e 2cbd 07be
00000110: 1026 c73e a851 fcbe f639 54bd 3a06 3dbe
00000120: fa53 2ebf 95ff cf3e b2b6 9ebe 550f dd3b
00000130: 0273 b0be ee0c ae3e e75d 44bd 7a66 803c
00000140: 0fb9 f63d 5244 1ebf 4204 b9bd 92cb 473e
00000150: 4624 07bc 20fc 79be b8e4 89bc 5974 663e
00000160: a13c 343d 4db4 373b 3bfc 69be e158 a7bc
00000170: fb3e 5dbe 25a7 0dbf 9e5c 75be fa7c 4f3e
00000180: a6d7 c23e e8c0 4abe 0447 ff3e 7935 553d
00000190: 0174 08bf e107 163e 9f87 d43b 42bc b4be
000001a0: c01d 813e d8da 353e 7cc3 1abe 87ce f5be
000001b0: 20a1 df3e 88b6 1fbe 3029 953e 0e7c 763d
000001c0: a7af 10be 5f7d 013f d9a2 c83d ecc0 083e
000001d0: bf66 733d 017b 8bbe 38b8 723d 7a1b 7c3c
000001e0: 98f0 46bf d232 2ebf 240f 5a3f 7706 d6bd
000001f0: 7c26 613d 70fc 9cbe a3b8 d53d 36d7 3bbe
00000200: 00f4 f53e 0d26 bebd 7123 023f edd9 8e3e
00000210: fa78 5ebe 6b96 2b3f ad1a 143e d8c8 423f
00000220: 455b 01bc 0017 6cbe 06df 08bf e801 093e
00000230: b16c 8fbe 4242 8ebf 547f 22be 07c3 01be
00000240: fe16 393e 1775 4cbf 2e53 ffbd 7d0d 23bd
00000250: 5a63 5c3d 4021 dd3b 18a8 e03c 287a bbbb
00000260: f4f0 78be 6210 7cbe 7feb 123e 4ebd 08bc
00000270: ec7d 833e 3e75 42be 2b4f 9fbe 7ebc 943d
00000280: fa5a b9bd eca5 a5bc 4ebc 28be e3d7 ca3c
00000290: c11d 803e 7835 8a3e 47fa d23c 388a 4a3e
000002a0: d993 903c 692a 95be 6fbe 8cbd aedc 483d
000002b0: 3e6e 6a3e c19f 9abe 6d0d 8ebd 68aa 27be
000002c0: 6f49 293e 0b36 5a3e fb8e fdbd 2792 ab3e
000002d0: 18ed 333e 5269 4d3e 98a5 083e 49d7 f5bd
000002e0: d23a bf3d cadf d4bd 1895 99bd 52e2 413e
000002f0: 233f 713e 148c 3fbe 7aae 043e fde2 93bd
00000300: 710b e6bd e153 bf3d baf5 01bd 3e8c 73be
00000310: f386 16bd ac8e 36be 28c9 5ebd e114 6d3e
00000320: dfea eebe c8ca b43c a335 403e 9608 963d
00000330: 3070 a13e b6f4 f8be 7ba2 f9bd d59f 0cbf
00000340: 46be b53e f340 0bbf 147b b63e b233 f63e
00000350: ef8b 8d3e 7c29 51be 10e4 e13e 7a8f 4b3d
00000360: 5c1e d0be b95f a0bc 3218 90be e7a8 fa3d
00000370: e78c 38bf 65a4 16bf 36c6 ddbe eac9 cdbd
00000380: 0b5b 713c 4611 c5bd 88e8 81bf 3897 71bd
00000390: 6ebb 933f af4f 94bf fe2b db3d b657 71be
000003a0: abff 35bf 2f2d 2b3e 515d 1abf 3bde 0e3d
000003b0: 05c1 0a3e fdde 90be 6134 e3be 1c7e 183e
000003c0: 8936 5c3e fa62 103e cbd0 2dbe 86ae 71bd
000003d0: c03d d03d fdae 723e 803e 6fbe 516b 9f3d
000003e0: 641b bebc 0419 883e 6d2c aabd a438 ca3e
000003f0: 2b70 d03d 40e4 c33e 13c5 48be 6122 1a3e
-0.16526194 -0.29372832 0.2078584 -0.02773361 -0.04217606 0.11340747 -0.16482073 -0.15749596
0.18952586 -0.16987236 0.3420141 0.027861496 0.068687916 0.030271428 0.07513046 0.34416878
0.049697414 0.06181559 -0.21133392 0.03228707 0.11404363 -0.33825985 -0.532298 -0.21434103
0.1531323 -0.9799016 -0.40790468 0.37821364 -0.13907674 -0.36635062 -0.094461456 -0.19955611
-0.70386916 -0.27507645 -0.08536886 -0.23130058 -0.14387275 -0.20814261 0.021973807 0.5343142
-0.2982902 -0.30566466 0.15739149 -0.07395761 -0.07014686 0.28702503 -0.63109046 0.32225943
-0.37729666 0.025316425 -0.11508167 0.113779195 0.28609008 0.061889037 -0.20072082 -0.24858977
0.036539715 0.024638526 0.12325236 0.28656384 -0.6514496 -0.42299625 0.37815204 0.0034744216
0.054617226 -0.07312902 0.26013145 -0.13255757 0.38896227 -0.4928105 -0.05181309 -0.18459406
-0.6809689 0.4062468 -0.3099876 0.0067462125 -0.34462744 0.3399424 -0.047941115 0.015673865
0.12047016 -0.61823 -0.09034015 0.1951125 -0.008248394 -0.24412584 -0.016832694 0.2250532
0.044003133 0.0028031052 -0.22850125 -0.020428123 -0.21606056 -0.5533317 -0.23961112 0.20262519
0.38055152 -0.1980015 0.49858868 0.05205295 -0.5330201 0.14651443 0.006485894 -0.3529988
0.2521801 0.17759264 -0.15113634 -0.4800913 0.43677616 -0.15596974 0.29132986 0.0601769
-0.14129506 0.50581926 0.09796686 0.13354844 0.05942416 -0.27242282 0.059257716 0.01538741
-0.77710867 -0.68046296 0.8517935 -0.10450452 0.054968342 -0.30661345 0.10435607 -0.18343815
0.4803772 -0.09284601 0.5083533 0.2790064 -0.21725836 0.67026395 0.14463301 0.76087713
-0.0078952955 -0.23055649 -0.53465307 0.13379633 -0.28012612 -1.111397 -0.15868884 -0.12672053
0.18075177 -0.79866165 -0.12467037 -0.039807785 0.053805687 0.0067483485 0.027423903 -0.0057213493
-0.24310666 -0.24615625 0.14347647 -0.008345915 0.25682008 -0.18990037 -0.31115088 0.072625145
-0.090505555 -0.02022072 -0.16478083 0.024761146 0.250227 0.26993918 0.025754107 0.19779289
0.017648624 -0.2913392 -0.0687226 0.04903858 0.22893617 -0.30200008 -0.069361545 -0.16373599
0.16531919 0.21309678 -0.12380787 0.33509943 0.17570913 0.20059708 0.13344419 -0.12003953
0.09337391 -0.10394247 -0.074991405 0.1893399 0.23559241 -0.1870578 0.12957183 -0.07221029
-0.11232651 0.093421705 -0.031728484 -0.23783967 -0.03674979 -0.17827863 -0.054391056 0.23152496
-0.46663567 0.02206935 0.18770461 0.073258564 0.31530905 -0.486242 -0.12189194 -0.54931384
0.3549673 -0.5439598 0.35640776 0.48086315 0.27645823 -0.20425981 0.4411931 0.049697377
-0.40648162 -0.019576894 -0.2814346 0.12239247 -0.7209 -0.58844596 -0.43315285 -0.10048278
0.014731179 -0.09622435 -1.0149088 -0.058982104 1.1541574 -1.1586818 0.1070175 -0.23568615
-0.71093243 0.16716455 -0.6029864 0.034879904 0.13550194 -0.28295127 -0.443759 0.14891857
0.21505179 0.14100257 -0.1697418 -0.05900433 0.10168028 0.23699565 -0.23363686 0.07784141
-0.02320642 0.26581585 -0.08309255 0.39496338 0.10177644 0.38260078 -0.19606428 0.15052177

lstm.bias_ih_l0 f4 [80]
00000000: a0f6 063e 910e e63e 2a39 07be de67 a7bd
00000010: 4ca6 753e 37f7 873e 5f41 383d ba2a 5d3e
00000020: d298 f4bd 77e0 963c b7f4 10be 7530 633e
00000030: bb1d 243e 896b d1bd 1802 fbbd 5503 b23c
00000040: 06b3 4cbd ed5a 6c3b 3e5b 5b3e ef5a 5dbd
00000050: 4529 1cbd ff8e 183b cc87 a63e 37e9 5b3e
00000060: 82d6 c4bd 0725 3abe 63ed 87bd e0f8 953d
00000070: cbd6 b23d 0ac7 233d af07 af3e c8d5 a43e
00000080: dd58 273e eccb 793e e5b9 e43d 99a3 2dbe
00000090: ba34 8a3e d995 713e cb9f 9bbd 8711 863e
000000a0: f573 4abd f4ff 1c3d 808c 1e3e ac9c 3dbd
000000b0: 1d3c 75be ae98 67be dd11 c9bc 6b91 51be
000000c0: 185e 4d3c 42b4 343d 870f 793d 4855 333e
000000d0: 90c8 21be 3486 b2bc 101e e53d 3897 3d3d
000000e0: 8052 2cbd 0576 0cbe 743d c7bd bcc6 803e
000000f0: 64cc e53d 28d6 9f3e cb78 9b3d f8b7 c43d
00000100: 2db7 673e f64a 9e3e 0c0d 103e d2b6 5d3e
00000110: d1b7 193e e0c1 fa3d bd92 293e 7953 5d3e
00000120: a570 46bd 6166 e03d 2c0e 4f3d 95af 1f3e
00000130: 6624 b73e ebce de3d 9f6f 983d cee1 1c3e
0.13180017 0.44932988 -0.132054 -0.08174108 0.23989218 0.26555797 0.044984218 0.2159833
-0.11943211 0.01841758 -0.14155851 0.22186454 0.16026966 -0.10225589 -0.12256259 0.021730104
-0.049975418 0.0036064938 0.21421525 -0.0540418 -0.038125295 0.0023278592 0.3252548 0.21475683
-0.096112266 -0.18178187 -0.06637075 0.0732286 0.08732375 0.03998474 0.3418555 0.32194352
0.16342492 0.24394196 0.11168269 -0.16956939 0.26993352 0.23592319 -0.075988375 0.26185247
-0.04942699 0.038330033 0.15483284 -0.046291992 -0.23948713 -0.22616836 -0.02454465 -0.20465629
0.012534641 0.04411722 0.060805824 0.17513001 -0.15799165 -0.021792509 0.111873746 0.04628679
-0.042070866 -0.13716896 -0.09728518 0.25151622 0.11220625 0.31218076 0.07591399 0.09605402
0.2262847 0.30916566 0.14067477 0.21651772 0.15011527 0.1224401 0.16559882 0.21613874
-0.04844727 0.10957027 0.050550625 0.15594323 0.35769957 0.1087931 0.07443165 0.15320513

lstm.bias_hh_l0 f4 [80]
00000000: 8797 443e a61c a33e e272 893d fb1f 54bd
00000010: 7f1e 603e 0a15 093e 8443 3e3e 5412 c8bc
00000020: e846 69be 5b54 4f3d db81 bdbd c072 bb3d
00000030: 60eb f8bd 6b3b 0dbe cc3a 763d 54b5 163e
00000040: 9a60 533d ee3d 133e f6c9 16be d157 59bd
00000050: 7391 1e3e 7562 f93c e415 013e adb2 bfbd
00000060: 50fd 78bc 60fa 123e 9a24 143b 64fc 683e
00000070: d52b 423e 2286 6638 50e0 0e3e 1d10 883c
00000080: 4666 883e 51d0 0c3c e247 6c3d 8986 1dbe
00000090: 371e 0c3d dca4 213e 9828 9b3e f770 1f3e
000000a0: 0c59 17be c660 1bbe 6cd6 f6bd 4b63 33be
000000b0: 0108 01be 9d09 a33c d7bc 54be 55d1 0d3e
000000c0: 0df8 c1bd 492d c3bd b18e 783c 3943 a43d
000000d0: 217b 0b3e aaf5 183e 5429 26be 9d36 733e
000000e0: 2f15 edbc 9d90 37bc de8d 4d3e cf2f 2abd
000000f0: 5799 983e 0156 813e 5746 8d3e 00e5 503e
00000100: 5bea 893e a6a6 cf3d 1698 423e c91a b63e
00000110: 22f5 343e 43af 9f3e 9b50 4b3e 56e5 ee3e
00000120: 6fd6 08bd d323 813c ff12 413e 47bd a83e
00000130: b05e ed3c b419 503e e22c 713e f1f0 68bd
0.19198428 0.31857795 0.06711365 -0.05178831 0.21886633 0.13386932 0.18580443 -0.024422802
-0.22780955 0.050617557 -0.092532836 0.09152746 -0.12154269 -0.13792197 0.060114667 0.14717609
0.0516058 0.14379093 -0.1472548 -0.053062264 0.15485172 0.030442456 0.12606007 -0.093602516
-0.015197113 0.14353323 0.0022604824 0.2275253 0.18962033 5.4961194e-05 0.13952756 0.016609246
0.26640528 0.008594588 0.05768574 -0.15383352 0.034208503 0.15785545 0.30304408 0.15570436
-0.14780062 -0.15173635 -0.120526165 -0.17518346 -0.1260071 0.019902045 -0.20775162 0.13849385
-0.0947114 -0.09530122 0.015170739 0.08020634 0.13621189 0.14937463 -0.16226703 0.23751302
-0.028940765 -0.011203912 0.2007365 -0.0415495 0.2980449 0.25260928 0.27592728 0.20399857
0.26936612 0.101392075 0.19003329 0.3556731 0.17671636 0.31188402 0.19854967 0.46659344
-0.033407625 0.015764153 0.18854903 0.32956907 0.028975815 0.20322305 0.23552278 -0.056870405

lstm.weight_ih_l0_reverse f4 [80, 20]
00000000: 7d54 fd3d 17e6 4d3c c46a 863e c63e 76be
00000010: fb6c 033d fcaa 693e c95f 9b3d b5ba 073e
00000020: 4791 48be bbe8 833e c636 733e 0716 1f3e
00000030: a055 e03e 4c56 12bd 5098 c03d 424d 96be
00000040: 9540 8ebe 1dee f33d 9a10 9f3e e173 3a3e
00000050: 50cb aabd 3cd7 233e 8eae e8bd 3c41 0dbf
00000060: 5340 683e 47a5 683e db63 713e 3072 923e
00000070: 9aba a3be 922c 03bf 770a 3fbd 292f cebd
00000080: 57a6 9cbd 60ed cbbd 4982 893c dc07 653e
00000090: f826 8cbe cf11 be3d 0bab 64bd f0f5 e0be
000000a0: 6b43 053e 3623 923d 46f6 5f3e c51e 1b3e
000000b0: 626b 0fbd 61c0 41bc 47da ffbd dd24 0f3d
000000c0: 9054 3e3e 894e 10be caaf 613e b4f3 823e
000000d0: ccdc 703e d162 063f 6bf8 7fbd 6fa3 11be
000000e0: 3a4c cf3e f261 88bd 338b 8d3d 48b8 8c3d
000000f0: ad17 683e 9aed 8c3e 6205 c9be b209 593e
00000100: 054c 4fbe 4731 3c3e bf50 cb3c 480c 8c3e
00000110: 5342 203e 5172 d5bd 84d7 813c 98ca 8cbe
00000120: 6846 3ebe 024f 4ebe 72c3 853d 8df2 19be
00000130: cb55 853d 8439 e53d 302b 5cbd 9260 c6bd
00000140: b67d 293d 4d04 f33e d9ae aa3e 1583 c33e
00000150: 7e4f aa3e 8878 94be ab7c 54be 559c dd3d
00000160: 4e96 a23d 4cd0 20bf 348d fc3d 64a8 62be
00000170: bdf9 733e ec7a 213f 240e d3bc e070 2e3e
00000180: d052 2c3e 60bc 2ebd 134a c43d c314 5d3e
00000190: f130 1b3e 4d78 8ebe aa40 a63d a428 4e3e
000001a0: e37f dfbe 74b5 61be 2293 f53d 8f59 1fbd
000001b0: f2b3 743e 42a4 8abd d7dc 4f3c 6df3 783d
000001c0: 4183 653e d0ab de3d cdb5 95be 89b3 c53d
000001d0: 1001 883e 128f 043e 84bd b5bd 1a7f e73b
000001e0: 6edd 3ebe 984c 94be 86d1 38be eedf 083f
000001f0: e13e 0e3e f307 03be 1a8a 2dbe b161 d6bd
00000200: c517 a83d 4ab5 9bbc d8aa 5ebe ba05 05be
00000210: e4d0 193e 631b 57be 6dc8 8ebe 01a8 5cbe
00000220: 98d6 6bbc 6566 c7bd ca69 503d 3036 a53e
00000230: ccba 553e f62c 00bf 57ed 93be d0b9 ae3e
00000240: 812b 81be fa6a 0e3d fb4c 47be 67f3 66be
00000250: 8055 3f3e d002 f1bd eed8 fb3d 3bb6 f6bc
00000260: 24cf 97bd 4389 b4be f55c be3d d1fb 58be
00000270: 5443 923e 638c 243e 41a1 723e 2708 223e
00000280: 8552 1dbe dac7 ae3e 9cba bc3d f84a f43c
00000290: f179 763e 2ec6 0b3e 7a05 fdbd 5be5 313c
000002a0: 1215 ffbd 2d80 a9bd cc3e 55bd b02d 223e
000002b0: 4759 b93d 1161 513e 637a 53be 92c5 c23c
000002c0: dd4a a13c 43c9 3f3e 3ed7 f63e 0fdf 44ba
000002d0: c992 cebb 2265 85be a1e5 28be a6cd 66bd
000002e0: f415 fd3d e2d4 24bd 8a12 bebd 15ba 4c3d
000002f0: 6e7c 9dbd e648 23bd 193b d3bd 6dbe f8bc
00000300: d169 b0bd 0e51 dcbd 8900 7dbe 09a0 363e
00000310: 1aff 9abd 7bb0 113b be25 943e 6bf7 013e
00000320: 831e 4f3e a765 d2bd 746d 323d 43b0 78be
00000330: 848c eabb acfc 343e a9b3 57be e88b 12be
00000340: 3a19 323d 7044 1bbe e6be 773d 2240 f0bd
00000350: 62b8 dbbd 1dcc fcbd fe58 2c3e 32a4 0abe
00000360: 0094 75bb 2a36 0e3d 67c9 5b3d 0124 2abe
00000370: c450 123e b7ee a0be 7bdf 9cbe 146b dc3e
00000380: 70b3 823d c7cd 553d 8e93 ebbc 8061 36bd
00000390: 7446 b6bc 21f7 82bd 51c8 3cbd b677 96be
000003a0: 81c5 91be 0938 8fbe e7c4 903a 295b a2bd
000003b0: ced2 9cbd 779b 553e d9b9 773d bed9 9f3e
000003c0: c6e1 6c3e 763a 07be d050 b53d b2ad 8fbd
000003d0: faac 8cbe 87d3 5bbe f7cf e4bd a59c 52be
000003e0: e532 93bd 5284 41be e9d5 3c3e b262 3e3e
000003f0: 711a 9d3d c942 c4bd 1311 be3c 0169 623e
0.123696305 0.012567065 0.2625333 -0.24047384 0.032086354 0.22819132 0.07586629 0.13254817
-0.19586669 0.25763497 0.23751363 0.15535747 0.43815327 -0.03572683 0.09404051 -0.29355818
-0.27783647 0.11910651 0.31067353 0.18208267 -0.0833956 0.16000074 -0.11361419 -0.55177665
0.22680788 0.22719298 0.23573248 0.28602743 -0.31978303 -0.51239884 -0.04664084 -0.10067589
-0.07648914 -0.09957385 0.016785758 0.2236628 -0.2737348 0.092807405 -0.05582718 -0.43937635
0.13013999 0.07135622 0.2187129 0.15148456 -0.035014518 -0.011825652 -0.12492805 0.034947265
0.18586946 -0.14092459 0.22039714 0.25576556 0.23521727 0.5249453 -0.06249277 -0.14222501
0.40487844 -0.066593066 0.06911316 0.06871086 0.22665282 0.27525026 -0.3926192 0.21195105
-0.20243843 0.18378173 0.024818776 0.2735312 0.156503 -0.10422195 0.015849836 -0.27498317
-0.18581545 -0.20147327 0.06531419 -0.15033932 0.06510504 0.11192611 -0.053752124 -0.09686388
0.041379653 0.4746422 0.33336523 0.38185945 0.33263773 -0.28998208 -0.20750682 0.108208336
0.079388246 -0.62817836 0.1233162 -0.22134548 0.23825736 0.6307819 -0.025763579 0.17035246
0.16828465 -0.042660117 0.09584441 0.21589951 0.15155388 -0.27826157 0.081178024 0.2013269
-0.43652257 -0.22041875 0.11990954 -0.03890377 0.23896769 -0.06769611 0.01268693 0.060779024
0.2241335 0.108726144 -0.29240265 0.09653384 0.2656331 0.12945202 -0.08874038 0.0070647122
-0.18639156 -0.28964686 -0.18048677 0.5346669 0.13891174 -0.12796001 -0.16947213 -0.10467852
0.08207659 -0.019007344 -0.21744859 -0.12990466 0.15021092 -0.21006541 -0.27887288 -0.21548463
-0.014394425 -0.09736327 0.05088214 0.32267904 0.20872039 -0.50068605 -0.28892013 0.3412614
-0.25228503 0.03476999 -0.1946296 -0.22553788 0.1868496 -0.117681146 0.122972354 -0.030116191
-0.07412556 -0.35260972 0.09295074 -0.2118981 0.28566992 0.16069178 0.23694326 0.15823422
-0.1536351 0.3413685 0.092152804 0.029820904 0.24069954 0.13649818 -0.1235456 0.010857905
-0.12455191 -0.08276401 -0.05206184 0.15837741 0.090502314 0.20447184 -0.20652156 0.02377585
0.019689018 0.18729119 0.48211092 -0.0007510045 -0.0063041192 -0.2605372 -0.16493846 -0.056348465
0.12357703 -0.040242083 -0.0928088 0.04998215 -0.07689749 -0.039864443 -0.10314006 -0.03036424
-0.08613933 -0.107576475 -0.24707235 0.17834486 -0.07568188 0.0022230435 0.28935045 0.12692039
0.20226483 -0.10273295 0.043561414 -0.24285989 -0.007157864 0.17674512 -0.21064629 -0.14311182
0.04348109 -0.15162826 0.06048479 -0.11730982 -0.107285276 -0.12343619 0.16830823 -0.13539198
-0.0037472248 0.034719624 0.05365887 -0.16615297 0.14288622 -0.31432125 -0.30639252 0.43050444
0.06381881 0.052198198 -0.028756883 -0.044526577 -0.022250392 -0.06394792 -0.046089474 -0.29388207
-0.28470996 -0.2797244 0.001104501 -0.07927544 -0.07657395 0.20860086 0.060479973 0.31220812
0.23133 -0.13205895 0.088533044 -0.070155516 -0.2747572 -0.2146741 -0.11172479 -0.20567568
-0.07187442 -0.18898132 0.18440975 0.18592337 0.07671059 -0.09583051 0.023201501 0.22110368

lstm.weight_hh_l0_reverse f4 [80, 20]
00000000: 1b0f 8a3e 2875 e6bd 1600 c2bd 9e61 c6be
00000010: af91 5bbd d258 1c3c e281 b83e 6d8c e33d
00000020: 072b f7bb 94a7 16be c693 e93d bf75 373e
00000030: ff64 36be f6fe cebd c28d 6f3e 6797 b03f
00000040: f2ed 28bf 5c0a c43e 664c a2be 8a0c 943e
00000050: 5ff8 933d 15ea 9b3e d2ad 2ebe e1b9 9c3e
00000060: f69a 5cbc b0da bc3d 1def 6f3c c15b d43c
00000070: 9e0e 163d 101d 18bd 4c65 80be 208f 183e
00000080: 5295 933c f5d5 09be cb50 ed3d 6315 aabe
00000090: 79e4 31be 1736 27be 697f 22be 63ce f3bd
000000a0: 16a7 0dbf 8f1c 51bd f285 4fbe f4ab 083e
000000b0: d057 d2bc 6ace 6abe 6082 8f3d 7ec0 0bbe
000000c0: d150 e2bd 0913 233e 86e4 2c3e 32ba 8a3b
000000d0: 314f 3f3c 14f0 663e 6285 ab3e 8747 683e
000000e0: 626f 873d 2f49 4f3d c03e a8bc 24c2 54be
000000f0: 30d5 b13c 8c51 553d 34ee ae3e 8d58 92bc
00000100: 9946 323b 452b c23d f87a 813c 4419 623e
00000110: 79bc 933e c1e3 a43e 9ae6 6dbd 16f0 85bc
00000120: 9141 98bd a20b 8bbe 2d6d 253d 835f d43d
00000130: 2fd2 89be f389 6abe 8c0f 48be 8c97 8abc
00000140: 7584 c2be 5a0c a03d 35a1 95bd f43b 01be
00000150: 7819 833c 8022 35be cf84 62bd 6a0c 0e3e
00000160: 1894 d93e 0064 b43c 4876 a33e 50a7 493e
00000170: f112 9abe 4ac0 013d 8fb8 6fbd 28a7 a23d
00000180: 6d2a 0f3f 3a84 9a3e 7278 03be 1b42 cc3e
00000190: 6f6c 89be 9706 97be e501 60be 75ef 81be
000001a0: e863 abbe e488 833d fbec 2fbe 4947 f6bd
000001b0: e86a 5abe 99b0 443c 60b1 27bd db9f d9bd
000001c0: 5a2e 6c3e 81a5 933e e92c 8ebd 4921 4c3e
000001d0: e3b1 07be ec4f ecbd a484 a63e e5a1 bb3e
000001e0: b04f 5b3d aebd 91bb 330c f63d ed9f ac3e
000001f0: 4e00 09bd 7001 bc3d 58c9 183e 13d2 863d
00000200: 79d0 05be 51ee 4c3e a41e 34be 0c1d 99bc
00000210: 8cf0 93be a354 d03d f3b1 debc 21ed 37bd
00000220: a72a 2f3e ed3e f43d 3ef1 d5bd 9304 913d
00000230: b18e bfbc fd98 9bbd 2c50 36be ff55 843d
00000240: 011c 3bbe b66b 3cbe 727d e8bb 594c 4c3e
00000250: d0fa 163f b0b7 2c3e 6722 893d 3108 cabd
00000260: e9c7 1d3e 9594 02be 0c84 203e 5eb0 033f
00000270: ab17 f53e 1cea 18be 12d1 a1bd 0b79 0d3e
00000280: 6f07 6cbf b6b9 be3e ef7e 00be 9edf a93d
00000290: b42f 06bf 5555 d53d 2e9f 393f 5d13 0b3e
000002a0: 7ce8 8dbe efe5 c03e 0dd5 eabd d64e fa3e
000002b0: 9bc6 3d3e 305f 7bbd 49f8 2c3e fe72 a2bc
000002c0: 90dd 06bf 058d c1bd 80b9 bebd c5d1 9dbd
000002d0: defe b0be 4f43 d7bd c69d ad3e 7bd3 d53b
000002e0: 548f aebe d1ee 9bbd 9be1 56be 4c6c 023e
000002f0: ef0c 77be c30b 2f3e c7ff 8abe 3428 343e
00000300: 8e1c f4bd 6db4 54be d48b 04bd ccc7 373e
00000310: dc61 063d 16ca 4cbe 397b 8ebe 3154 b3be
00000320: 528e dfbe abbb 653f b290 ce3e cc48 aebc
00000330: 5063 b33d f627 d7be 9805 623e a255 043f
00000340: 03c1 a43e 1852 eb3e c08b 1fbe fef7 f63e
00000350: 57b1 373e 42ee 1dbc 743f 093f 97e4 28be
00000360: 8699 bebc 378c 953e 8172 a3be d1bf 05bf
00000370: 60a4 023f 5446 183e 7085 1dbe cfb2 073d
00000380: c07c a2be 90bf 21bd 89a5 2a3e 0b38 333e
00000390: 6992 5f3d 3a12 ddbc 20dd 0b3e cf1f 8ebd
000003a0: bfdb b73e 3f71 263e 37f2 223e d756 0dbe
000003b0: f5dd 93bb e0f6 543d 7ebb 6e3c 9803 a1be
000003c0: a3b4 5fbf 5faf 993e a946 e8be ad84 c1bc
000003d0: 5042 bc3d b72d efbb 2b73 88bd 7f90 843e
000003e0: 6196 f23e 3e26 23be d489 c43e 92b2 663e
000003f0: 80fa d43e 26c7 7cbb fdb7 02be 27a9 8abe
0.2696465 -0.112528145 -0.09472673 -0.3874635 -0.05360573 0.009542661 0.36036593 0.111107685
-0.007542971 -0.14712363 0.11405139 0.1791601 -0.17811964 -0.10107224 0.2339392 1.3796204
-0.65988076 0.38289154 -0.31698912 0.28915817 0.072251074 0.30452028 -0.17058495 0.30610564
-0.01346468 0.09221399 0.014644411 0.025922658 0.036635034 -0.03713709 -0.25077283 0.14898348
0.018015537 -0.13460524 0.11587676 -0.33219442 -0.17372312 -0.16329227 -0.15868916 -0.119045995
-0.5533308 -0.051052626 -0.2026594 0.13346845 -0.025676638 -0.22930303 0.07007289 -0.13647649
-0.11050571 0.1592523 0.1688405 0.004233622 0.011676596 0.2255252 0.335002 0.22683536
0.066130415 0.050606903 -0.020537734 -0.20777184 0.021708101 0.052079722 0.3416611 -0.01786449
0.0027202724 0.09480909 0.015805706 0.2207995 0.2885473 0.32205012 -0.058081247 -0.016349833
-0.07434381 -0.27157313 0.04038732 0.1036978 -0.2691817 -0.22904186 -0.1953718 -0.016917966
-0.37991682 0.07814856 -0.073061384 -0.12620527 0.016003355 -0.17688942 -0.055302437 0.13871923
0.424958 0.02202034 0.3192618 0.19692731 -0.30092576 0.03167752 -0.05852562 0.07942039
0.5592411 0.30179006 -0.12838915 0.39894184 -0.2684054 -0.29497215 -0.21875723 -0.25378004
-0.3347466 0.06422594 -0.17180245 -0.12025315 -0.21329844 0.012004995 -0.040940642 -0.10626193
0.23064557 0.28837207 -0.0694216 0.19934572 -0.13251452 -0.115386814 0.32523072 0.36646953
0.053542793 -0.0044476604 0.120140456 0.33715764 -0.033447556 0.09179962 0.14920557 0.06583037
-0.13067807 0.20012785 -0.17589813 -0.018690608 -0.2889446 0.10172393 -0.027184462 -0.044903878
0.17106114 0.11926065 -0.10446404 0.070809506 -0.02338347 -0.075975396 -0.1780402 0.06461715
-0.18272401 -0.18400463 -0.0070950324 0.19951 0.5897646 0.16866946 0.06696015 -0.09864844
0.15408291 -0.12751992 0.15675372 0.5144099 0.4786962 -0.14933056 -0.07901205 0.13815705
-0.9219884 0.3725106 -0.12548421 0.08294605 -0.5241654 0.104166664 0.72508514 0.13581605
-0.27716434 0.37675425 -0.114664175 0.48888272 0.18532793 -0.061370075 0.16891588 -0.019830223
-0.5268183 -0.094507255 -0.09312725 -0.07706026 -0.34569448 -0.10510885 0.33909434 0.0065254546
-0.34093726 -0.0761391 -0.20984499 0.12736624 -0.24126028 0.1709433 -0.27148268 0.17593461
-0.11919509 -0.20771952 -0.032359913 0.1794731 0.03280817 -0.19998965 -0.27828386 -0.3502517
-0.4366327 0.89739484 0.4034477 -0.021274947 0.08759177 -0.42022675 0.22072446 0.51693165
0.32178506 0.4596107 -0.15580654 0.48236078 0.17938744 -0.009639325 0.53612447 -0.1649345
-0.023266565 0.29208538 -0.31923297 -0.52245814 0.51032066 0.14870578 -0.15382934 0.03312951
-0.31735802 -0.03948933 0.16664709 0.17501847 0.054582987 -0.02698623 0.13658571 -0.06939661
0.3590984 0.16254137 0.1591271 -0.13802658 -0.0045125433 0.05199325 0.014571069 -0.31448054
-0.87385005 0.3001661 -0.4536641 -0.023622835 0.091923356 -0.007299151 -0.066625915 0.25891492
0.47380355 -0.15932557 0.38386405 0.22529057 0.41597366 -0.003857085 -0.12765498 -0.27082178

lstm.bias_ih_l0_reverse f4 [80]
00000000: 6bc2 85bd 67d9 ab3d afe2 8f3d f44d 2dbc
00000010: 8749 0cbe f24d 433d d3a2 c0bd 4ba7 c73c
00000020: 7e1e 893e ec48 513e a0fa 823c 2b8e 163e
00000030: dc4e 343e 66a9 2bbe 2702 b53e 915b 233e
00000040: 1078 803e 526c 033e 7b11 25be da8f 803e
00000050: f45f 14bd 76c3 5a3e f375 d3bd 7020 3fbd
00000060: 8e8b 473e 138d 523e a652 163e ad6f d2bd
00000070: 3be0 9abd 1d6e 46bd e86c 96ba 0fb9 b43d
00000080: 1ab0 93bd df09 863e 0d34 303e d99e a53c
00000090: c1cb 11be 99cd f53d 5ae7 713e f4ce d3b9
000000a0: cee7 4ebb 5f6c 083d 8074 983d 705f 4fbe
000000b0: e21a dcbc 227a 8e3d 9c81 b3bd 1301 34be
000000c0: 3de7 4b3d 57ee 9dbd 603a 54bd 5402 503e
000000d0: dce3 413b a43e d53c fecf 293e 2e65 863e
000000e0: a627 883d af79 223e 9f46 2bbe 94e9 18be
000000f0: ba52 b83e aba2 87bd 1965 9f3c 19db 0f3e
00000100: 63ca bebd 93df 7d3e 03fc 153c 1d0d 7ebc
00000110: 8abd 303e 8adc 38be dc6e 85bd a8d7 29bd
00000120: 31cb 483e 6df8 d43d 7d5e a4bc 2d6f 883e
00000130: 7d7b 8c3e e476 d43d b37f b63c fa4d cb3d
-0.06531223 0.083910756 0.07025658 -0.0105776675 -0.13699923 0.047681756 -0.09406056 0.024371764
0.26781076 0.20437974 0.015988648 0.1470267 0.17608207 -0.16763839 0.35353205 0.15952899
0.250916 0.1283429 -0.1611995 0.2510975 -0.03622432 0.21363625 -0.103252314 -0.046661794
0.1948683 0.20561628 0.14679965 -0.10275207 -0.075623 -0.048444856 -0.0011476548 0.088243596
-0.07211323 0.26179406 0.17207356 0.020217346 -0.14237882 0.12002105 0.2362341 -0.00040399248
-0.0031571272 0.033306476 0.074440956 -0.2025125 -0.026868287 0.06956889 -0.087649554 -0.17578535
0.049781073 -0.07711475 -0.051813483 0.20313388 0.0029585278 0.026030846 0.16583249 0.2624907
0.06648187 0.15866731 -0.16726159 -0.14932853 0.36000615 -0.06622823 0.019457387 0.14048423
-0.09315946 0.24792318 0.009154323 -0.015506056 0.17259803 -0.18052879 -0.065152854 -0.04146543
0.19608761 0.10398946 -0.020064587 0.2664732 0.27437964 0.10374239 0.022277689 0.09926982

lstm.bias_hh_l0_reverse f4 [80]
00000000: 8de7 f43d a9e2 1b3e 19ab 533e 40d5 a13b
00000010: 9fca d9bd c0f3 0cbe 9f1d 7abe d2ac d93d
00000020: e35e 323d ba9c 49be 4a74 a53d 4cb1 dcbd
00000030: 022d 8a3e 0d2a 3bbe 771e 333e ca9d 8b3e
00000040: 4ec2 c03c d606 653e 2e3d 6e3d a99c 8ebd
00000050: b450 0b3e e795 0dbd 11ff aabd bf16 833e
00000060: 5746 d9bd aef0 67bd 8b08 a93e 7be3 c53c
00000070: a49e 103e bd44 783d f7aa 7abd fccd 2abe
00000080: 42b4 163e 886e 7ebd 4143 c53c f201 5b3e
00000090: 9e89 8f3d 473b d43b 7698 c93d c555 1abe
000000a0: b940 013e 878a 1a3e 0f24 ec3b cf18 d63d
000000b0: 8f4b 8dbe e726 bdbd ae71 213d d578 67bd
000000c0: 667e 5d3e bcf3 6c3e 2efc 123e 8b42 4f3e
000000d0: 0a3f ff3d 2143 423e 8ee0 6a3e bb93 6c3e
000000e0: 9083 2cbe 5ee7 723e 1d0c 5fbe 2325 073d
000000f0: 62b1 43bd e348 62bc f947 34bc fc04 b0bd
00000100: a667 653e cf8c 993e e448 623e 34b8 a03d
00000110: ed13 573d 803d bb3d b4e4 0c3e 3a89 663e
00000120: bc38 4d3e 19ee f73c 324f 1fbd 57ab b13e
00000130: 31d6 2cbd bd17 ff3d 4085 09be 10c7 1cbc
0.11958227 0.15223183 0.20670737 0.0049387515 -0.1063435 -0.13764858 -0.24425362 0.10628666
0.043547522 -0.19688693 0.08078821 -0.10776004 0.26987463 -0.1827776 0.1749209 0.2726882
0.023530152 0.22365889 0.058163814 -0.06963474 0.13605005 -0.034566786 -0.08349431 0.2560329
-0.106091194 -0.056626014 0.3301433 0.024156323 0.14123017 0.06061243 -0.0611982 -0.1668014
0.147172 -0.06211713 0.02407992 0.21387461 0.0700867 0.006476793 0.09843533 -0.15071781
0.12622346 0.15091906 0.007206447 0.104539506 -0.2759671 -0.09235936 0.039415054 -0.05651172
0.21630248 0.23139852 0.14354011 0.20240228 0.124631956 0.1897092 0.22937223 0.2310323
-0.16847062 0.23721072 -0.21781965 0.0329944 -0.047776587 -0.013811323 -0.011003488 -0.08594701
0.2240282 0.2999024 0.22098118 0.07847634 0.052509237 0.091425896 0.13759118 0.22513285
0.20041174 0.030264901 -0.038893886 0.34701034 -0.042196456 0.124556996 -0.13429737 -0.009568945

lstm.weight_ih_l1 f4 [80, 40]
00000000: 678a 7ebd 1927 a0bd 92c8 22be af8a 25be
00000010: 7b6c 3cbe 0cd4 a13e a4df a83e 49b6 e9be
00000020: 728e ce3c 30f1 633e 096a 173e aeda a13c
00000030: fd4a 503d b7ca c23e f9eb b73d 0929 17be
00000040: 9754 373e dbb4 1c3d d91e 6a3e 340f 863d
00000050: 1826 56bd 595e 443e 4e8d 02be 8659 5abd
00000060: 65e9 0a3c a4fa 8ebd 79ea afbc eb28 3cbe
00000070: 1ac7 e3be 7b52 39be 0772 d4bd 8e1c 003e
00000080: 291b 84bd d138 1bbd 9eb4 6ebc c83d a83d
00000090: 4632 4fbe 308e b23e 6e95 8abd 9f02 2e3e
000000a0: 7abd 813e 55f6 14bf 696f 0bbd 9c7c efbd
000000b0: f4c4 28bd 00ee ba3e 8ef1 d83e 3744 333e
000000c0: 6074 8f3e 0fcc 743e cb49 053e 2657 b53e
000000d0: 5636 8cbd a4f5 31bf 8faa 923e 11a9 12bf
000000e0: 598b 4abe 43dd b13d 43ed 223f d8f3 173e
000000f0: a37c 8e3e 4089 cdbc ef9a b03d c482 b13e
00000100: d691 f73c a1ad babc 89ea a63d 6c0b 903d
00000110: fb9d c53e 9d59 f83c 8fe6 9abd e783 073e
00000120: 3ef6 2b3e a3c3 853d 8a82 f13c df8e 573e
00000130: 4126 ae3e 9174 c2bd d892 6b3e a752 ef3d
00000140: 5999 18bd 37ad 30bf e17c bbbd 7642 9abd
00000150: 5b16 7b3c fe1a b63d 9350 ccbe 26b8 083e
00000160: 7982 cbbb d5e9 033e 6f32 4dbe 1cf3 153e
00000170: b331 df3c 860f 8d3d 9d51 2dbe 48d5 983d
00000180: 6d0d 33be e52c 81be db0a 0c3e 6b95 733d
00000190: c059 ac3d 3d1d 0b3e 9e6d 82bd ddd8 c7bd
000001a0: ff8c 3fbe 950c 143f 57dc 09be 3e99 3ebc
000001b0: 4fb8 0d3e ede2 5b3e 0ed3 a2bd f10a 813d
000001c0: d0da 34be d996 ecbd a925 19be 2cbc f43d
000001d0: f689 983e 23e9 9c3d 85d6 0cbe 4ad0 043e
000001e0: 1933 363e b9ca 2ebe 2116 673d 4a5e 3fbe
000001f0: d536 6e3d 3aaa 153d 15ed b73e 0912 06be
00000200: 1992 663c 1358 4e3e 5149 053e ec45 a13d
00000210: 40b9 2bbd 9a95 01bd e507 9abe 509c 06be
00000220: acc5 4cbd 2165 1dbe 7342 2b3e 5132 68be
00000230: db90 b6bd fd6f 05be 8ab2 10be 0914 b93c
00000240: 957f 753e a7b2 4e3e 0a31 16be 271c 3bbe
00000250: c286 293e e2d2 da3d 035d 42be 304f 28bd
00000260: d72b 803e 3204 65be 94f2 093d 7d83 87bd
00000270: 15fb 1a3e f041 4b3e 02d7 0d3d 7df7 333e
00000280: 30b5 85be cbaf ca3c ef4c 80bd 7473 563e
00000290: b7ea b93d c627 f4be f493 62be cf6f 08be
000002a0: 2835 773c 8bc5 ccbd 502d 1dbc 6d56 ab3d
000002b0: f69f 9e3d 03fa a9be 05d7 f23c f6bb 19be
000002c0: 43c4 3fbe dbe3 8cbd 9b33 96be 51c3 853e
000002d0: a4b2 3fbe 4599 3abe b32a 15be ec1a 67be
000002e0: 8948 473d 3b29 833d d23e fd3d 879b aabd
000002f0: dbe4 953e 8b2b bd3c c0b9 58be e471 a8bd
00000300: f141 b93b 27ba 5bbd ce99 42bd b9ec 82bd
00000310: 89aa 21be 718e 303e ccff 3ebe 532f 983e
00000320: 24ea 37be 6722 35be 0578 0e3d ba8d ce3d
00000330: b8ba 11be 0f3c 783d 2f2f 55be 38d8 edbd
00000340: ae40 413e b162 323e 0404 37bd 530e 29be
00000350: beb0 18be d372 88bc 222a 263e 50af cd3e
00000360: a96c 28be 5ad1 0ebe a7ac bcbe 68f0 7a3e
00000370: 1634 b3bc e352 7bbe a2a2 b53e 1d28 923e
00000380: 472c 8a3e 7405 8fbe 4629 04be fc89 103b
00000390: b038 133f 647d 8b3e 9268 ff3d 6c9f 6ebd
000003a0: f707 9abd f760 7a3d d3a6 75bb 9455 4dbe
000003b0: d5da cebd 7901 e23d ec7c 4ebc 766e 913e
000003c0: cf2e 4abe 82f6 46be c6f1 5bbd 26d9 b53e
000003d0: d8e5 4abd 4f6a a4bd c6ce 24be f1aa 213e
000003e0: 46b1 dfbe 3ce3 023c 76e7 b8bd 218c dbbd
000003f0: a30e 6e3e f837 fdbe f7bc 023e 8861 a33d
-0.06214371 -0.07819957 -0.15896824 -0.16166185 -0.18400757 0.3160709 0.32983124 -0.45646885
0.025214408 0.22259974 0.14786543 0.019757595 0.050852764 0.38045284 0.08980555 -0.14761747
0.17903362 0.038258415 0.2286333 0.065458685 -0.052282423 0.19176616 -0.12749216 -0.053308032
0.008478497 -0.069814 -0.02147411 -0.18374984 -0.4448784 -0.1809787 -0.103733115 0.12510893
-0.06450493 -0.03789598 -0.01456943 0.08214909 -0.20234022 0.34874105 -0.06766783 0.16993187
0.25339872 -0.5818837 -0.034041796 -0.11693689 -0.041203454 0.36509705 0.42371792 0.1750649
0.28018475 0.23905967 0.13016431 0.3541805 -0.06846301 -0.6951544 0.2864575 -0.57289225
-0.1977972 0.086847804 0.6364328 0.14839113 0.27829465 -0.02508986 0.08623301 0.3467008
0.030220907 -0.02278787 0.08150203 0.070334285 0.38597092 0.030316168 -0.07563507 0.1323391
0.16793153 0.06531455 0.029481191 0.21050595 0.3401356 -0.094948895 0.23005235 0.116856866
-0.03725562 -0.69014305 -0.09154678 -0.07532208 0.015325154 0.08891867 -0.39905223 0.13351497
-0.006210622 0.12882169 -0.2003877 0.1464352 0.027245378 0.068877265 -0.16925664 0.07462555
-0.1748559 -0.25229564 0.13676016 0.059468668 0.08415556 0.13585372 -0.06368564 -0.0975816
-0.1870613 0.578317 -0.13462959 -0.0116332155 0.1383984 0.21473284 -0.07950412 0.06300915
-0.17661595 -0.115522094 -0.14955772 0.119499534 0.29792756 0.07661655 -0.13753708 0.12970081
0.1779293 -0.1706952 0.05641759 -0.18688312 0.05815776 0.036539294 0.35923067 -0.13092817
0.014072918 0.20150785 0.13016249 0.07874665 -0.041924715 -0.03163681 -0.30084148 -0.13145566
-0.049993202 -0.15370609 0.16724567 -0.22675444 -0.08914348 -0.13031001 -0.14130607 0.022592561
0.2397445 0.20185338 -0.14667144 -0.18272458 0.16555312 0.10684754 -0.18980794 -0.041091144
0.25033447 -0.22364882 0.033678606 -0.06616876 0.15134843 0.19849372 0.034628876 0.17574878
-0.26114798 0.024742028 -0.06264674 0.2094248 0.090779714 -0.47686595 -0.22126752 -0.13323902
0.015088357 -0.09998616 -0.009593323 0.08366094 0.07745354 -0.33198556 0.029643545 -0.15013108
-0.18727212 -0.068793975 -0.29336247 0.26125577 -0.1872049 -0.1822253 -0.1456707 -0.22568864
0.04865316 0.064043485 0.12365498 -0.08330446 0.29276165 0.023092052 -0.21164608 -0.08224848
0.005653613 -0.053644326 -0.04750996 -0.063928075 -0.1578771 0.17241837 -0.18652266 0.29723606
-0.17960411 -0.17688905 0.03478243 0.10085626 -0.14231384 0.06060415 -0.2081878 -0.11613506
0.1887233 0.1742046 -0.044681564 -0.1650937 -0.14911172 -0.016656315 0.1622701 0.40172815
-0.164477 -0.13947049 -0.36850473 0.2450577 -0.021875422 -0.24543338 0.3547564 0.2854623
0.26986906 -0.27933848 -0.1290637 0.0022054901 0.57508373 0.27244103 0.12471117 -0.058257505
-0.075210504 0.06112763 -0.0037483468 -0.20052177 -0.10100333 0.11035437 -0.012603026 0.28404588
-0.19744419 -0.19429973 -0.05369737 0.35517234 -0.049535602 -0.08028089 -0.16094503 0.15787865
-0.43689936 0.007988747 -0.09028523 -0.10720087 0.23247771 -0.49456763 0.12767397 0.07977587
