data/embD/hoc4/model_5/hoc4_best.pt (torch, 341645 bytes, 87 tensors)

embedding.weight f4 [6, 20]
0	0x00000000	0.0
1	0x00000000	0.0
2	0x00000000	0.0
3	0x00000000	0.0
4	0x00000000	0.0
5	0x00000000	0.0
6	0x00000000	0.0
7	0x00000000	0.0
8	0x00000000	0.0
9	0x00000000	0.0
10	0x00000000	0.0
11	0x00000000	0.0
12	0x00000000	0.0
13	0x00000000	0.0
14	0x00000000	0.0
15	0x00000000	0.0
16	0x00000000	0.0
17	0x00000000	0.0
18	0x00000000	0.0
19	0x00000000	0.0
20	0xbf59aa4a	-0.85025465
21	0x3f507363	0.81426066
22	0xbfe9e4ee	-1.8272989
23	0x3f6b0da7	0.91817707
24	0xbd09abed	-0.033611227
25	0x3f632835	0.88733226
26	0xbfaeccd1	-1.3656255
27	0xbe5a9da6	-0.213492
28	0x3ec03fb1	0.37548593
29	0x3c8874dd	0.016657287
30	0x3e01daed	0.1268117
31	0xbe3c2487	-0.18373309
32	0x3f62a455	0.88532
33	0xbf49f0c4	-0.78883004
34	0xbee26641	-0.4421864
35	0xbf6e9b75	-0.9320596
36	0xbe2ba594	-0.16762382
37	0xbeb96513	-0.36209926
38	0x3fc1b534	1.5133424
39	0xbf10335a	-0.56328356
40	0x3f675328	0.9036126
41	0xc005c6a9	-2.0902503
42	0x3ec0e775	0.37676588
43	0xbed07fcf	-0.4072251
44	0xbf0a92f0	-0.5413046
45	0xbf1adaf5	-0.6049035
46	0xbe041ae7	-0.12900887
47	0xc02d490f	-2.7075841
48	0x3f885264	1.0650144
49	0xbe891e93	-0.2678114
50	0xbfd5fa6e	-1.671705
51	0xbf8a4f7a	-1.0805504
52	0x3df85040	0.121246815
53	0xbffedf18	-1.9911833
54	0x3f9deb64	1.233746
55	0xbf742f20	-0.9538441
56	0xbfc8ba5c	-1.5681872
57	0x3f92f148	1.1479883
58	0x3f9a1698	1.2038145
59	0x3feecd7a	1.8656456
60	0xbc0079f3	-0.007841575
61	0xbe522608	-0.2052232
62	0x3ed74533	0.42044982
63	0xbed48039	-0.41504076
64	0xbfbe7130	-1.4878292
65	0x3f9227b3	1.1418365
66	0xbf4e9e2e	-0.80710113
67	0xbf210834	-0.6290314
68	0xbf20cf73	-0.6281654
69	0x3e830d61	0.25596145
70	0xc009f129	-2.1553442
71	0xbe6ed7c7	-0.233245
72	0x3ddf38a9	0.10899479
73	0xbdae6fab	-0.08517393
74	0xbf457682	-0.77133954
75	0x3f23f7d0	0.64050007
76	0xbecfd08d	-0.405888
77	0x3fdab882	1.7087557
78	0x3ff0ca3c	1.8811717
79	0x3f0fdc03	0.56195086
80	0xc002d071	-2.0439723
81	0xbf490bda	-0.7853371
82	0xbe512528	-0.2042433
83	0xbe9cc91c	-0.30622184
84	0x3ebb102e	0.36535782
85	0x3ec0f7e3	0.37689123
86	0xbf0e8edb	-0.5568673
87	0xbf0011dd	-0.5002726
88	0xbdb5de97	-0.08880346
89	0x3e9b6a86	0.30354708
90	0xbfc9820e	-1.5742815
91	0xbef9d0f3	-0.48792228
92	0xbc5f13d1	-0.013615564
93	0xbf7f87ed	-0.9981678
94	0x3ee4266b	0.4456056
95	0x3fa636ff	1.2985533
96	0xbf196b58	-0.5992942
97	0x3f52950c	0.8225868
98	0xbf521949	-0.8206983
99	0xbf15485b	-0.5831353
100	0x3fafd4c4	1.3736806
101	0xbf2300bc	-0.63672996
102	0x3f657cc3	0.89643496
103	0xbf36402d	-0.71191674
104	0xbf0b2638	-0.5435519
105	0x3eca4fca	0.39514
106	0xbef3321a	-0.47499162
107	0x3f32d6b3	0.69858855
108	0xbf5d4417	-0.8643202
109	0xbf3fc033	-0.7490265
110	0x3eb79b77	0.35860798
111	0x3f9e250f	1.2355059
112	0x3e028418	0.12745702
113	0x3f8e4c62	1.111706
114	0xbedecd71	-0.43516114
115	0xbe141feb	-0.144653
116	0xbf440793	-0.7657406
117	0xbfa10a6e	-1.2581308
118	0x3fb87ba3	1.4412731
119	0xbeeb08b4	-0.45905077

lstm.weight_ih_l0 f4 [80, 20]
0	0xbe26fa13	-0.16306333
1	0xbe1765aa	-0.14784876
2	0x3e02dd6c	0.12779778
3	0x3c38331c	0.011242654
4	0xbdb22a52	-0.08699478
5	0xbe57564c	-0.21029013
6	0xb8f6ac36	-0.00011762271
7	0xbe33263e	-0.17495057
8	0x3e4f5ca7	0.20250188
9	0xbe6a7b9d	-0.22898717
10	0x3d93b84d	0.07212887
11	0xbe140534	-0.1445511
12	0x3cd1c3e9	0.025606113
13	0xbde7d83f	-0.113205425
14	0x3e4b004b	0.1982433
15	0x3db0a0de	0.08624433
16	0x3e1684c2	0.1469908
17	0xbe82f367	-0.25576326
18	0x3d75db19	0.0600234
19	0x3dbed8ff	0.093187325
20	0x3e2aeba6	0.16691455
21	0xbdcbd4b8	-0.09952682
22	0xbd7166f7	-0.058936086
23	0x3e402077	0.18762384
24	0xbd6f3578	-0.0584006
25	0xbd08b74e	-0.033377938
26	0xbe3b5111	-0.18292643
27	0xbe42be94	-0.19018012
28	0x3c348635	0.011018326
29	0xbe5d6138	-0.21619117
30	0xbe063259	-0.13105144
31	0xbdc8f2d8	-0.09811944
32	0xbd38ae41	-0.045088056
33	0xbe10fb69	-0.14158405
34	0x3e40974f	0.1880772
35	0x3d92a2be	0.07159947
36	0xbe200fd6	-0.15631041
37	0xbc285efc	-0.010276552
38	0xbdbde776	-0.09272663
39	0xbd6140e1	-0.054993514
40	0xbde3d343	-0.11124279
41	0xbdd8b72c	-0.10581812
42	0x3e1490b8	0.14508331
43	0x3e0f6c87	0.14006244
44	0x3cc4ec7b	0.024038544
45	0xbaecbd9e	-0.0018061881
46	0xbebfbb5b	-0.37447628
47	0x3df9c276	0.121952936
48	0xbe4a0408	-0.197281
49	0x3ce542eb	0.02798601
50	0x3e82eeb2	0.25572735
51	0xbcd59049	-0.026069777
52	0x3eaa61a1	0.3327761
53	0xbd9f5207	-0.07779317
54	0xbe5651e4	-0.20929676
55	0x3d6f2695	0.058386404
56	0xbb5f5876	-0.0034079826
57	0xbdd14811	-0.10218824
58	0x3eae082f	0.3399062
59	0xbddb5cc6	-0.107110545
60	0xbdcc6a19	-0.09981174
61	0x3e226ccc	0.15861815
62	0xbc31b687	-0.010846741
63	0x3e0353f0	0.12824988
64	0xbde87580	-0.11350536
65	0xbdccc254	-0.09998003
66	0x3ce3cd03	0.027807718
67	0xbe3735d1	-0.17891623
68	0x3e023db8	0.12718856
69	0x3dcb9687	0.0994082
70	0x3d9cd294	0.07657352
71	0xbcce59c7	-0.025189294
72	0xbd770331	-0.060305778
73	0x3dd97673	0.106182955
74	0x3d281341	0.041033987
75	0xbd72e616	-0.05930146
76	0x3d86a1b4	0.06573811
77	0xbe65a01c	-0.22424358
78	0x3da5a8a5	0.08088807
79	0xbd65b45c	-0.056080207
80	0xbe4d9992	-0.20078114
81	0xbdd9b959	-0.106310554
82	0xbe75f005	-0.24017341
83	0x3c3a3af1	0.011366592
84	0xbe5f1928	-0.2178694
85	0x3c95bce5	0.018278548
86	0xbe8732f7	-0.2640607
87	0x3d87de7a	0.06634231
88	0xbdaff9d7	-0.08592575
89	0xbdf97393	-0.12180247
90	0x3d83e728	0.06440574
91	0xbb7e22ee	-0.0038778144
92	0x3e95e5fe	0.29277033
93	0xbe6639c0	-0.22482967
94	0xbd73d817	-0.05953225
95	0x3e5ae6ab	0.21377055
96	0xbe93f8b0	-0.2890067
97	0x3e100782	0.14065364
98	0x3d80e1c5	0.06293062
99	0x3e643332	0.22285154
100	0x3e2a2075	0.16613944
101	0xbe1798a1	-0.14804317
102	0xbcaa9762	-0.020824138
103	0x3d90897d	0.07057474
104	0x3daa02dc	0.08301327
105	0xbd465a6d	-0.04842608
106	0xbe7f69e2	-0.24942735
107	0xbba4da2e	-0.005030892
108	0x3e125827	0.1429144
109	0xbd5cf172	-0.053941198
110	0xbe6441ce	-0.22290727
111	0xbd8ebf8a	-0.06970127
112	0xbe0514b6	-0.12996182
113	0x3d2bda83	0.041956436
114	0x3e3a960c	0.18221301
115	0xbd279e55	-0.04092248
116	0x3dc31120	0.09524751
117	0x3e0c3a34	0.13694078
118	0x3e75b736	0.2399567
119	0xbe640e6b	-0.22271125
120	0x3e099ad4	0.13437968
121	0x3e3d4edc	0.18487114
122	0x3e773a63	0.24143367
123	0xbdc52378	-0.09625906
124	0xbe112dd9	-0.14177646
125	0x3e15f847	0.14645492
126	0x3cf2d3e0	0.029642045
127	0x3e49be5b	0.19701521
128	0xbe558d0e	-0.2085459
129	0xbc181e21	-0.009284527
130	0x3e563ef1	0.20922448
131	0xbe0e0a0b	-0.13871019
132	0xbe202ffb	-0.15643303
133	0x3e25e0b6	0.16199002
134	0x3d84765d	0.064678885
135	0x3e4c4dc6	0.19951543
136	0xbc263363	-0.0101440875
137	0x3e1a24e3	0.15053134
138	0xbd0f2153	-0.03494389
139	0xbe37865d	-0.1792235
140	0x3d2d1cab	0.042263668
141	0x3c4efa00	0.012632847
142	0x3e3bbc56	0.18333563
143	0xbdff5da0	-0.124690294
144	0x3c8c9413	0.017160451
145	0x3cb7dfd7	0.022445602
146	0xbe4fbbb5	-0.20286448
147	0x3e411a38	0.18857658
148	0x3dfa223c	0.12213561
149	0xbe683d79	-0.226797
150	0xbe21ceb9	-0.15801515
151	0xbdcd3339	-0.100195356
152	0x3e89f47a	0.26944333
153	0xbe2a2b69	-0.16618122
154	0xbdcc1b58	-0.09966153
155	0xbe2934de	-0.16524073
156	0x3e22846e	0.1587083
157	0xbe3abc1e	-0.18235824
158	0x3de59047	0.11209159
159	0xbe824838	-0.25445724
160	0x3debf803	0.11521914
161	0xbe2eab39	-0.17057504
162	0x3da72b23	0.081625246
163	0xbdd9f955	-0.106432594
164	0xbe316881	-0.17325021
165	0xbe31c1af	-0.1735904
166	0xbce8ba4d	-0.028409148
167	0x3e54f63b	0.20797054
168	0xbde8cf61	-0.113676794
169	0x3d79ad83	0.06095649
170	0xbd6b9734	-0.057517245
171	0xbd2362f4	-0.03988929
172	0x3c825ff7	0.0159149
173	0xbdf69458	-0.12040013
174	0x3e337f7d	0.17529102
175	0x3e0e6222	0.13904622
176	0x3e5a5190	0.21320176
177	0xbe0c2b7d	-0.13688464
178	0xbd7bce66	-0.061476134
179	0xbd80de5f	-0.06292414
180	0x3ccb1467	0.024790002
181	0xbdbcfd00	-0.092279434
182	0xbdb66f7e	-0.08907984
183	0xbd01d3e4	-0.031696215
184	0x3db3caae	0.087788925
185	0x3e069cfe	0.13145825
186	0xbb61edff	-0.0034474132
187	0xbe178cf2	-0.1479986
188	0x3e0575c1	0.13033201
189	0xbe6df538	-0.23238075
190	0x3dd1e4ed	0.10248742
191	0xbd1b94ef	-0.03798383
192	0xbdf5601a	-0.119812205
193	0x3d9fe183	0.07806685
194	0xbd1c547b	-0.038166504
195	0xbd26842c	-0.040653393
196	0x3c8e879a	0.017398644
197	0x3e2f22f6	0.1710318
198	0x3e418ea0	0.18902063
199	0xbe2ecff4	-0.17071515
200	0x3ca3058b	0.019900104
201	0xbe9e9bf4	-0.30978358
202	0x3e0d2ef2	0.1378744
203	0x3a81a888	0.0009892145
204	0xbe218ea1	-0.15777065
205	0xbe90ed8a	-0.28306228
206	0x3d854edc	0.06509182
207	0xbe85da69	-0.26143196
208	0x3e296afa	0.16544715
209	0x3d858d88	0.065211356
210	0xbcf46a03	-0.029835707
211	0x3bd3d1b0	0.0064642057
212	0x3cc0a006	0.023513805
213	0xbda9d9a5	-0.082934655
214	0x3eb14e54	0.34630072
215	0x3cb0d9ea	0.021588285
216	0xbe463636	-0.19356617
217	0xbd7d3698	-0.061819643
218	0xbe05e561	-0.13075782
219	0x3dc1c80a	0.094619825
220	0xbe3bfac3	-0.18357377
221	0xbe06c52e	-0.13161156
222	0xbba4fede	-0.0050352653
223	0x3d115200	0.035478592
224	0x3c46767b	0.012113209
225	0x3e05b660	0.13057852
226	0xbd496b6c	-0.04917471
227	0xbe813e3f	-0.25242803
228	0xbd5c4b9e	-0.05378305
229	0x3e89b519	0.2689598
230	0xbe49f06b	-0.19720618
231	0xbd684cbf	-0.056713816
232	0x3e0ca8a6	0.1373621
233	0xbe7f46de	-0.24929377
234	0xbd8b370a	-0.06797607
235	0x3e20b991	0.15695788
236	0x3dccb73d	0.099958874
237	0xbd10550a	-0.03523735
238	0xbda5cac0	-0.08095312
239	0x3e544b62	0.20731881
240	0x3e1ab6ff	0.1510887
241	0xbe99e54b	-0.3005775
242	0x3d138558	0.03601584
243	0x3dcd74f0	0.1003207
244	0x3e2ee606	0.17079934
245	0xbdd7a82c	-0.10530123
246	0xbdbe1c0d	-0.09282694
247	0xbe57be6b	-0.21068732
248	0xbda4fe81	-0.08056355
249	0xbe75c723	-0.24001746
250	0xbdfb22e9	-0.12262518
251	0xbe1b2ec1	-0.15154554
252	0x3ea5fa34	0.32417452
253	0xbe48a8a3	-0.1959558
254	0xbe128996	-0.14310297
255	0xbdb1dbe2	-0.086845174

lstm.weight_hh_l0 f4 [80, 20]
0	0x3e084c0c	0.1331026
1	0xbe6538ef	-0.22385
2	0xbe7fd262	-0.24982598
3	0xbeeae12b	-0.45874915
4	0xbdca3387	-0.09873109
5	0x3de198f3	0.11015501
6	0x3ef75ffd	0.4831542
7	0xbd03c199	-0.03216705
8	0x3e38ae11	0.18035151
9	0xbe547787	-0.20748721
10	0xbd593ae5	-0.05303468
11	0x3edd9c9c	0.43283546
12	0xbe67f2bd	-0.22651191
13	0x3f009bc7	0.502377
14	0xbe3d1e38	-0.18468559
15	0x3e30337b	0.17207138
16	0xbdef9192	-0.11697687
17	0x3addcf1e	0.0016922688
18	0xbd989e91	-0.07452119
19	0xbe0d6c35	-0.13810809
20	0x3e0bc455	0.13649113
21	0x3ddd11b6	0.10794394
22	0x3e79b4ae	0.2438533
23	0x3e215f04	0.15758902
24	0x3dbb826e	0.09155737
25	0xbd62e312	-0.055392332
26	0x3e0037ca	0.12521282
27	0x3b6de991	0.0036302547
28	0xbe28a5e8	-0.16469538
29	0x3e21b03a	0.15789881
30	0x3e291a4c	0.16513938
31	0xbd4b8e8e	-0.049696498
32	0xbed46a09	-0.41487148
33	0x3e9249a2	0.28571802
34	0xbd39522e	-0.04524439
35	0xbd59bd63	-0.05315913
36	0x3dee463b	0.11634489
37	0xbde744f9	-0.11292452
38	0x3e82b8f3	0.2553173
39	0xbe86a8d7	-0.2630069
40	0x3e2d1856	0.16903815
41	0x3e3cb020	0.18426561
42	0x3d106dfd	0.035261143
43	0x3e29db8c	0.16587657
44	0x3e8bd465	0.27310482
45	0x3d2b8453	0.04187424
46	0xbd112b41	-0.03544164
47	0x3d9be3d3	0.076118134
48	0xbe7f7900	-0.24948502
49	0x3eb1f877	0.34759876
50	0x3e772a5b	0.24137251
51	0xbe996eb5	-0.29967275
52	0xbe34ea32	-0.17667463
53	0x3e50d1ad	0.20392485
54	0x3e27d77b	0.16390793
55	0x3de9c651	0.11414779
56	0x3de09f5e	0.10967897
57	0xbd52fff0	-0.051513612
58	0xbddc5086	-0.10757546
59	0x3e08f078	0.13372982
60	0xbd6fb10e	-0.058518462
61	0xbdc7bfa3	-0.09753349
62	0xbce612c7	-0.028085126
63	0xbdda1f7f	-0.10650539
64	0xbd39f2d2	-0.045397587
65	0x3e910677	0.28325245
66	0x3e04a644	0.1295405
67	0xbe523281	-0.20527078
68	0xbe9e6e3c	-0.30943477
69	0x3e3280be	0.17431924
70	0xbe10103f	-0.14068697
71	0xbe00efc7	-0.12591468
72	0xbe2ea159	-0.17053737
73	0x3e994f48	0.299433
74	0xbe8b990c	-0.27265203
75	0x3dadf98c	0.08494863
76	0xbe1d49f9	-0.1536025
77	0x3e702f2e	0.23455498
78	0xbdcfc97a	-0.101458505
79	0x3e30c5f3	0.17263012
80	0xbd60fd09	-0.054928813
81	0x3edb0bca	0.42782432
82	0xbdc4e3ad	-0.09613738
83	0xbe10c58a	-0.14137855
84	0xbd1db095	-0.03849848
85	0x3cafae35	0.021445373
86	0x3c96f022	0.018425051
87	0xbe20774b	-0.15670507
88	0x3e6a998c	0.22910136
89	0xbd3c617a	-0.0459914
90	0x3d72537b	0.059161644
91	0xbdd8f684	-0.10593894
92	0xbcac7e04	-0.021056183
93	0xbde061c8	-0.1095615
94	0xbe929940	-0.28632545
95	0xbddb6bfb	-0.10713955
96	0x3c9e5c18	0.019331023
97	0x3e83ddc5	0.25755134
98	0x3e32f719	0.17477073
99	0x3d3055d1	0.04305059
100	0xbc5d703c	-0.013515528
101	0xbd2fcdbf	-0.042920824
102	0xbedac251	-0.42726377
103	0xbc05440d	-0.0081339
104	0xbe839601	-0.2570038
105	0xbd5e47f5	-0.054267842
106	0x3c042f01	0.008067847
107	0xbbb8ada3	-0.0056359335
108	0x3dc82c26	0.09774046
109	0xbdfbb9c3	-0.122912906
110	0xbe15ad3c	-0.14616865
111	0x3e36e2e8	0.17859995
112	0x3f014bd9	0.5050636
113	0xbe450ba1	-0.19242717
114	0xbe81343d	-0.25235167
115	0xbe757b61	-0.23972847
116	0xbe5534ad	-0.20820875
117	0x3cb86de4	0.022513337
118	0xbeac4a2c	-0.3365034
119	0x3de6b8f6	0.11265747
120	0x3e5602cb	0.20899503
121	0x3f101777	0.56285805
122	0x3e047b06	0.12937555
123	0x3d0767fc	0.03305815
124	0x3caf15ca	0.021372695
125	0xbae5bae7	-0.0017527015
126	0xbe8b9177	-0.27259418
127	0xbbe3d6ac	-0.006953081
128	0xbe06c08d	-0.1315939
129	0x3cca71f8	0.024712548
130	0xbdf18113	-0.11792197
131	0xbe375b79	-0.17905988
132	0xbe08cc55	-0.13359196
133	0xbe55991b	-0.20859186
134	0x3e69841a	0.22804299
135	0x3d91822b	0.07104906
136	0xbc9922c7	-0.018693341
137	0x3dd44c44	0.10366109
138	0x3d816669	0.06318361
139	0x3e06b958	0.1315664
140	0x3e81719e	0.25281996
141	0xbeaaf745	-0.33391777
142	0x3d8ada6b	0.06779941
143	0xbe414b01	-0.18876268
144	0xbdb6aa3f	-0.089191906
145	0xbda4c4ef	-0.080453746
146	0x3e781fd3	0.2423089
147	0xbe3849bb	-0.17996876
148	0xbe119bd3	-0.14219598
149	0x3e563aae	0.20920822
150	0x3d8b5adb	0.06804439
151	0xbe482d47	-0.19548522
152	0xbdf202a2	-0.118169084
153	0x3d958582	0.07300855
154	0x3de870d5	0.11349646
155	0x3e9c152d	0.30484906
156	0x3d64649e	0.05576002
157	0x3d2fce80	0.042921543
158	0x3dcca95f	0.099932425
159	0xbdbfa07d	-0.093567826
160	0x3dc6a9e2	0.09700371
161	0x3e843be7	0.25826952
162	0x3e2f9f96	0.17150721
163	0xbdb0df92	-0.08636393
164	0x3cfa574f	0.03055921
165	0x3e5e9379	0.21735944
166	0x3d1be8d4	0.03806384
167	0xbe6cee23	-0.23137717
168	0x3de0fefe	0.10986136
169	0xbe2482ef	-0.16065572
170	0xbd407732	-0.046988674
171	0x3e457d50	0.19286084
172	0xbd204e35	-0.039137084
173	0x3e0def52	0.13860825
174	0xbdfd1c45	-0.123589076
175	0x3db17bfc	0.08666226
176	0x3d9d9a21	0.076954134
177	0x3dbd5d81	0.0924635
178	0xbdee93d9	-0.116492935
179	0x3de88ab0	0.113545775
180	0xbd3c880a	-0.046028174
181	0xbe78b81b	-0.2428898
182	0x3d788b05	0.060679454
183	0x3d7eec86	0.062237285
184	0x3e302168	0.17200243
185	0x3e3f1db3	0.18663673
186	0xbe9dcd55	-0.30820718
187	0xbe21910c	-0.15777987
188	0x3e35859f	0.17726754
189	0x3e8b327e	0.2718696
190	0x3ef2708f	0.473515
191	0xbe0524e3	-0.13002352
192	0x3cd3ee38	0.025870427
193	0x3b63eae1	0.003477745
194	0xbec17915	-0.3778769
195	0x3e04099c	0.1289429
196	0x3cd8a59c	0.026446156
197	0xbd9e8315	-0.07739846
198	0x3e92727a	0.28602964
199	0x3dc8771d	0.09788344
200	0xbe89c7f3	-0.26910362
201	0x3d034a55	0.03205331
202	0xbdab0799	-0.083510585
203	0xbdfb95c9	-0.122844286
204	0xbd6c58c3	-0.057701837
205	0x3e3c0d0a	0.18364349
206	0xbca8f636	-0.020625215
207	0x3ded59c2	0.115893856
208	0x3d2b5e20	0.04183781
209	0x3e80e719	0.25176314
210	0xbd137635	-0.036001403
211	0x3cb1f5cf	0.021723656
212	0x3e3cd8ba	0.1844205
213	0xbe8f3c74	-0.2797581
214	0xbe878232	-0.2646652
215	0xbe50e13b	-0.20398419
216	0x3e004f8d	0.12530346
217	0xbe47c32e	-0.19508049
218	0x3d9b9761	0.075972326
219	0xbe42e583	-0.19032864
220	0x3d0ba648	0.034094125
221	0x3bdc7290	0.006727524
222	0x3ec57dab	0.3857244
223	0x3d512140	0.0510571
224	0x3e357a3b	0.17722408
225	0x3c9a2978	0.018818602
226	0x3b8d3546	0.004309329
227	0xbe8f0609	-0.27934292
228	0x3e307df8	0.17235553
229	0x3ec10501	0.3769913
230	0x3e2b65e2	0.16738084
231	0xbba01627	-0.0048854533
232	0x3cde2e3c	0.027121656
233	0xbd6d038b	-0.057864707
234	0x3c221ae7	0.009894109
235	0xbe7793a8	-0.2417742
236	0x3d2a5d00	0.041592598
237	0xbe3a90b4	-0.18219262
238	0xbdb827f6	-0.08991997
239	0x3ea6bd7b	0.32566437
240	0x3d6cd987	0.057824638
241	0x3eab64f8	0.3347547
242	0xbe31eedd	-0.17376275
243	0xbe5acf18	-0.21368062
244	0x3c186bc6	0.009303039
245	0xbe8c9cb6	-0.2746331
246	0x3e3b6b4c	0.1830265
247	0x3eaa19ab	0.33222708
248	0xbe2337a9	-0.15939201
249	0xba7abe3d	-0.0009565091
250	0xbdd12bcb	-0.10213431
251	0xbe08f7e0	-0.13375807
252	0xbdfc8b27	-0.12331229
253	0xbd865d89	-0.06560809
254	0xbbe0e4e0	-0.0068632215
255	0xbcb15c6a	-0.021650512

lstm.bias_ih_l0 f4 [80]
0	0xbd5d2d95	-0.05399855
1	0xbe007c95	-0.12547524
2	0x3de95780	0.113936424
3	0x3e1a3ce7	0.15062295
4	0x3ea66507	0.32498953
5	0xbbff1e5b	-0.007785601
6	0x3c605e9f	0.013694434
7	0xbda71022	-0.08157374
8	0xbe192525	-0.14955576
9	0xbe6d78aa	-0.23190561
10	0xbdee6fee	-0.11642443
11	0x3e27bd78	0.1638087
12	0xbd7dc414	-0.061954573
13	0x3e3801e7	0.17969476
14	0xbdd63f22	-0.104612604
15	0xbd7961c7	-0.060884263
16	0x3e0726f1	0.13198449
17	0x3e889eb9	0.26683596
18	0x3e116254	0.14197665
19	0x3d985d8a	0.07439716
20	0x3e5da600	0.21645355
21	0x3e827ec4	0.2548734
22	0x3e8cdc8a	0.27512008
23	0xbd6e9cfc	-0.05825518
24	0x3e500a28	0.20316374
25	0xbda0dda4	-0.078547746
26	0x3dd0b0f4	0.10190001
27	0xbd13f5e8	-0.036123186
28	0x3dbbd2a2	0.091710344
29	0xbcf1db08	-0.029523388
30	0xbe4494f5	-0.19197448
31	0x3e0ce25b	0.13758223
32	0xbe06905f	-0.1314101
33	0xbd828b39	-0.06374211
34	0xbd4ae8c7	-0.0495384
35	0xbe19714c	-0.14984626
36	0xbe1b9eb7	-0.15197264
37	0x3e06811f	0.13135193
38	0xbddfb71b	-0.109235965
39	0xbe054670	-0.13015151
40	0xbd8d42f0	-0.06897533
41	0xbb8ea166	-0.0043527363
42	0x3e29a179	0.16565503
43	0xbd9eb213	-0.07748809
44	0x3d3f5ac2	0.046717413
45	0x3e23aa7d	0.15983005
46	0xbe77c5f3	-0.24196605
47	0x3e2597f5	0.16171248
48	0x3e0d3fac	0.1379382
49	0xbe1f53f6	-0.15559372
50	0x3e5062d2	0.20350197
51	0xbde6e607	-0.11274343
52	0x3e28e0fc	0.16492075
53	0x3def3f72	0.11682023
54	0xbd8dc561	-0.06922413
55	0x3e21873c	0.15774244
56	0x3dfbc517	0.12293451
57	0xbe171e41	-0.14757635
58	0x3e4808b3	0.19534568
59	0xbd2604d4	-0.04053195
60	0xbda2123f	-0.079136364
61	0xbdaceab8	-0.084432065
62	0x3c8e9afe	0.01740789
63	0xbe129514	-0.14314681
64	0x3a833307	0.0010009714
65	0x3e1c2f13	0.15252332
66	0x3e68aa3f	0.22721194
67	0x3dde523f	0.10855531
68	0x3e4acb3d	0.19804092
69	0xbe29df62	-0.1658912
70	0x3e8e2774	0.27764475
71	0x3d6e2810	0.058143675
72	0x3dfc4eeb	0.1231974
73	0x3cac8eef	0.02106425
74	0xbdadcad1	-0.0848595
75	0x3eb1cfb3	0.34728774
76	0x3e526873	0.20547657
77	0x3e8355e3	0.25651464
78	0xbe031dd4	-0.12804347
79	0xbd21fa5d	-0.039545406

lstm.bias_hh_l0 f4 [80]
0	0x3ba908e3	0.00515853
1	0x3e263043	0.16229348
2	0x3d17c13d	0.03704952
3	0x3c52936a	0.012852529
4	0x3e866ed1	0.2625642
5	0xbdc1b206	-0.094577834
6	0xbd29d33e	-0.041461222
7	0xbd9dfd8b	-0.07714375
8	0xbcd15e89	-0.025557773
9	0x3dcf9aa1	0.10136915
10	0x3e45ca24	0.19315392
11	0xbe6aabac	-0.2291705
12	0x3dcf80d2	0.101319924
13	0x3cc6ed62	0.024283115
14	0xbd8418c1	-0.06450034
15	0x3e07a883	0.13247876
16	0x3dcc597f	0.099780075
17	0x3e04f810	0.12985253
18	0x3d217208	0.03941539
19	0x3ea0d3e8	0.31411672
20	0xbdf649a4	-0.120257646
21	0x3e8e9c70	0.27853727
22	0x3e069743	0.1314364
23	0xbe1d78e3	-0.15378146
24	0x3df599e1	0.11992241
25	0x3ddc5711	0.10758794
26	0x3db6fe2c	0.08935198
27	0x3df73c67	0.12072068
28	0x3e9cd4b4	0.3063103
29	0x3e83247e	0.2561378
30	0xbd51b5f1	-0.051198903
31	0x3e5b7408	0.21430981
32	0xbc2d359e	-0.010571865
33	0x3dcaa001	0.098937996
34	0x3e8d7fe6	0.2763664
35	0xbd2278d1	-0.039666
36	0x3de97398	0.11399001
37	0x3c83191b	0.016003182
38	0x3d652a70	0.055948675
39	0x3e6ea6a5	0.23305757
40	0xbe0a2670	-0.13491225
41	0xbd8fc553	-0.070200585
42	0x3df6773c	0.12034461
43	0xbe403e5c	-0.18773788
44	0x3e53a189	0.2066709
45	0xbd47374a	-0.048636712
46	0x3e026657	0.12734352
47	0x3e0a95e1	0.13533737
48	0x3e1cbe5c	0.15306991
49	0x3e1e2abd	0.15445991
50	0xbe1eaea3	-0.15496306
51	0x3c037913	0.008024472
52	0xbe1002be	-0.14063546
53	0xbe5d7371	-0.21626069
54	0xbd5305a3	-0.051519047
55	0xbe1b0b18	-0.1514095
56	0xbd029ebf	-0.031889673
57	0xbdb9be45	-0.09069494
58	0x3e0469fc	0.12931055
59	0xbe3a4f17	-0.18194233
60	0x3d25afd8	0.0404509
61	0x3e477bd7	0.19480835
62	0xbd397c22	-0.045284398
63	0x3e0e8ef2	0.13921717
64	0x3e939119	0.28821638
65	0xbd2d7e51	-0.042356793
66	0x3e921f9b	0.28539738
67	0xbe2b69ef	-0.16739629
68	0xbdc14b76	-0.09438221
69	0x3c1295dc	0.008946862
70	0x3e720d7e	0.2363796
71	0x3d153ea3	0.03643669
72	0x3e86f55c	0.2635907
73	0x3e9a7969	0.30170754
74	0x3d173172	0.03691239
75	0xbdbe5534	-0.09293595
76	0xbdf0837d	-0.117438294
77	0x3e6c64ad	0.2308528
78	0xbd0a4a19	-0.03376207
79	0x3e4f5253	0.20246248

lstm.weight_ih_l0_reverse f4 [80, 20]
0	0xbe2340fb	-0.15942757
1	0x3e4b016e	0.19824764
2	0x3c3767ac	0.011194151
3	0x3e287b48	0.16453278
4	0xbe2dbd93	-0.16966848
5	0x3ec325e4	0.38114846
6	0xbded3d65	-0.11583976
7	0xbdf6ad44	-0.120447665
8	0x3d7da7f1	0.06192774
9	0x3c14b6e2	0.009076806
10	0xbd69e66c	-0.057104513
11	0xbc142132	-0.0090411175
12	0x3e23e243	0.16004281
13	0xbe293752	-0.1652501
14	0xbe657016	-0.22406039
15	0x3e9c9da7	0.3058903
16	0xbe166e35	-0.14690478
17	0x3e3e91cc	0.18610305
18	0xbe3841cd	-0.17993851
19	0xbe0b90b1	-0.13629414
20	0xbe5a8e36	-0.21343312
21	0x3d080928	0.033211857
22	0x3e63cc1b	0.22245829
23	0x3dd44880	0.10365391
24	0xbe805278	-0.2506292
25	0xbdc4ebb9	-0.09615273
26	0xbe2bb9a2	-0.16770032
27	0x3e0ebae1	0.13938476
28	0xbdcac371	-0.09900559
29	0x3e005834	0.12533647
30	0xbe4d958f	-0.20076583
31	0x3da94eef	0.082670085
32	0x3d343e28	0.04400459
33	0xbe66d892	-0.22543553
34	0x3e3ee44f	0.1864178
35	0x3e58dcb1	0.21177937
36	0xbe1ad236	-0.15119252
37	0x3e6e2252	0.2325528
38	0xbe295295	-0.16535409
39	0xbe40cb16	-0.18827471
40	0xbddaca90	-0.10683167
41	0xbe186d80	-0.14885521
42	0xbde8d426	-0.11368589
43	0xbba236b5	-0.0049503692
44	0xbd7e1b62	-0.062037833
45	0xbd920967	-0.071306996
46	0xbe43ab75	-0.19108374
47	0xbdecf37f	-0.11569881
48	0xbdac9d4a	-0.08428438
49	0xbca0cf13	-0.01962999
50	0x3dd977ed	0.10618577
51	0xbdb46025	-0.088074006
52	0xbd8f57c4	-0.06999162
53	0x3dca4121	0.098757036
54	0xbe23fcd8	-0.16014421
55	0x3c813ba9	0.015775518
56	0xbd05ff12	-0.032713957
57	0x3cc3869b	0.023867896
58	0x3e268630	0.16262126
59	0x3e0b5324	0.13605934
60	0x3e9c47c1	0.30523494
61	0xbe039b5d	-0.12852235
62	0xbdd86bb6	-0.10567419
63	0xbd8d1680	-0.06889057
64	0x3de219c4	0.11040071
65	0xbd856d92	-0.065150395
66	0x3e00e3f8	0.12586963
67	0xbd5cbb1d	-0.053889383
68	0x3e418d6a	0.18901601
69	0xbe3cb4ef	-0.18428396
70	0xbc29785f	-0.01034364
71	0x3d8c1f53	0.06841912
72	0x3e0a89f7	0.13529192
73	0xbe0e1baf	-0.13877748
74	0xbd1e1916	-0.038598143
75	0xbe8b2c0a	-0.27182037
76	0xbe4f7b13	-0.20261793
77	0xbe37e6eb	-0.17959182
78	0x3e58b617	0.21163212
79	0x3d22e84f	0.039772328
80	0xbe04f687	-0.12984668
81	0x3d95adf5	0.0730857
82	0xbdc0e5ee	-0.094188556
83	0xbe888a4b	-0.2666801
84	0x3db9c6ef	0.09071147
85	0x3ac3abbb	0.0014928499
86	0xbe2c1860	-0.16806173
87	0x3e187491	0.14888217
88	0xbe832cbc	-0.25620067
89	0x3e01e72d	0.12685843
90	0xbe608031	-0.21923901
91	0xbce484ba	-0.02789532
92	0xbdb9e775	-0.0907735
93	0x3d9b8629	0.075939484
94	0xbe1cf035	-0.15326007
95	0x3eb1c50e	0.34720653
96	0xbd3eaef3	-0.046553563
97	0x3eaa5127	0.3326504
98	0x3db431ea	0.08798583
99	0x3d17fab7	0.037104335
100	0xbddb711c	-0.10714933
101	0xbe25bb73	-0.16184787
102	0x3df92469	0.12165148
103	0xbe4993d8	-0.19685304
104	0x3e34457e	0.17604634
105	0x3e42c62a	0.19020906
106	0x3da4b607	0.080425315
107	0xbe237ef1	-0.15966393
108	0x3cddc5bb	0.027071824
109	0x3dd4f103	0.10397532
110	0x3e257717	0.1615871
111	0xbd2f19de	-0.04274928
112	0xbd871391	-0.06595529
113	0x3ca13ec8	0.019683257
114	0xbe0f03f8	-0.13966358
115	0x3e9fd2e4	0.31215584
116	0xbda6d539	-0.08146138
117	0x3e566d18	0.20940053
118	0x3db0b63d	0.08628509
119	0xbe8234d9	-0.25430945
120	0x3e939a36	0.2882859
121	0x3d2b7064	0.04185523
122	0x3d7832e0	0.060595393
123	0xbe5d77b6	-0.21627697
124	0x3ca1a48d	0.019731784
125	0x3e70a223	0.2349935
126	0xbc74321a	-0.014904523
127	0x3e2b3994	0.16721183
128	0xbd419ff5	-0.047271688
129	0x3da611ba	0.0810885
130	0xbe6bec28	-0.23039305
131	0xbe208b4b	-0.15678136
132	0xbb57ec4d	-0.0032947243
133	0x3c46954f	0.012120559
134	0x3d8f7508	0.07004744
135	0x3dc37793	0.09544291
136	0x3dc221d2	0.09479107
137	0xbc455836	-0.012044957
138	0x3df7df8a	0.121031836
139	0x3e34dccf	0.17662357
140	0x3e557a07	0.20847331
141	0xbe4e56cb	-0.20150296
142	0xbd9c1bbd	-0.07622478
143	0xbd52f375	-0.05150171
144	0x3b8506fd	0.004059671
145	0x3d1a0276	0.037600003
146	0xbc45bc60	-0.012068838
147	0xbdca8a5d	-0.09889672
148	0x3cefd27f	0.029275177
149	0x3d8aa263	0.06769254
150	0x3b1455db	0.0022634182
151	0xbdf35d81	-0.11883069
152	0x3d75bee7	0.05999651
153	0x3e5b2b3f	0.21403216
154	0xbdeedcd8	-0.11663216
155	0xbd5a92f1	-0.05336279
156	0x3afeb263	0.0019431825
157	0x3e1dcab4	0.15409356
158	0xbdaa4b3a	-0.083151296
159	0xbd74161c	-0.059591398
160	0x3daf8c7e	0.08571719
161	0xbe1b6403	-0.1517487
162	0x3e87091e	0.26374143
163	0x3d9d9e4a	0.07696207
164	0xbbfff625	-0.007811325
165	0xbe1be3f0	-0.1522367
166	0x3e5dc56d	0.21657343
167	0xbd4f1c3f	-0.050564047
168	0xbe53d084	-0.20685011
169	0xbdc26d4b	-0.09493502
170	0x3db7eac0	0.08980322
171	0x3e2a63b4	0.16639596
172	0xbe8529e0	-0.2600851
173	0x3d6bd871	0.05757946
174	0x3df39549	0.11893708
175	0xbc4baf91	-0.012431995
176	0xbe110d30	-0.14165187
177	0x3e796135	0.24353488
178	0x3e4097f7	0.1880797
179	0xbdf4ee27	-0.119594865
180	0xbd94d24c	-0.072666734
181	0xbc9f40a1	-0.019439997
182	0x3c86e4ac	0.016466461
183	0x3e2e9b09	0.17051329
184	0x3e300a7b	0.17191498
185	0xbe162078	-0.14660823
186	0x3a524dd6	0.0008022463
187	0xbe7b035f	-0.24513005
188	0xbd46f017	-0.04856881
189	0xbe50226e	-0.20325634
190	0x3d5fa303	0.05459882
191	0x3d850a81	0.06496144
192	0x3e42cdf0	0.19023871
193	0xbe636884	-0.22207838
194	0x3e1bf647	0.15230666
195	0xbc352da8	-0.011058249
196	0x3d3c91d9	0.04603753
197	0xbe8707e2	-0.26373202
198	0x3c22865e	0.009919731
199	0x3c615342	0.01375276
200	0xbd479f0e	-0.04873567
201	0x3db25557	0.087076835
202	0xbe261eb7	-0.16222654
203	0x3da7d13c	0.08194205
204	0x3e1ca5f8	0.15297687
205	0xbde6d960	-0.1127193
206	0xbd88a92a	-0.066728905
207	0xbe47c020	-0.19506884
208	0xbdc995e0	-0.098430395
209	0x3d4582c7	0.048220422
210	0x3e49d93a	0.19711772
211	0x3e4d6085	0.2005635
212	0x3ed5120b	0.41615328
213	0x3d7c173c	0.061545596
214	0x3e58f9fc	0.21189111
215	0xbd59c98a	-0.05317072
216	0xbcb554f6	-0.02213524
217	0xbe82826e	-0.25490135
218	0xbe0480e8	-0.12939799
219	0x3c84cee0	0.016211927
220	0xbe1925d5	-0.14955838
221	0xbdac25f4	-0.084056765
222	0xbe24fe73	-0.1611269
223	0xbe563204	-0.20917517
224	0xbe4e9e09	-0.20177473
225	0xbdb43cbe	-0.08800648
226	0x3e34bb21	0.17649509
227	0x3d4d2f53	0.05009396
228	0xbde1e34b	-0.11029681
229	0x3e4ddda6	0.20104083
230	0xbcdbbd9a	-0.026823808
231	0x3da1afe5	0.07894877
232	0x3d9e5dc9	0.07732732
233	0x3e6f95cf	0.23396991
234	0x3db2c9a3	0.087298654
235	0x3d122339	0.035678122
236	0xbd948b53	-0.072531365
237	0xbd30bdda	-0.043149807
238	0xbd82d5a1	-0.06388403
239	0x3d9c4d96	0.07631986
240	0x3e2d5427	0.16926633
241	0xbddf4225	-0.10901288
242	0x3e675d15	0.22594102
243	0xbe8c4fa4	-0.2740451
244	0x3df7b285	0.12094597
245	0xbccd55b6	-0.025065284
246	0x3db2de61	0.08733822
247	0xbe202b6c	-0.15641564
248	0xbd8be4ab	-0.06830724
249	0x3d3fbd84	0.046811596
250	0xbe8a52e2	-0.2701636
251	0x3da6453e	0.08118676
252	0x3e8556b8	0.26042724
253	0xbc5c11df	-0.013431995
254	0x3de2cccd	0.11074219
255	0x3e1bc6da	0.15212575

lstm.weight_hh_l0_reverse f4 [80, 20]
0	0xbe166882	-0.14688304
1	0xbe343d0a	-0.1760141
2	0x3d969170	0.07351959
3	0x3e46b240	0.19403934
4	0x3e812f8a	0.25231582
5	0xbc7dbaef	-0.015486463
6	0x3c196ceb	0.009364347
7	0xbe849d44	-0.25901234
8	0x3e8d7cf7	0.27634403
9	0xbdd878f5	-0.10569946
10	0xbdf1e68e	-0.11811553
11	0xbdd8718b	-0.105685316
12	0xbe0f1346	-0.13972196
13	0x3dc2b56a	0.09507258
14	0xbd502ef1	-0.050826017
15	0x3e024b80	0.12724113
16	0x3e12dd29	0.14342178
17	0x3ddb8608	0.10718924
18	0xbd4ac99b	-0.049508672
19	0xbe93f72d	-0.28899518
20	0x3e68a531	0.22719266
21	0xbeb57402	-0.3544007
22	0x3e3b2ce4	0.18278843
23	0x3e41706d	0.18890543
24	0x3def545f	0.116860144
25	0xbe5cd816	-0.21566805
26	0xbe4de256	-0.20105872
27	0xbe7f5bbe	-0.2493734
28	0x3e688e91	0.22710635
29	0xbe3f30cc	-0.18670958
30	0x3e1c932e	0.1529052
31	0x3d92e5d6	0.07172744
32	0x3db8b764	0.09019354
33	0xbe123f04	-0.14281851
34	0x3c94050a	0.018068809
35	0xbd15d402	-0.03657914
36	0xbc22937f	-0.009922861
37	0x3de66af6	0.1125087
38	0x3c8ab687	0.016932739
39	0xbcaff004	-0.021476753
40	0xbebc6539	-0.36795977
41	0x3d678a01	0.056528095
42	0x3bfcb574	0.0077120606
43	0x3e28fcaa	0.16502634
44	0xbe727f62	-0.23681405
45	0x3d85ce3e	0.06533478
46	0xbd8d0c76	-0.06887142
47	0xbd3e1233	-0.046404075
48	0xbd97c2ee	-0.07410227
49	0x3c1f1d4e	0.009711577
50	0xbd15b669	-0.036550913
51	0xbc1dd1f6	-0.009632578
52	0x3e98d402	0.2984925
53	0xbc40f36c	-0.011776786
54	0x3e5067b5	0.20352061
55	0x3c41f71f	0.011838703
56	0xbe8ff7d9	-0.2811878
57	0xbe802578	-0.25028586
58	0x3dda7114	0.10666099
59	0x3e29ae22	0.16570333
60	0x3d0b5744	0.03401877
61	0xbea546da	-0.32280618
62	0x3e2b8ea0	0.16753626
63	0x3e9978c6	0.29974955
64	0xbe459460	-0.19294882
65	0x3e011437	0.12605368
66	0xbd80a429	-0.06281311
67	0xbbe665a5	-0.00703116
68	0x3ea8003c	0.3281268
69	0x3e058289	0.13038076
70	0x3ef1e775	0.472469
71	0xbe631a74	-0.2217806
72	0xbd906a19	-0.070514865
73	0xbdb41bab	-0.0879434
74	0xbe5a3756	-0.21310171
75	0x3e183557	0.14864098
76	0x3d7fe4b6	0.062473975
77	0x3b65782d	0.0035014257
78	0xbe7ccf6b	-0.24688499
79	0xbef61deb	-0.480697
80	0x3e35530e	0.17707464
81	0xbee0b441	-0.43887523
82	0x3eb3c18d	0.35108605
83	0x3e4af9c5	0.19821842
84	0xbe2e37e7	-0.17013513
85	0x3d78048d	0.060551215
86	0x3e270c78	0.1631335
87	0xbe9da2f2	-0.3078838
88	0x3ebb4a6d	0.3658022
89	0xbe5aca58	-0.2136625
90	0xbddb24e4	-0.10700396
91	0xbc05d127	-0.008167542
92	0x3bb3d41b	0.0054879314
93	0xbdb20f46	-0.086943194
94	0x3e0fc12e	0.14038536
95	0x3e8ebb37	0.2787721
96	0x3e848dee	0.25889534
97	0xbd484107	-0.04889014
98	0x3dccc16d	0.099978305
99	0xbeaf0c44	-0.34189045
100	0x3cb46ff4	0.02202604
101	0xbd8b6016	-0.06805436
102	0x3d1ddc53	0.038540196
103	0xbd514005	-0.051086444
104	0xbe3e18af	-0.18564104
105	0x3e82f125	0.25574604
106	0xbe70072a	-0.23440233
107	0x3e4f6a74	0.20255452
108	0xbe7e8b3d	-0.24857803
109	0x3d80f41c	0.0629656
110	0x3d705efd	0.058684338
111	0x3d203266	0.039110564
112	0xbe22a49f	-0.1588311
113	0x3ce890c5	0.028389344
114	0xbdd21b79	-0.10259146
115	0x3e526851	0.20547606
116	0x3caf9c3c	0.021436803
117	0xbe7b8a18	-0.24564397
118	0xbdc5c385	-0.09656433
119	0xbdea3835	-0.11436502
120	0xbe248b51	-0.1606877
121	0x3e80181a	0.25018388
122	0x3e3a8b81	0.18217279
123	0x3e80bcea	0.2514413
124	0xbe340515	-0.17580064
125	0xbe580e4a	-0.21099201
126	0xbe3af03d	-0.18255706
127	0x3d1ad285	0.037798423
128	0x3dabc765	0.08387641
129	0x3e806c5d	0.25082675
130	0x3de6dd39	0.112726636
131	0xbe18ba70	-0.1491487
132	0x3d960857	0.073258094
133	0x3d0bcee4	0.034132853
134	0xbdc440dc	-0.095826834
135	0xbdc38324	-0.095464975
136	0x3c26b82d	0.010175747
137	0x3e4cf409	0.20014967
138	0xbe0be7f6	-0.13662705
139	0x3e017852	0.12643555
140	0xbd2f1e4f	-0.042753514
141	0xbcfdeb3b	-0.030995956
142	0x3e3d8147	0.18506347
143	0x3d6ff22c	0.058580562
144	0x3e0e9d69	0.13927235
145	0xbe86b82a	-0.2631238
146	0x3da68496	0.081307575
147	0xbe4afe8e	-0.19823667
148	0xbe06654f	-0.13124584
149	0xbdd0e810	-0.102005124
150	0x3e26de2d	0.16295691
151	0xbd133fd0	-0.03594953
152	0x3e1c3a40	0.15256596
153	0xbd9dfdb3	-0.07714405
154	0xbdfe0f4b	-0.12405261
155	0xbe61cbd0	-0.22050405
156	0x3df1421f	0.1178019
157	0x3e42a34b	0.19007604
158	0x3de794a9	0.113076515
159	0xbdf1f424	-0.11814144
160	0x3cbd58f8	0.023113713
161	0xbe74acdb	-0.23894064
162	0xbd216428	-0.039402157
163	0xbd63b7b5	-0.05559512
164	0xbd3050c4	-0.043045774
165	0x3d905250	0.0704695
166	0x3e429ecd	0.1900589
167	0xbd3bf948	-0.04589203
168	0x3c8e5723	0.017375534
169	0xbdbdd475	-0.092690386
170	0xbe844cbc	-0.25839794
171	0xbe329285	-0.17438705
172	0xbe2a4a84	-0.16629988
173	0xbdd6b924	-0.104845315
174	0x3d603210	0.054735243
175	0x3dcbb086	0.099457785
176	0xbe503b9b	-0.20335238
177	0x3e8938bb	0.26801094
178	0xbe18c365	-0.14918287
179	0x3e00c9e0	0.12577009
180	0x3e1e3aec	0.15452164
181	0xbe423bb6	-0.1896809
182	0x3e83043a	0.25589162
183	0x3ede91ac	0.43470514
184	0xbeeb1b85	-0.45919433
185	0xbde608db	-0.11232158
186	0xbec18ba4	-0.3780185
187	0xbe869bcc	-0.2629074
188	0xbcaeda57	-0.021344347
189	0x3e5c7c0d	0.21531697
190	0xbe6abc15	-0.2292331
191	0xbe69e61c	-0.22841686
192	0xbdea4439	-0.11438794
193	0xbe6aa8b6	-0.2291592
194	0x3e878297	0.2646682
195	0x3e0f8efa	0.14019385
196	0xbd12b079	-0.03581283
197	0xbdc26d2a	-0.09493478
198	0xbea9fb9a	-0.3319977
199	0xbd8642d4	-0.06555715
200	0xbe32a327	-0.1744505
201	0x3eaf1f9e	0.3420381
202	0x3e4205d4	0.18947536
203	0xbe0f1903	-0.13974385
204	0x3e792a33	0.24332504
205	0x3e763b30	0.24046016
206	0xbc454d4f	-0.012042358
207	0xbe58eeed	-0.21184893
208	0x3e2e7995	0.17038567
209	0xbe21d272	-0.15802935
210	0xbee23a6c	-0.44185197
211	0xbe24c15f	-0.1608939
212	0x3e84ca8e	0.25935787
213	0x3da80458	0.082039535
214	0xbe8d68d0	-0.27619028
215	0xbd336a72	-0.043802686
216	0x3e35e648	0.17763627
217	0xbee25512	-0.44205528
218	0x3c78f192	0.015194314
219	0x3ec65320	0.38735294
220	0xbea24649	-0.31694248
221	0xbd317d77	-0.043332543
222	0x3e715876	0.23568901
223	0xbd047053	-0.032333683
224	0x3cbc1c9f	0.022962866
225	0xbe5ebf69	-0.21752705
226	0x3df5dd19	0.12005062
227	0xbd462489	-0.048374686
228	0x3da5fdb5	0.081050314
229	0x3e819165	0.2530624
230	0x3d2f5919	0.04280958
231	0xbe54e1a6	-0.20789203
232	0x3e7d905e	0.24762103
233	0x3d26540c	0.040607497
234	0x3de36496	0.111031696
235	0x3d65c703	0.056097995
236	0x3d8e9786	0.069624946
237	0x3c949674	0.018138148
238	0xbe2cbeab	-0.16869609
239	0xbe3aff97	-0.18261562
240	0xbe196aac	-0.14982098
241	0x3ed07e56	0.40721387
242	0xbdc5cf14	-0.09658638
243	0x3c51a5a3	0.0127958385
244	0x3af39307	0.0018583246
245	0xbd0c1b89	-0.034205947
246	0xbcb63d44	-0.02224601
247	0x3e98a6a3	0.29814634
248	0xbd44a321	-0.048007134
249	0x3ee08711	0.43853047
250	0xbe0efe2e	-0.1396415
251	0xbdfcbd19	-0.12340755
252	0xbe47298a	-0.1944944
253	0x3e8462e8	0.2585671
254	0xbd8e4bfe	-0.06948088
255	0x3e1f1bb6	0.15537915

lstm.bias_ih_l0_reverse f4 [80]
0	0x3d19c4fd	0.03754138
1	0xbe01b351	-0.1266606
2	0x3e14f3d6	0.14546141
3	0x3d8134b5	0.06308881
4	0x3e926d04	0.28598797
5	0xbde036dc	-0.109479636
6	0x3e6880ce	0.22705385
7	0xbb25c106	-0.0025292053
8	0xbd7c93c7	-0.06166437
9	0xbcea6c7b	-0.02861618
10	0xbdca68a5	-0.098832406
11	0xbe1f1b2e	-0.15537712
12	0xbcef0914	-0.029179133
13	0xbd6307c1	-0.055427317
14	0xbc4fc90c	-0.012682211
15	0x3e5185ab	0.20461147
16	0x3da61d86	0.081111
17	0xbdb6ca8d	-0.08925352
18	0x3e2f5a27	0.17124234
19	0x3e6f2708	0.23354733
20	0x3ca7642c	0.020433508
21	0x3e452c16	0.19255099
22	0x3e60fc8f	0.21971343
23	0xbdabe921	-0.08394075
24	0xbe6316f0	-0.22176719
25	0xbdb54fbe	-0.088531
26	0x3dcab2fd	0.098974206
27	0x3c53e9a8	0.012934126
28	0x3e179171	0.14801575
29	0x3d20bcc1	0.03924251
30	0x3e5a984a	0.21347156
31	0xbd63078a	-0.05542711
32	0xbc4591d1	-0.012058691
33	0x3e8a7db6	0.27049035
34	0x3db6eaa6	0.089314744
35	0x3c5abc22	0.013350518
36	0x3e1afc94	0.15135413
37	0x3cd4260f	0.025897054
38	0xbc9f7434	-0.01946459
39	0xbcfe1915	-0.03101782
40	0xbddacc92	-0.1068355
41	0xbdf41be0	-0.11919379
42	0x3e09444f	0.13404964
43	0x3e1d669a	0.1537117
44	0xbdf98ac3	-0.1218467
45	0xbe3c89b8	-0.1841191
46	0xbdd37e0b	-0.10326775
47	0xbdf83ec1	-0.12121344
48	0xbd9a0856	-0.07521121
49	0x3e1ad8b4	0.15121728
50	0xbd30c633	-0.043157768
51	0xbdcff504	-0.10154155
52	0x3dffe0fa	0.12494083
53	0x3be8bc44	0.007102521
54	0x3dc402ca	0.095708445
55	0xbe0d22fc	-0.13782877
56	0x3e1b939b	0.15193026
57	0x3e28efbc	0.16497701
58	0x3dc8f0a4	0.098115236
59	0x3e52da9f	0.2059121
60	0x3e95f245	0.292864
61	0x3d823e68	0.06359559
62	0x3c586f8f	0.013210191
63	0x3e99b705	0.30022445
64	0x3e3aa862	0.18228295
65	0x3d7b1ed1	0.061308686
66	0x3e89e0b6	0.26929253
67	0x3e10db81	0.14146234
68	0x3d33eb67	0.04392567
69	0x3dad8fca	0.08474691
70	0x3ea7fd62	0.32810503
71	0xbd827ab0	-0.06371057
72	0x3e5b3766	0.21407852
73	0x3e6d6f4a	0.23186985
74	0xbda83cf1	-0.08214749
75	0x3e8e3e38	0.27781844
76	0x3d80e1e5	0.06293086
77	0x3d7b171c	0.061301336
78	0x3d0c7515	0.034291346
79	0x3cefb687	0.02926184

lstm.bias_hh_l0_reverse f4 [80]
0	0xbc618f6d	-0.0137671055
1	0xbd8bc479	-0.068245836
2	0x3e854181	0.26026538
3	0x3e020776	0.12698159
4	0xbe034731	-0.12820126
5	0x3d6c20a3	0.057648312
6	0x3e8390ea	0.25696498
7	0xbd46fa3c	-0.048578486
8	0xbb75796a	-0.0037456402
9	0xbe80cf0e	-0.2515797
10	0x3cb46b7b	0.022023907
11	0xbe42effa	-0.19036856
12	0x3e68ab29	0.22721542
13	0x3e46d647	0.19417678
14	0x3e4df605	0.2011338
15	0xbe474f58	-0.19463861
16	0x3d2faff5	0.042892415
17	0xbd752a8c	-0.05985503
18	0x3e42d359	0.19025935
19	0x3b3403f1	0.002746817
20	0x3d56af48	0.052413255
21	0x3b929f3a	0.0044745477
22	0xbd0b9773	-0.03407998
23	0xbdf44027	-0.119262986
24	0xbe978e86	-0.29600924
25	0x3e26657c	0.1624965
26	0xbc625409	-0.013813981
27	0x3d79cc9d	0.06098615
28	0x3e6049cc	0.21903151
29	0xbe1c4147	-0.15259276
30	0xbe170e06	-0.14751443
31	0x3df52c93	0.119713925
32	0x3e36c9d9	0.17850436
33	0x3dbd7fa2	0.0925286
34	0xbe538026	-0.20654353
35	0x3d54c5aa	0.05194632
36	0x3cc1621a	0.023606349
37	0xbd9364ec	-0.07196984
38	0xbc6055c9	-0.013692328
39	0x3e32fb33	0.17478637
40	0xbcac22e5	-0.021012733
41	0x3ceba8ba	0.028766979
42	0x3d335fbf	0.043792482
43	0xbdea7918	-0.11448878
44	0xbe4ad727	-0.19808637
45	0xbde114e1	-0.109903105
46	0xbdc242de	-0.0948541
47	0x3dfda05b	0.12384101
48	0x3e30d531	0.17268826
49	0x3db49289	0.08817012
50	0x3dd7eab5	0.10542814
51	0xbe206c86	-0.15666398
52	0xbe2fe830	-0.17178416
53	0xbd574e51	-0.052564923
54	0xbe2fa869	-0.17154087
55	0xbc021fe3	-0.007942173
56	0x3a2c31f7	0.00065687246
57	0xbd5a4074	-0.053284124
58	0xbe351014	-0.17681915
59	0x3db6f2ba	0.08933015
60	0x3e96e340	0.29470253
61	0x3e6789c4	0.22611147
62	0x3e25d09e	0.16192862
63	0x3e88da68	0.2672913
64	0xbcd093a0	-0.025461018
65	0x3d9b8910	0.07594502
66	0x3d07d0b0	0.033158004
67	0xbe27dee6	-0.16393623
68	0x3e24ce18	0.16094244
69	0x3e5227bd	0.20522971
70	0x3d3be678	0.04587409
71	0xbbb7d576	-0.0056101633
72	0x3cf71e29	0.030165749
73	0x3dd4ceca	0.103910044
74	0x3e4376d4	0.19088298
75	0x3deb0edc	0.114774436
76	0x3c1e830c	0.009674799
77	0x3ea3e6fd	0.32012168
78	0x3e875197	0.26429436
79	0x3eb38f47	0.3507025

lstm.weight_ih_l1 f4 [80, 40]
0	0x3dad13b7	0.08451026
1	0xbe9dde90	-0.30833864
2	0x3e438f23	0.19097571
3	0x3df7b1e5	0.120944776
4	0x3e0fb8b7	0.14035307
5	0xbe493869	-0.19650425
6	0x3e2f11d1	0.1709664
7	0x3db1ffdf	0.08691382
8	0xbe0a9dbc	-0.13536733
9	0xbd1c667c	-0.038183674
10	0xbe49c8f8	-0.1970557
11	0xbe7d2288	-0.24720204
12	0xbbab5e27	-0.0052297297
13	0x3e6d5087	0.2317525
14	0x3db5a9de	0.0887029
15	0xbe81f7d3	-0.25384387
16	0xbceada9d	-0.028668696
17	0xbd8e76e9	-0.06956274
18	0xbe0e7299	-0.13910903
19	0x3e0d1739	0.1377839
20	0xbe5002a6	-0.2031351
21	0x3dde6a5f	0.108601324
22	0x3e642ecb	0.22283475
23	0x3da2cbc0	0.079490185
24	0x3d54accb	0.0519226
25	0xbdb64464	-0.08899763
26	0xbca22d5a	-0.019797016
27	0x3e032c47	0.12809859
28	0x3e857f10	0.26073503
29	0xbd796d71	-0.060895387
30	0xbe554361	-0.20826484
31	0xbd99935d	-0.074988104
32	0x3e82d57f	0.2555351
33	0xbca10dbe	-0.019659873
34	0xbdb146cc	-0.086560816
35	0x3dfd04d4	0.123544365
36	0xbe1a3169	-0.15057911
37	0x3e426216	0.1898273
38	0x3b829900	0.003985524
39	0xbe5ed340	-0.21760273
40	0xbdbbff86	-0.091795966
41	0x3dce5267	0.10074311
42	0x3e995f8d	0.29955712
43	0x3e0fb3b3	0.14033394
44	0x3d1d60c7	0.038422372
45	0x3e5225c6	0.20522222
46	0xbd648c41	-0.05579782
47	0x3e2c39de	0.1681895
48	0xbdb7c169	-0.08972437
49	0xbdb487ca	-0.08814962
50	0x3d7ece3e	0.062208407
51	0x3e29ab5f	0.16569279
52	0xbeb3757f	-0.3505058
53	0x3e9fa636	0.31181496
54	0x3d6098bd	0.054833163
55	0x3e01bb6c	0.12669152
56	0xbd5c402b	-0.053772133
57	0x3e1c29f5	0.1525038
58	0xbccebc6c	-0.02523633
59	0x3d3508d5	0.044197876
60	0x3e75ce76	0.2400454
61	0x3ddfc584	0.10926345
62	0x3c5e5b33	0.013571548
63	0xbe0481ca	-0.12940136
64	0xbe1b61bb	-0.15174
65	0xbc25466c	-0.010087591
66	0xbdb95568	-0.09049493
67	0xbe015bb5	-0.1263264
68	0x3d594ca3	0.053051602
69	0x3d1f832c	0.038943455
70	0xbe0a66ff	-0.13515852
71	0x3d1f5285	0.038897056
72	0xbe6af74f	-0.22945903
73	0x3cb983fc	0.022645943
74	0xbce4c4e9	-0.027925925
75	0xbe279187	-0.16364108
76	0x3dfca8e9	0.123369046
77	0x3e3842d8	0.17994249
78	0x3d71d0ae	0.059036903
79	0xbe8871e2	-0.26649386
80	0x3e0d9e6c	0.13829964
81	0x3e84777d	0.25872412
82	0x3dd60db5	0.10451833
83	0x3e97a32c	0.29616678
84	0xbd0d5e43	-0.034513723
85	0xbd80a440	-0.06281328
86	0x3db99a89	0.09062678
87	0x3dc84967	0.097796254
88	0x3dacb404	0.08432773
89	0xbe53bb71	-0.20676972
90	0x3dd59268	0.104283154
91	0xbea9c5ea	-0.3315881
92	0xbcda62a1	-0.026658358
93	0xbd967ab0	-0.073476195
94	0x3e240c76	0.16020378
95	0xbda3fa1f	-0.08006691
96	0x3e0d583e	0.13803193
97	0x3ec06279	0.3757513
98	0xbe00b5ed	-0.12569399
99	0xbd9d58b3	-0.07682934
100	0x3e7628d9	0.2403902
101	0xbe4def34	-0.2011078
102	0x3e78f69c	0.24312824
103	0x3e043820	0.12912035
104	0x3d2b4d2f	0.041821655
105	0xbda8492b	-0.08217081
106	0xbe8d2644	-0.27568257
107	0xbdaa3f09	-0.08312804
108	0x3dd386e0	0.1032846
109	0xbdf83c6d	-0.121209
110	0xbcaaeb3b	-0.02086412
111	0xbe65d768	-0.22445452
112	0x3ea690eb	0.3253244
113	0x3da7ee38	0.081997335
114	0x3e024da6	0.12724933
115	0x3e270489	0.16310324
116	0x3e5387cc	0.20657271
117	0x3d2cc1e9	0.042177115
118	0xbe36159b	-0.1778168
119	0xbe1115c2	-0.14168456
120	0xbe06fee2	-0.13183168
121	0xbe45b860	-0.19308615
122	0xbe28dccd	-0.16490479
123	0x3e6955f8	0.227867
124	0xbc261c8e	-0.010138644
125	0x3cc77955	0.024349848
126	0xbeca238e	-0.3948025
127	0x3cf1b670	0.029505938
128	0x3e8fe837	0.28106853
129	0x3dca21ce	0.09869729
130	0xbe146102	-0.1449013
131	0xbdfc8c71	-0.123314746
132	0xbda274e4	-0.07932451
133	0xbd75ccfb	-0.060009938
134	0x3e0bf4a1	0.13667537
135	0xbe5d4ae4	-0.216106
136	0x3e9a37fe	0.30120844
137	0xbe21a815	-0.15786774
138	0x3dc923f5	0.098213114
139	0xbe53aefc	-0.2067222
140	0xbe577ded	-0.2104413
141	0xbd97f5fb	-0.07419964
142	0x3d460ead	0.04835384
143	0xbdadd9d1	-0.08488811
144	0x3ddfa22a	0.10919602
145	0xbe3bc9a0	-0.18338633
146	0x3c0c0db3	0.008548188
147	0x3e0f7218	0.14008367
148	0xbe44d551	-0.19221999
149	0x3b71809c	0.0036850339
150	0x3eac24ba	0.3362177
151	0xbe5e817e	-0.21729085
152	0x3d14d08f	0.03633171
153	0x3eb5ab1c	0.3548211
154	0xbd2f3e81	-0.042784218
155	0x3e203d9a	0.15648499
156	0x3dddc3ce	0.108283624
157	0xba02b316	-0.00049857923
158	0x3dd4985e	0.10380624
159	0x3dc71b39	0.09721989
160	0x3d1a8a4b	0.037729543
161	0x3ecd3f38	0.40087295
162	0xbdcc8069	-0.0998543
163	0xbe1b4b5d	-0.15165468
164	0x3edca458	0.43094134
165	0x3ef5f008	0.48034692
166	0x3d1d78d6	0.038445316
167	0xbc490e44	-0.012271468
168	0xbe76ffc6	-0.24121007
169	0x3d4e130e	0.05031114
170	0xbdd5f0e9	-0.104463406
171	0xbce160ef	-0.027512042
172	0xbe69b0a0	-0.22821283
173	0xbdbddb5e	-0.092703566
174	0x3ee32096	0.443608
175	0xbe83eda5	-0.25767246
176	0x3de432d8	0.1114251
177	0x3e5cbcd4	0.21556407
178	0x3de6b1a1	0.11264349
179	0x3ed48db6	0.41514367
180	0xbe8389d4	-0.25691092
181	0xbdd64e04	-0.10464099
182	0x3ed350d4	0.41272604
183	0x3bbb9a9b	0.0057252175
184	0xbc3b40bb	-0.011429007
185	0xbdf58f39	-0.11990208
186	0xbeb76807	-0.35821554
187	0xbe285318	-0.16437948
188	0x3cf25591	0.029581817
189	0x3e398233	0.18116073
190	0xbd9ccf88	-0.07656771
191	0xbe554de6	-0.20830497
192	0xbea21209	-0.31654385
193	0xbe2068b6	-0.15664944
194	0x3cb44f05	0.022010336
195	0xbe7f1cef	-0.24913381
196	0x3ec80ee7	0.3907387
197	0x3e975ef3	0.29564628
198	0xbec2b44e	-0.38028187
199	0xbe9e7194	-0.30946028
200	0xbbf80b30	-0.007569693
201	0x3df31ac1	0.11870337
202	0xbd21a530	-0.039464176
203	0xbd1e4d22	-0.03864778
204	0x3d0ee674	0.034887746
205	0x3c883170	0.016625136
206	0xbd3f4c81	-0.04670382
207	0x3d8ed04e	0.06973325
208	0xbdf536b3	-0.11973324
209	0xbe1d9459	-0.15388621
210	0x3df2d681	0.118573196
211	0xbe14b7ce	-0.14523241
212	0x3b7e19b6	0.003877265
213	0x3d9c19dd	0.076221205
214	0x3e7a06d8	0.24416673
215	0xbe319ee2	-0.17345765
216	0x3e6e01fa	0.23242941
217	0x3e82faba	0.25581914
218	0xbe6d4208	-0.2316972
219	0xbe595227	-0.21222745
220	0x3de725fd	0.112865426
221	0xbd9ab91e	-0.075548396
222	0x3e972c0e	0.295258
223	0xbe8156a2	-0.25261408
224	0xbce0e7f7	-0.02745436
225	0x3e34f993	0.1767333
226	0xb9b29acf	-0.00034066147
227	0xbd8fbfa2	-0.07018973
228	0x3d9017c9	0.07035787
229	0xbe3d8904	-0.18509299
230	0x3e5faee8	0.21844065
231	0xbe81ba60	-0.25337505
232	0xbea5876d	-0.32329884
233	0xbddfa3d3	-0.10919919
234	0x3c1fa093	0.009742874
235	0xbd713288	-0.05888608
236	0xbe4bdcc4	-0.19908434
237	0x3ea4f9ae	0.3222174
238	0x3ddac837	0.10682719
239	0xbe84b8c9	-0.2592223
240	0x3e122193	0.1427062
241	0xbe09eadb	-0.13468497
242	0xbe2a24ec	-0.16615647
243	0x3d42d006	0.047561668
244	0xbd1c47e4	-0.038154498
245	0xbd3a1b67	-0.04543629
246	0x3e89d112	0.2691732
247	0xbdda51b4	-0.10660115
248	0x3e047b90	0.1293776
249	0x3d1ddbd2	0.038539715
250	0x3e709bb5	0.23496898
251	0xbe304e5a	-0.17217389
252	0xbeb6e101	-0.3571854
253	0x3ebbc69e	0.3667497
254	0x3d800efa	0.062528566
255	0xbd9a9624	-0.07548168
