data/embD/hoc4/model_1/hoc4_best.pt (torch, 341645 bytes, 87 tensors)

embedding.weight f4 [6, 20]
00000000: 0000 0000 0000 0000 0000 0000 0000 0000
00000010: 0000 0000 0000 0000 0000 0000 0000 0000
00000020: 0000 0000 0000 0000 0000 0000 0000 0000
00000030: 0000 0000 0000 0000 0000 0000 0000 0000
00000040: 0000 0000 0000 0000 0000 0000 0000 0000
00000050: 54a5 1fbf 1f7e 20bf 50c2 08be 586e d6bf
00000060: 22f0 833f f466 fbbd 6377 5b3d 92f1 87bf
00000070: 7689 bb3f 0b08 d8bf f4ac c6be 054b d7be
00000080: 60a5 94bf 1327 2cc0 bfa6 ec3f a935 2a3f
00000090: c3e8 b1bf 932a 833f 5c40 c53e 6b2f 84bf
000000a0: 83d0 ae3c 2a91 0bbc a4ba 58bf fa68 173e
000000b0: 75a7 00c0 b0b1 553f 6549 863e 441d c7be
000000c0: 9606 cd3f 9bf6 e7bd 7767 293f fd6d fd3f
000000d0: f35e 0abf d3e1 523f 5ad6 5f3d 133f 57be
000000e0: 3198 d23e 65be c1bf 0a0a bcbf 7ac1 173e
000000f0: d2e3 03c0 853e 583e a7af 68be 89f0 9ebf
00000100: d2b7 a93f fa5a 1ebe 09eb d13f 1faa 883f
00000110: 6ffb 813d 4a6a 053f 1837 bf3f 1385 a1be
00000120: e288 09bc f574 b3bf 27cf 063c 9b59 46bf
00000130: 7564 2dbf 3248 4b3e d856 edbe 116c 51bf
00000140: 1ba4 f1bf 15ea 85bd 4f7f 9bbf e630 753e
00000150: 8027 d63e 92db a1bf 75f1 04bf f06b 0b3f
00000160: dc3e 9f3f 0727 4a3f 2f99 2b3f 1d5a 073e
00000170: f71f babf a0bb eabf 3d09 d8ba a847 cfbf
00000180: a93d 11bf db10 5b3f de51 99bf 5503 c3bf
00000190: efe2 a63f 0705 c7bb 2a91 953f 18a7 b2bf
000001a0: 0702 adbe 0b89 ccbd 4aad b9bd ef74 fc3e
000001b0: fa9d f53e fd63 203f 3917 353f be60 ce3d
000001c0: f557 8cbf ff3c dabe c62e a0bf c744 0ebf
000001d0: bd65 f93e be23 7f3f cd74 a03f 1f14 08bf
0.0 0.0 0.0 0.0 0.0 0.0 0.0 0.0
0.0 0.0 0.0 0.0 0.0 0.0 0.0 0.0
0.0 0.0 0.0 0.0 -0.62361646 -0.62692446 -0.13355374 -1.6752424
1.0307658 -0.12275496 0.053580653 -1.0620596 1.4651325 -1.6877455 -0.38803828 -0.42049423
-1.1612968 -2.689885 1.8488387 0.6648813 -1.3899158 1.0247368 0.38525665 -1.0326971
0.02133966 -0.0085184965 -0.8465979 0.14786139 -2.0102208 0.83474255 0.2622787 -0.38889515
1.6017635 -0.11326333 0.661735 1.9799191 -0.5405113 0.8237583 0.05464778 -0.21020155
0.41131738 -1.5136229 -1.4690564 0.14819899 -2.06078 0.211176 -0.22723256 -1.2417156
1.3259223 -0.15464392 1.6399852 1.0676917 0.06346785 0.5211531 1.4938688 -0.3154684
-0.008394452 -1.4020067 0.0082281 -0.7748048 -0.6773141 0.19851759 -0.4635532 -0.8180552
-1.8878206 -0.06538788 -1.2148226 0.23944435 0.4182701 -1.2645133 -0.51930934 0.54461575
1.2441058 0.789658 0.67030615 0.13217969 -1.4541005 -1.8338509 -0.0016482245 -1.6193743
-0.5673471 0.85572594 -1.1978109 -1.5235392 1.3038005 -0.0060735974 1.1684926 -1.3957243
-0.3379061 -0.09987076 -0.090662554 0.49307963 0.4797209 0.6265257 0.7073856 0.10077046
-1.0964342 -0.4262466 -1.2514274 -0.55573696 0.48710433 0.99663913 1.2535645 -0.531557

lstm.weight_ih_l0 f4 [80, 20]
00000000: 531b 5cbe 2c80 693e b58a 273d d7b9 0ebe
00000010: 1c73 93bc 1969 2c3e 3b12 723d 0e90 2a3c
00000020: 7633 4b3e 6136 63be b7e7 3bbd 20da 243e
00000030: b4e3 33bd ffb3 9d3c cfd9 8d3e 92eb 84bd
00000040: 2799 713d 13e7 523e 22e7 6b3d 5c62 4ebe
00000050: 8fda 853e 4cde 2abe 67f5 b83e 1b8e f03d
00000060: ee1b 623e 017e aebd 26e3 c3bc 470e 22be
00000070: ca9e ab3d 8c00 883e 3b75 a0bb 4eef a1bd
00000080: e1b8 383e 5bbd 68be 8d65 c93d 9d42 44be
00000090: 0402 5e3d c365 8f3d 2f82 753e b394 bc3d
000000a0: d3e4 2e3d 587f a33d 94f2 3fbe 4b37 0f3e
000000b0: 10a9 b2bd e54a 253e 0845 b43d 5275 113e
000000c0: 8dcc 693d fb58 c23d 318c 003d aab0 603d
000000d0: 2410 30be ab03 27be e4a8 6dbe c89d 0c3e
000000e0: 8c96 07bd d39a 37be 23c1 d03d b971 63be
000000f0: 5dc7 053e 3366 c63d 7d91 1ebe ad5f 73be
00000100: a12b c13c 6b8b edbd 33ff 6ebe 2f91 dfbc
00000110: a28a 25bc 52e5 5f3e a175 dc3d 1e7c 663e
00000120: 221f bebd 9638 77be 0d65 1bbe 298c 5bbe
00000130: 347a 56bb 6286 1bbc 30b6 88ba 6172 9abe
00000140: e918 dabd f683 ea3d 12b1 683d b588 273e
00000150: ed30 c13d 85b6 46be 94b8 c7bb e57e cbbd
00000160: 5247 26bc 1c83 93bc 2c75 773e 7777 33bd
00000170: fa26 103e 10fd ddbd 723b d2bd 7fb0 083c
00000180: 77f4 83bd f706 183d 4949 8bbd 5add b63d
00000190: be44 b3bd d523 7b3d b588 803e 94c8 eebd
000001a0: 2233 bc3d 63bc 073e 5e47 423d ad7f d4bc
000001b0: 621c a6bd c7d8 a23d c738 6d3e 46ae b63d
000001c0: dc3a 29be b2cd 3cbe 4db5 bfbe 63c1 70be
000001d0: c0be 89bd 8135 9abd c5b5 c33d 71d1 5dbe
000001e0: 3ac0 ef3d 3904 0b3d e57f 2ebe 80f9 8ebe
000001f0: dde6 ba3d ddd8 673c 88af a23d 1fc2 703e
00000200: f4d4 0dbc 284b 83bd b445 a33d 2aee 6d3d
00000210: 10ac aabe d990 aebe bf2c 793d d729 73be
00000220: ddd2 d63d fe67 d93d 6732 abbd ed42 85be
00000230: 32dd 99bd bca1 89be bd45 a8bd 204a b8bd
00000240: 3a36 5fbe f4b9 bb3c c97b 2fbe 69aa 89bd
00000250: 0f66 b33e ad3b d0bd c9ad 5c3e 35af cbbd
00000260: ea9a 96be e913 4b3d 8924 013e 85e6 0bbe
00000270: 70c0 1a3e fe58 a1bd 1651 403e 6d6d d83d
00000280: ad1c 19be 4439 2ebe 39d6 653e 0d55 ecbd
00000290: 5302 37be 83e4 1fbe c6da 033e 4c6e e73d
000002a0: ec3c 473d 260b b4bc d9fb b93d 57a5 28bd
000002b0: 5565 a4bd f1b9 913d 321d 3abe 9cb5 f4bd
000002c0: d3c2 37be 9113 9abd e41f 623e 98c7 49be
000002d0: d29b 66be b7a8 893e 11de 9cbd 0e53 4abe
000002e0: 2fcf 2dbc 451b 903d 105b 91bd 0723 023d
000002f0: e45e 583e 8203 393e 7457 d8bc 8e9b ddbb
00000300: 9c16 b5bd d594 12be b6e9 d0bd 6ddc bdbc
00000310: 9657 0b3d f16e 9a3d 4e61 0ebe 360d 87be
00000320: fbf4 603d 2cd9 b1be df39 25be 6f6c 2cbc
00000330: e923 dfbc e85a 0f3c 88cb 503e 06e3 2cbd
00000340: e3b0 873b 9d19 b23d f9b4 073e 39c3 0b3e
00000350: 083b 80be bf1b 563d 90e7 4cbd 5b6a 283e
00000360: e54a 2abe d799 f13d 6bd7 403d f9f5 ca3b
00000370: 5173 b0bb 0cb2 433d fbeb f3bb 1c01 5fbd
00000380: 4587 60be 5236 bd3d c109 973b 269b 433e
00000390: 5da9 debd b985 4c3e d315 07be 6c72 463e
000003a0: c47d 413e 688e 363e 8b6b 0d3e 59e2 153e
000003b0: debb bc3b a58b c7bc 6b6d ca3b 1a48 72bd
000003c0: 9f47 bcbd 9e45 0e3e a319 88be 7457 cc3d
000003d0: 1d6c 703d 583e 56be 063d b73d b779 863e
000003e0: 2fe3 e83d 73f1 e0bd 1d11 03bd 1bc1 c03d
000003f0: 7517 223e a307 23bc b982 243e 8f9b a83d
-0.21494798 0.228028 0.040903766 -0.1393808 -0.017999224 0.16836967 0.059099417 0.010410322
0.1984385 -0.22188713 -0.045875277 0.16098833 -0.043918326 0.019250868 0.27705237 -0.06490244
0.058983948 0.2059596 0.057593472 -0.20154709 0.2614331 -0.16686362 0.36124727 0.117458545
0.22080967 -0.08520127 -0.023912024 -0.15825759 0.08379896 0.26562917 -0.0048967875 -0.07906972
0.18039276 -0.22728483 0.098338224 -0.19166036 0.05420114 0.070018314 0.23975442 0.092080496
0.042698693 0.07983273 -0.1874488 0.13985936 -0.08723652 0.16141851 0.08802229 0.1420491
0.05707984 0.09489628 0.031383697 0.05485598 -0.17193657 -0.16309993 -0.23208958 0.13732064
-0.033102557 -0.17930155 0.10193088 -0.2221135 0.13064332 0.09687462 -0.15485187 -0.23766966
0.023580374 -0.115988575 -0.23339538 -0.027290909 -0.010103853 0.21864823 0.107646234 0.22508284
-0.09283282 -0.2414268 -0.15175267 -0.21440186 -0.0032726647 -0.009492489 -0.0010430273 -0.3016539
-0.106492825 0.11450951 0.056809492 0.16360743 0.0943316 -0.19405563 -0.0060950015 -0.099363126
-0.01014884 -0.018006854 0.24165791 -0.043815102 0.14077368 -0.108392835 -0.102652445 0.008342861
-0.06443112 0.037116017 -0.068010874 0.08928938 -0.08753346 0.06131347 0.251043 -0.11659351
0.0918944 0.13255458 0.047431342 -0.025939787 -0.08110882 0.07951503 0.2316619 0.08919959
-0.1652636 -0.18437842 -0.3744301 -0.23511271 -0.06725836 -0.07529736 0.09556154 -0.21661927
0.11706586 0.033939574 -0.17040975 -0.27924728 0.09126065 0.014150825 0.07943636 0.23511551
-0.008656729 -0.06410819 0.07972279 0.05808846 -0.33334398 -0.34094885 0.06083369 -0.2374643
0.10489438 0.10615538 -0.08359223 -0.26027623 -0.07512893 -0.26881206 -0.082164265 -0.08998513
-0.2179803 0.022915818 -0.17137064 -0.06721956 0.35038802 -0.10167632 0.21550669 -0.099455275
-0.29415065 0.049579535 0.12611593 -0.13662155 0.15112472 -0.07878302 0.18780932 0.10567746
-0.14952345 -0.17014033 0.22445 -0.1153966 -0.1787198 -0.15614514 0.12876424 0.11300334
0.048642084 -0.021977972 0.09081239 -0.041173305 -0.0802714 0.07115544 -0.181752 -0.11948702
-0.17945413 -0.07523263 0.22082478 -0.19705045 -0.22520378 0.26886532 -0.07659543 -0.19758245
-0.010608478 0.07036451 -0.07097447 0.031771686 0.21129948 0.18067744 -0.026408888 -0.0067629283
-0.08842203 -0.14314587 -0.10200827 -0.023176396 0.034019075 0.07540692 -0.13904306 -0.26377267
0.05492113 -0.34736001 -0.16135357 -0.010523899 -0.027238803 0.008749701 0.20390141 -0.042208694
0.0041409596 0.086962916 0.1325263 0.1364869 -0.25045037 0.052272554 -0.050025523 0.16446821
-0.16630132 0.11796921 0.04708044 0.006193873 -0.0053848405 0.04777722 -0.0074439025 -0.054444417
-0.21926601 0.092388764 0.004609317 0.19102153 -0.10872147 0.19972886 -0.13191919 0.19379586
0.18895632 0.17827761 0.13810556 0.14637126 0.0057597 -0.02435858 0.0061775944 -0.059150793
-0.09193348 0.13893744 -0.2658206 0.09977618 0.058696855 -0.2092222 0.08947186 0.26264736
0.11371457 -0.10983553 -0.031998742 0.09411832 0.1582926 -0.009950551 0.16065492 0.082327954

lstm.weight_hh_l0 f4 [80, 20]
00000000: 49e6 393e 0b1b 953e d003 c93c 9643 3f3e
00000010: 76ea 643d ba3b 4ebe 2dbf a8be df96 4b3e
00000020: 2534 90be dfd6 823d 53c6 9c3e 138c ed3c
00000030: e1b4 35be efcd 04be ba43 ca3d 5571 013f
00000040: 5f22 a9be 1faa 073e 6f3b 19be 270d 7bbe
00000050: 6ffe 143b bfdd 55be 45e8 1f3b 97e0 64bd
00000060: 514f c2bd 3f4b 1c3e ad51 9bbe 5822 5d3e
00000070: 1d27 6abe eff3 8d3d a15e 0a3e 80ef 8b3e
00000080: 14ed ad3e 97cf c0be 55c0 bebe 608b af3e
00000090: 3d3e 333e 98c5 84bd 7124 03be 8427 2b3e
000000a0: 5dd4 6abd 06e9 6dbd b7cf 0cbe 7aea c6be
000000b0: 7954 3c3e 354a 0cbe db4e 62be 2c5c bcbd
000000c0: 3802 6ebe 1726 6bbb f628 c2bd fd6f 0fbe
000000d0: 5617 b9bd 1957 e2bd e2fd 9fbd cc9a 5abd
000000e0: 646e 183d fce2 a73e fbc8 cdbc b89b 773e
000000f0: e5ae 943e 7016 a63d 9410 b83d 8b92 46bd
00000100: 8ee4 843e 90f6 bcbb df0a 863b 1120 0ebe
00000110: 5125 bb3d 8087 ec3d 1a55 183e 726c 4d3e
00000120: 39ee 933d 6b4c 98bd bf02 b7bc eaf9 e43d
00000130: a72e 823d 4e4f 38bd cb09 193e 0811 b4be
00000140: 306f cdbc bc3e ca3d 28f7 71bd a2c6 bebc
00000150: 494b 9b3e 84a1 14bd c86d 11be b3eb e8bc
00000160: 8694 143e ce1a 183e a160 6fbe 8b04 b33e
00000170: bd33 09bd 2394 debe a8bb a13d b549 3e3e
00000180: b0e2 10ba c9be 1fbc 90bd c33d c3d9 cdbc
00000190: 7da6 88bd 522b 673d 0307 a13d 71ae 94be
000001a0: f951 eabc 8222 4cbe 90c4 cebd 23dd bebe
000001b0: fd5d 2bbd c08e 2cbe c904 bf3d cbe6 b43c
000001c0: 5ebb 77be 518c 1f3e 7dbe c53d f776 69bd
000001d0: a3c9 023e 21f7 533e 5ff7 c7bc 8143 9fbd
000001e0: 8ece 653e 7456 373e e143 3a3d 946f 5e3d
000001f0: 646e 33bd eb27 903d 2c40 e5bc 1516 d3bd
00000200: 35d7 2abe 1d88 9abe 898c 843e 1e48 23be
00000210: d679 1ebe 55a0 7c3e 659a 65bd 31d9 3ebe
00000220: 666e bcba dfb3 86be 9433 b73d 8096 5fbe
00000230: ebe1 003e d8c9 123e f27e d8bd 1286 13bd
00000240: 0333 c5bc 50e2 3d3e 18c7 443e f51e 4ebe
00000250: 98a3 2fbd 2d6d 5b3d 711d 9c3e df69 9f3c
00000260: 5bd7 2d3e 8cb5 26be fd46 6b3e 803e a13e
00000270: de12 8e3e 31ce 233e 438d e3bd 2e88 15be
00000280: 8e32 93bd 65aa 9fbc d9aa db3d f6a5 283e
00000290: 0d8f a23b 753a a83d b40e 64be dcac 2dbe
000002a0: e326 6e3c 8880 d73d 4b1b 653e a585 1cbd
000002b0: b806 98bd 0453 84be 8467 773e 2d36 e83d
000002c0: acfa a03c 2829 b93d 40ea db3c 21e7 06be
000002d0: 13ea dc3e 4e23 5abd 745e 8f3e 6e2b 223e
000002e0: c7b1 1a3e 7f93 c53d 8466 dbbd c2a6 74bd
000002f0: 2d58 86bd b4a8 2dbe a5c6 573e c10b ad3e
00000300: d122 33be 2a4e aabe 9b82 b5bd f3a9 e93e
00000310: 8351 463d 5e15 1a3e 44c8 973e cad2 f9bd
00000320: 3178 f0bc b329 63be 73b6 803d 0622 c7be
00000330: bedf 9cbd ba4a 8b3e 8ff7 8c3e aabf 193e
00000340: ed7c dc3d 068b 15be 84d7 923d bf19 6a3e
00000350: 5ef0 ccbd a059 153e 9ab1 9abe 7962 e6bd
00000360: 1803 533d 1b6f 963e d66f 73bd 3ad1 ac3d
00000370: 74e6 10be 4e33 1e3e 46b6 a43c 4637 6d3e
00000380: 6912 023e 1242 5a3d d2f5 da3d 9b79 a3be
00000390: 6485 023e eafc 41bd fad4 82bd 313c 523c
000003a0: 57ff 873e e1c0 8b3e a8ef b73d 02f7 e9bd
000003b0: 12aa 373e 8471 78be 4e4e 153d dd02 efbe
000003c0: bddc 8f3e 094a 13be 36f2 babd 7aea c73d
000003d0: db35 983e 9623 9cbe 2dc1 38be 3006 44be
000003e0: aead 82be f8c5 8fbe 5c65 4abd 44ea fdbd
000003f0: 358c 0f3e 7865 6ebe 8b54 043e 71df f93d
0.18154253 0.29122195 0.02453795 0.18678126 0.055887662 -0.20139971 -0.32958356 0.19881772
-0.28164783 0.0638864 0.3062006 0.028997457 -0.17744781 -0.12969182 0.09876199 0.50563556
-0.33034036 0.1324849 -0.14964078 -0.24516736 0.0022734662 -0.2088537 0.0024399918 -0.055878248
-0.09487785 0.15263079 -0.3033575 0.21595132 -0.22866483 0.06931292 0.1351266 0.27331161
0.3396994 -0.37658378 -0.37256113 0.34286022 0.17504211 -0.064830005 -0.1280687 0.16714293
-0.05733143 -0.058083557 -0.13751112 -0.38850766 0.18391599 -0.13700183 -0.22100393 -0.09197268
-0.23243034 -0.0035880858 -0.09480469 -0.14007564 -0.09037654 -0.11051769 -0.07812096 -0.053370282
0.03721465 0.32790363 -0.025120249 0.24180496 0.29039684 0.08109748 0.08987537 -0.048479598
0.25955623 -0.005766697 0.0040906514 -0.1387942 0.09137977 0.11549282 0.14876214 0.200609
0.07223172 -0.074364506 -0.022340177 0.1118048 0.063565545 -0.044997506 0.14945142 -0.35169244
-0.025077432 0.09875247 -0.059073597 -0.023288075 0.30330876 -0.036286846 -0.14202034 -0.028432703
0.14509782 0.14853975 -0.23376705 0.34964404 -0.033496607 -0.43472394 0.07897121 0.18582805
-0.0005526943 -0.009750077 0.095576406 -0.025128251 -0.0667238 0.056437798 0.078626655 -0.29039338
-0.02860354 -0.19935039 -0.10096085 -0.3727809 -0.04183768 -0.1685133 0.093270846 0.022082707
-0.24192569 0.1558087 0.096554734 -0.05699822 0.12772231 0.20699741 -0.024409948 -0.07776547
0.22442076 0.17904073 0.04547489 0.054305628 -0.04380645 0.07038864 -0.027984701 -0.10306946
-0.16683657 -0.3018197 0.2588847 -0.1594548 -0.15476164 0.24670537 -0.056055445 -0.1863754
-0.0014376163 -0.26309106 0.089453846 -0.21834755 0.12586181 0.1433481 -0.10571088 -0.03601653
-0.024072176 0.18543363 0.19216573 -0.20128997 -0.042880625 0.053570915 0.30491212 0.019459663
0.16976683 -0.16280192 0.22976299 0.31492996 0.2774877 0.15996625 -0.11110928 -0.1460273
-0.07187377 -0.01949043 0.10725946 0.16469559 0.0049609006 0.08214275 -0.22271234 -0.16960472
0.0145356385 0.10522562 0.22373693 -0.03821339 -0.074231565 -0.25844586 0.24160582 0.11338458
0.01965078 0.09041053 0.026845098 -0.13174106 0.43147334 -0.053256325 0.2800175 0.1583688
0.15106879 0.09647273 -0.10712913 -0.059729345 -0.06559787 -0.16958886 0.2107187 0.3379803
-0.1749375 -0.3326276 -0.08862802 0.45637473 0.04841758 0.15047213 0.29644978 -0.12198408
-0.029354187 -0.22183876 0.062847994 -0.38893145 -0.07659863 0.2720545 0.27532622 0.1501452
0.10766015 -0.14603814 0.071700126 0.22861384 -0.10006784 0.1458497 -0.30213624 -0.11249251
0.051516622 0.29381642 -0.059432827 0.08438344 -0.14150411 0.15449259 0.020106446 0.23165616
0.12702335 0.053285666 0.10691418 -0.31928715 0.12746197 -0.04736034 -0.06388278 0.012831734
0.26561996 0.27295592 0.08981258 -0.11424066 0.1793597 -0.24262053 0.03645163 -0.46681872
0.28098097 -0.14383711 -0.09128229 0.0976152 0.29728588 -0.304959 -0.1804244 -0.19142985
-0.25523132 -0.28080726 -0.04941307 -0.12398198 0.14018328 -0.23280895 0.12922876 0.12200821

lstm.bias_ih_l0 f4 [80]
00000000: d5a6 d63c 0332 003e b426 04bd 13c4 ac3e
00000010: 4abf 38be 8bbe 663e 7e9d b8bd 079e 843d
00000020: eab0 30be 6c96 4cbd 06f3 97bb 4065 2bbe
00000030: 6056 1c3e 13b7 42bb 8ce8 79bb b801 223d
00000040: 9091 773e 7448 09be 6aff 563e 1eb4 21bc
00000050: 4fca 503e b29c 1f3e f4eb 4b3e 74bc 543c
00000060: ec57 473e 662e 8bbd 69cc 2a3e c102 9f3d
00000070: bc1d 163e a6d9 40bd ac4f c93e fc61 203e
00000080: 2ed7 4bbd 4932 8e3b ced7 1e3d 56d4 d03d
00000090: 6c32 17be 2c32 e7bd 4836 a53d 33a6 853e
000000a0: 1fc0 1f3d 6f47 e23d 6d23 713e 2d66 043e
000000b0: 8f5e f3bd 4d2b 32bc 5f83 0ebe 39a1 e93c
000000c0: 8af6 20be 43d6 f8bd e538 60bc e27f 3cbe
000000d0: 0be6 12be 7d5c 26bd bc5f 01be 414e fa3b
000000e0: 60b4 0b3e 0541 393e 6d0f 3b3e 360a 4bbe
000000f0: 73ac 203e eae2 62bc 3120 1c3e b44b 0b3e
00000100: c695 7ebd 98e2 323c baca 8a3e 725a ac3e
00000110: cae1 1c3e 5b2f a4bd 623c 153e 45b0 543d
00000120: eb53 64bd 4a3d 1d3e 80b2 373e f9a3 76bc
00000130: e261 7c3e a33c 2cbd ddf0 833e 7bb5 303d
0.026202599 0.12519078 -0.032263473 0.33743343 -0.18041721 0.22533624 -0.09014414 0.06475454
-0.17254987 -0.04994814 -0.004637125 -0.16737843 0.15267324 -0.0029711172 -0.0038132994 0.03955242
0.24176621 -0.13406545 0.2099587 -0.009869603 0.20389675 0.15587118 0.19914228 0.012984384
0.19467133 -0.06795959 0.16679539 0.07764197 0.1465978 -0.047082566 0.39318597 0.15662378
-0.04976576 0.0043394906 0.038780026 0.1019675 -0.14765328 -0.112888664 0.08066994 0.26103362
0.03900158 0.11048781 0.2354867 0.12929602 -0.1188327 -0.0108745815 -0.13917302 0.02851926
-0.15719047 -0.12150242 -0.01368544 -0.18408158 -0.14345567 -0.040615547 -0.12634176 0.007638723
0.13643026 0.18091209 0.18267603 -0.19828114 0.15690784 -0.013848046 0.15246655 0.13603097
-0.062154554 0.010918282 0.27107793 0.33662754 0.15320507 -0.08016845 0.14573815 0.051925916
-0.055744093 0.15355411 0.17939186 -0.015053743 0.24646714 -0.042050015 0.25769702 0.043141823

lstm.bias_hh_l0 f4 [80]
00000000: 8041 1bbe 78c9 8c3c f9e7 553e d4e4 3f3d
00000010: 3c84 3fbe d707 eebd b466 063e fa65 b93d
00000020: 51bf 893c 9915 3f3e 5f12 903b 322f 133e
00000030: d2d3 14be 1c43 293e e7fe 623c 6093 443e
00000040: 29df 9c3e fd0e 0dbe c030 71bb 7434 173e
00000050: 0ac5 273e 4845 2d3e 1c7e 23be 48c1 963d
00000060: 7d86 45be 16e5 713e 02a7 103d aecb d1bd
00000070: c0e7 573e c22f 913e 26ab 93bb 1e06 88bc
00000080: 7821 42bd ad46 6f3d 74c5 1e3e 582d 4abe
00000090: 089a cbbd 0a51 d53d 11b7 93bd 8c50 ecbb
000000a0: 4d05 52be faf2 61be 6180 1d3e 4916 0abe
000000b0: cfdf 67be 9e6f 99bd 1187 efbd a7b3 963d
000000c0: 31c2 31be d69f b3bd c9be 133e 32c4 063e
000000d0: 7204 543d 4c7c 423d 2b8f e03d 052a 43bd
000000e0: c2db 723e 7fbb 4f3e b1a9 2f3e e454 3cbe
000000f0: e453 45bc 0282 803e cec3 2e3e 2a2f 693e
00000100: 7f39 413e 11e5 033d 9b2e 6c3d 2257 733e
00000110: 216d bb3d 140c b7bc a2d0 853d 8539 96bb
00000120: 0ab7 8a3d bb24 6bbd 5be6 d43d 33ba 713d
00000130: c131 48bc b951 10bd 1059 383c 45ad 6a3e
-0.15161705 0.017185912 0.20889272 0.046849087 -0.18702787 -0.11622589 0.13125116 0.090526536
0.01681486 0.18660583 0.0043967213 0.14373472 -0.14533928 0.16529506 0.013854719 0.19196844
0.30639008 -0.13775249 -0.003680274 0.14766103 0.16383758 0.1692096 -0.15966076 0.07361084
-0.19289584 0.23622546 0.03531552 -0.10243927 0.210845 0.2835675 -0.0045064865 -0.01660448
-0.0473952 0.05841701 0.1550501 -0.1974386 -0.099414885 0.104158476 -0.072126515 -0.0072117504
-0.20509835 -0.22065344 0.15381004 -0.13485064 -0.2264397 -0.074919924 -0.11695684 0.07358485
-0.17359234 -0.08770721 0.14428248 0.1316078 0.051762052 0.04748182 0.10964807 -0.047647495
0.23716643 0.20286368 0.17154576 -0.18391758 -0.012043927 0.25099188 0.17066881 0.22771898
0.1886959 0.032200877 0.057661634 0.23763707 0.09151674 -0.022344626 0.06533934 -0.0045844936
0.06773193 -0.057408076 0.10395499 0.059015464 -0.0122188935 -0.035234187 0.011251703 0.2291766

lstm.weight_ih_l0_reverse f4 [80, 20]
00000000: 7d8b 263e 573d 823d 3055 0fbe a35d 263d
00000010: 1562 02bd 51a8 a6bb 8b78 90bd d03e 42be
00000020: 4a84 ffbc 2e86 e8bc 0b9f 23bd cdd6 11bd
00000030: 0915 f23d 13ad 263d a7ee 37bd 32b4 153e
00000040: 9a11 03be 6218 ad3d 2919 323e 9d2b 583e
00000050: 9c2f 53bd 4d99 933c 225b 763c 7686 50be
00000060: b899 9cbd 80b9 253e b9a8 a13c b783 34be
00000070: 89b9 b73d 4921 6dbd c23e d13d f6cd 763e
00000080: d78f d63d 5d48 4c3e 70fe cebd fb95 45be
00000090: 8e0d 0e3e 81be 6c3e e6ff d83d 1622 4dbe
000000a0: 1f1f 10be 5a7e dcbd c444 51bb cfa4 07bd
000000b0: c3a1 87be fd9c 233d 49e0 75be 9cfc 233d
000000c0: 0e5e e2bd c2fe 2fbe 9de5 42bd 5c4b 1e3e
000000d0: 4e6f af3d ea58 1fbe d8cd f13d 7bde 3c3d
000000e0: c5b4 423e 7ea6 603e f4f1 e2bc 3307 f7bc
000000f0: b3d7 753e 498e 63be 06ee 453e 32cd 693e
00000100: c0f1 4dbe c8a0 4ebe aca5 50bd 4be4 343e
00000110: 4122 bdbd 6145 ecbd 5d4d fdbd 7a22 373e
00000120: b274 78be 6b78 4fbe a8e7 27be aef7 153e
00000130: 601a d5bd c211 053e 7814 223e e6ed 883d
00000140: dbff 613e 30e6 b5be 4267 dfbd 85f3 6d3e
00000150: bc5d c03d 8eed 72be 0f4f d1be ae6b 2a3b
00000160: 9c6c 163e 029a 9e3d eea4 08bc e63d 823e
00000170: ca97 f1bc 4e6e 9fbd d572 e13d aab1 cb3c
00000180: 5fe4 613e 223c 11be 9ec2 1e3e d9ac 26be
00000190: 2496 4d3e 0255 0bbe a1ce 153e e5df 25be
000001a0: 02fd babd 68e3 4c3e 3da2 5e3e ad2f a83c
000001b0: b7c8 0bbd 606b 47bd b5ee 11bd 1003 813d
000001c0: a5fe 4bbe 1781 26bd 6177 62bd 7cc2 0b3e
000001d0: 26dc 123e f5fc 27bb 84cd 2abe 9b6d d03d
000001e0: 7848 99bd 1e54 dfbd 167f 993d fd9b a7bd
000001f0: bc31 21be f4db a8be df5d 5d3c 933d fb3d
00000200: b19c c23d 4381 253e 819d cd3e 6fe9 dd3d
00000210: 71ce 97be 3943 0fbe 18ff 3dbc 41d6 cbbc
00000220: 2591 463d 137b a23a a39c 7cbe 1594 b2bc
00000230: 804d 81bd 4900 0bbd aaac 73be 5e27 153e
00000240: 43dc 03bd c2f5 533d 1bf7 35bd 99a8 43be
00000250: 9c88 2d3d c8ec 6fbe fd65 903c 1d10 e0bc
00000260: 0e6b a13d 782e 413d 5898 9a3e 759e 28be
00000270: 5089 6ebe cd00 18be f783 cd3c 39ab bb3c
00000280: 8bfc 8cbe ef83 87bd 1d9d f3bd 7f51 cdbd
00000290: 2cf7 2a3d a867 60be 2a63 533d d291 783e
000002a0: d429 e93d 227c 2c3e 2e6f e0bc ac07 a53c
000002b0: 8c6a 493e fcf2 2d3e fb0c ca3d 1d8e 273e
000002c0: a534 64be d304 033c 832d c43d 08b0 02be
000002d0: 48e7 ffbc 6fa8 80bd aa5c 8a3d 7655 4abe
000002e0: 087e 52be 7b8a 3ebe 3de6 f43d 6677 8f3e
000002f0: 4d84 33be 3ed9 8c3d 6359 433e 0e62 5dbe
00000300: 3295 8dbe e0e7 2f3e c0ba 9f3d b06c 813d
00000310: bde9 6d3e 3cf2 15bd 7695 ed3b 0a76 35be
00000320: 4092 103e cabd cc3d cb75 c73d 4858 a3be
00000330: 8f9c 0fbe f92b 97be af8e 2e3e 10d9 6d3d
00000340: 1156 c2bd 1ea4 cf3d 6b13 143d 8cd0 32be
00000350: 320b a5be f4cb fcbd 48fd 08ba 00de 093e
00000360: e16c dbbd 6eb5 ee3d e04e 333e ac81 b1bc
00000370: 6dee 953d a5f5 a43e e505 c53c c51c d7bd
00000380: f603 11bd cbd1 8a3e ec03 893e 74e3 e7bd
00000390: 5773 1fbe bfc8 203e 6943 a13d c65c 1dbe
000003a0: 016f 56bd a8d2 3b3e 45a6 023e 33a6 873e
000003b0: 248f 61be e1d4 873c 0992 3bbe 4260 843e
000003c0: 1e7e 4c3d b204 023d 2e33 313e 5d10 e9bd
000003d0: 1624 af3d 81a4 38be 0f7e fa3a a9e9 d7bc
000003e0: ec82 453e 3b2a 833e cd5f 89bd e9ad 13be
000003f0: 8881 133e 986d 803d 7fa5 91be baa2 0e3e
0.16264148 0.06359356 -0.1399734 0.040616643 -0.03183182 -0.005085983 -0.07054242 -0.18969274
-0.03119101 -0.028384294 -0.039946597 -0.03560524 0.118204184 0.0406924 -0.04490533 0.1461952
-0.12799683 0.08451916 0.1739241 0.21110387 -0.051559076 0.018017435 0.015036376 -0.20363793
-0.07646507 0.16184044 0.019733774 -0.1762837 0.08970935 -0.05789307 0.10217048 0.24102005
0.10476654 0.1994948 -0.10107124 -0.19295494 0.13872358 0.23119546 0.10595684 -0.20032534
-0.14074372 -0.10766287 -0.0031931857 -0.033116158 -0.26490602 0.039944638 -0.24011339 0.04003583
-0.11053096 -0.17187026 -0.047582258 0.15458435 0.085661516 -0.15561262 0.1180684 0.04611061
0.1901427 0.21938512 -0.027703263 -0.0301548 0.24008064 -0.22222246 0.1932908 0.22832182
-0.20111752 -0.2017852 -0.050939247 0.17665212 -0.09235049 -0.115366705 -0.123682715 0.17884246
-0.24263266 -0.2026078 -0.16396964 0.14645264 -0.10405421 0.12995055 0.1582812 0.066860005
0.22070257 -0.35527182 -0.10908367 0.23237427 0.093928784 -0.23723432 -0.4088063 0.0026004124
0.14689869 0.077442184 -0.008340104 0.2543785 -0.029491324 -0.07784711 0.110082306 0.02486499
0.22059773 -0.14183095 0.15503928 -0.16276874 0.20076805 -0.13606647 0.14629604 -0.1619869
-0.09130289 0.20008624 0.21741576 0.020530546 -0.034126963 -0.048686385 -0.03562804 0.06299412
-0.19921358 -0.040650453 -0.05528963 0.13648409 0.14341792 -0.0025632952 -0.1667996 0.101771556
-0.074845254 -0.10904716 0.07494943 -0.08184049 -0.15741628 -0.3298031 0.01351115 0.12267604
0.09502543 0.1616259 0.40159228 0.108355395 -0.2964969 -0.13990487 -0.011596464 -0.024882438
0.048478264 0.0012396298 -0.24669127 -0.021799127 -0.0631361 -0.03393582 -0.23796335 0.14565799
-0.03219248 0.051748045 -0.04442511 -0.19107284 0.04236661 -0.23430169 0.017626757 -0.027351433
0.07881747 0.047163457 0.30194354 -0.16466697 -0.23294568 -0.14844055 0.02508734 0.022908794
-0.27536425 -0.06616961 -0.11895201 -0.1002531 0.041739628 -0.21914542 0.051608242 0.24274376
0.11384931 0.16844228 -0.027396765 0.02014526 0.1966955 0.16987222 0.09865757 0.16362806
-0.22285707 0.007996756 0.09578993 -0.12762463 -0.031238213 -0.06282126 0.067559555 -0.19759163
-0.2055589 -0.18607514 0.11957977 0.2802078 -0.17530937 0.06877373 0.19077067 -0.21619436
-0.2765289 0.17178297 0.077992916 0.063195586 0.23233695 -0.036607966 0.007250483 -0.1772081
0.1411829 0.09997137 0.09739264 -0.3190329 -0.14024566 -0.29525736 0.17046617 0.058068335
-0.09489072 0.10138725 0.03615133 -0.17462367 -0.32235104 -0.123435885 -0.000522573 0.13463593
-0.107141264 0.11655699 0.17510557 -0.021668278 0.07320867 0.32218662 0.024050662 -0.10503534
-0.035404168 0.27113184 0.26760805 -0.1132268 -0.15571342 0.15701579 0.078741856 -0.15367422
-0.052351955 0.18342078 0.1275874 0.26493987 -0.2202726 0.016581 -0.18317427 0.2585469
0.049924962 0.03174276 0.1730468 -0.11380074 0.08551805 -0.18031503 0.0019111055 -0.026356535
0.19288224 0.25618157 -0.06707726 -0.1442181 0.14404881 0.06270903 -0.28446576 0.13929263

lstm.weight_hh_l0_reverse f4 [80, 20]
00000000: b3d2 6cba 0c1d ca3c 30b9 c3b9 0cfe 233d
00000010: f151 f03d cbe1 51bc ee8a b1bd 30fa 47bd
00000020: 8850 34be 055e 4d3e da50 693e 703c f7bd
00000030: aa84 93bc 15d8 7dbe 895c ba3d 0baa 053e
00000040: 3184 243d d9c0 10be 24cb 30be 06b2 093c
00000050: 00aa e63d 6d22 8f3d 4e30 003e 3a04 9c3e
00000060: 3208 743e 1dfb 57be a866 343e af26 90be
00000070: 9281 bd3c 8096 833e ac36 6f3e 3240 80bd
00000080: 2393 623e 4288 803e d782 12be c3e6 8fbc
00000090: 8439 cb3d 4103 cdbb d79f 31be fb79 143e
000000a0: c975 2c3e 92f7 b2bd 1546 493e 1029 013e
000000b0: 066e fd3c 24ba 81be 2e41 e0bd ba2a 13be
000000c0: ec73 e83d 51cf b83d 0299 fc3d ebae 5a3b
000000d0: ec81 97bd 6a27 eb3c 955c 2a3e b789 743d
000000e0: 2db0 88bd f25c 623d 7eb8 d6bc bd89 7cbd
000000f0: 596f e73d 9c3d 2d3e 2961 5bbd 3630 173e
00000100: 56f9 a9bd 3145 96bd cb6a a1bc 1b19 553d
00000110: 629e 26be 44d0 94bd 5a37 033d d0bf 65bd
00000120: 4836 ea3e 8240 a43e 95ae e0bd 5a0f 42be
00000130: 1265 91bd 6502 593e 2b2b 69be de2b 04bd
00000140: 0fc1 373b 340b 9a3d 3d46 30bd 1901 37be
00000150: fcea a0bc e86c 773c 8525 8a3e 2853 5d3d
00000160: cf78 dabd b6da 88be 82af 203d b9fd 203e
00000170: 87c3 0abd 3968 a2bd 2425 7abd 38f6 27bd
00000180: c8eb 023d 074a 053d 1097 043d 5195 d33d
00000190: f8bf a83e eccb 373e 8932 ad3d 384a 4c3e
000001a0: 3fd2 b23e 9496 e0bd f0cd f5bd 3cd9 523e
000001b0: b626 373d 448f 453d e0ae 633e fa8f 07be
000001c0: f936 2fbd 669f 29bd 2c57 2a3d b7da 863e
000001d0: e6f4 253e ac71 573e f0cc 933e 9baa 13be
000001e0: 3c8b 813e 54ed a13e eb07 363e 44da 433d
000001f0: 552e 18be e147 e4bd 32bb 0f3e be9a 64be
00000200: 9537 80be e5a7 203e 57f3 2bbe 00d6 233c
00000210: 115a 7abe a5c5 9abd f39f 543e f958 95be
00000220: e20b 00be 6848 bbbd f203 40bd dd12 01be
00000230: 7e1d 8ebd 1d15 d0bd 3776 b8bd 492c 87bd
00000240: fde8 2c3e ee8f 9d3d 7bc4 8e3c 5ef0 9a3e
00000250: 9277 f2bd 850f 9fbe 35e1 143e 13e9 aabd
00000260: 74f9 483a fd32 803d 6585 96bd 5c7c e1bd
00000270: 1106 1f3d 5e50 5b3e 1f9c dd3d 6055 ad3d
00000280: c87b 873b d77e 8fbd 7868 a8be ea24 1dbe
00000290: fc83 773e f331 a73e 8903 bfbd 6db0 ad3e
000002a0: 706f 83bd cd28 92be 40a7 a2bc c19c ae3e
000002b0: b721 143e 5034 033e 283c 913e 48dd a7bd
000002c0: aaa2 61bc 28e0 a03d b051 b5bd cd0b bb3d
000002d0: dabb 353e 041f 883e 3b53 b83d e07f 25bd
000002e0: 30eb fa3d 2d35 efbe 73a4 ac3e ccd4 af3e
000002f0: 729e b7be 8fdc f53e f176 e9bd 17de b1bd
00000300: dfc2 5ebe 8e92 0a3e 5d44 7cbe 749b 04bc
00000310: 34c8 8dbe 3750 11be 4f75 173d 57e1 a2bd
00000320: 4265 a43e f3ea 933d 5ceb ebbd 80e6 bb3e
00000330: 5d35 273e 9f1a 02bf fd7b 913e 2a6e 793d
00000340: 91a3 66be 1abb 0c3e b274 a23d 3c11 64be
00000350: e1a2 903e 4d09 923e 2140 49be c151 be3e
00000360: bc27 0dbf c75e a0bd 7df9 5ebd d3cc d43d
00000370: c772 a13e f72f a0bd 34ba 093e 3d57 573d
00000380: b342 d13d ee22 a1be 2c61 873e 7549 df3d
00000390: ac88 573c f559 41bd c7c3 8c3e fdca fabd
000003a0: 4a94 02be e987 7f3d 3090 d93d 4929 c5bd
000003b0: cbff 193e 6a9c e43d 15c2 3139 27e9 1bbe
000003c0: ef5f 613d 9d52 133e 685a bebe 759f 87be
000003d0: 2d92 8cbe 6fd5 7a3e 0221 19be 5a1f 84be
000003e0: 22fb 76be 3ddc 6bbd 5ce4 81be cbb6 b53d
000003f0: 7a22 1d3e 7981 383d 4021 a93e ac71 523d
-0.0009034082 0.024672054 -0.00037331274 0.0400372 0.11734379 -0.012810181 -0.08669077 -0.04882258
-0.17608845 0.20055397 0.22784749 -0.120720744 -0.018007595 -0.2478946 0.09099681 0.13053147
0.04016513 -0.14136066 -0.17264992 0.0084042605 0.11262894 0.06988988 0.12518427 0.30471975
0.23831251 -0.21091886 0.17617285 -0.28154513 0.023133073 0.2570076 0.233607 -0.06262244
0.2212644 0.25103956 -0.14307724 -0.01756609 0.099230796 -0.0062564914 -0.1734613 0.14499657
0.16841806 -0.087386265 0.1965564 0.1261332 0.030936252 -0.25337327 -0.10949932 -0.14371768
0.11350235 0.090239175 0.123338714 0.003336842 -0.073978275 0.028705318 0.1663688 0.059701648
-0.06674228 0.05526442 -0.02621102 -0.061654795 0.11300535 0.16918033 -0.053559456 0.14764485
-0.0829951 -0.07337416 -0.019704243 0.052025896 -0.16271356 -0.07266286 0.03203521 -0.05609113
0.45744538 0.32080466 -0.10970799 -0.18951169 -0.07099356 0.2119232 -0.22770374 -0.032268398
0.0028038656 0.07521668 -0.043035734 -0.17871512 -0.0196433 0.015101649 0.2698175 0.054034382
-0.10667574 -0.26729363 0.039229877 0.15721788 -0.033877876 -0.07930035 -0.061070576 -0.041006297
0.03196314 0.0325413 0.032370627 0.10331214 0.3295896 0.17948884 0.084569044 0.19950187
0.3492603 -0.109662205 -0.1200217 0.20590681 0.044714652 0.048232332 0.22234678 -0.13238516
-0.042777035 -0.04141178 0.04158704 0.2633874 0.16206703 0.21039456 0.28867292 -0.1442055
0.2530154 0.3162638 0.17776458 0.047815576 -0.14861424 -0.11146522 0.14036253 -0.22324654
-0.25042406 0.15689047 -0.16792046 0.009999752 -0.2444842 -0.07557229 0.20764141 -0.29169443
-0.12504533 -0.0914467 -0.046878763 -0.12604852 -0.06939219 -0.10160277 -0.09006923 -0.066002436
0.16885753 0.07693468 0.017427674 0.3026151 -0.118392125 -0.31066528 0.14539035 -0.08345237
0.0007666566 0.06259725 -0.07349662 -0.11010048 0.038824145 0.21417376 0.10820793 0.084635496
0.004134629 -0.07006615 -0.32892203 -0.15346113 0.24171442 0.32655296 -0.09326846 0.33923665
-0.064177394 -0.28546754 -0.019855142 0.3410397 0.14465986 0.12812924 0.28366208 -0.08196503
-0.013771692 0.078552544 -0.08853471 0.0913311 0.17747441 0.26586163 0.0900025 -0.040405154
0.1225189 -0.46720257 0.33719215 0.3434204 -0.35863072 0.48019835 -0.113996394 -0.086849384
-0.21754025 0.13532469 -0.24635454 -0.008093704 -0.27691805 -0.14190756 0.03697711 -0.079531364
0.32108504 0.072225474 -0.115195006 0.36699295 0.1632895 -0.5082187 0.28414908 0.060896076
-0.22523333 0.13743249 0.07932414 -0.222722 0.28249267 0.2852272 -0.1965337 0.37171748
-0.55138755 -0.07830577 -0.05443715 0.103906296 0.3153288 -0.078216486 0.13449937 0.05257343
0.102178 -0.31471962 0.26441324 0.10902683 0.013155144 -0.04720493 0.27493116 -0.12245748
-0.1275188 0.062385473 0.10623205 -0.09627015 0.15038984 0.11162646 0.00016952337 -0.1522566
0.05502313 0.14386983 -0.3717835 -0.26488844 -0.27455273 0.24495481 -0.14953998 -0.2580517
-0.24119237 -0.057583082 -0.25369537 0.088727556 0.15345183 0.04504535 0.3303318 0.051377937

lstm.bias_ih_l0_reverse f4 [80]
00000000: 1513 52be 0646 e73d 3f9b b83d 88a7 d63c
00000010: a016 67bd 9a2e c1b9 c17a 9d3e 9945 21bd
00000020: a773 833d 4ea3 173c ccf8 69bc 1c63 3c3c
00000030: 8051 6e3e 4de6 883e 106b 0e3e 2645 16bd
00000040: 33e6 463e 62f4 223e 0d85 5a3e 0019 f3bc
00000050: 1f15 503e c43e 193d 684a 19bc f4c8 073e
00000060: f5b7 acbb 2a7b 2dbd bd81 31be 365f ee3d
00000070: 7779 7a3e 4845 eebc edc9 263c 79a1 8e3d
00000080: c952 713d 9ef4 9f3d 4d20 2a3e 99e6 aa3d
00000090: f126 3ebe cbe8 423e 4188 0b3e 59bb 40be
000000a0: 2eb2 323e fe3f 1b3e a0a6 2abe f0fd 073d
000000b0: 6193 3c3e c3fc 39be f398 633e 3ebc 243e
000000c0: 2c52 e1bd a38d 05be fa15 193e 2750 5c3e
000000d0: 9bd7 b0bc 73a9 1a3e fbaa d03d 8d05 ef3c
000000e0: 37cb b6bd 217c 463e feab 3b3e deda 61be
000000f0: 6c80 bebc fa8a 2e3e d06c 5e3e 6b1f 383e
00000100: 463b 683e d43e 333d dfc1 12bd 9890 703d
00000110: d71d 01be 117a 88bd 8e24 ec3d 597b 15be
00000120: 18d8 0d3e f4cf 7b3e 09cb 58be b76c be3d
00000130: 76c8 58bd be97 1c3e c66a 003e 8978 cd3d
-0.20515092 0.11292653 0.09013986 0.026202932 -0.05641806 -0.0003684655 0.30757716 -0.039373014
0.06418543 0.009255243 -0.014280509 0.011498239 0.23273277 0.26738206 0.13908029 -0.03668704
0.19423752 0.15913537 0.21339817 -0.029675007 0.20320557 0.037413374 -0.009356119 0.13260251
-0.005270953 -0.042353787 -0.17334647 0.11639254 0.24460398 -0.02908577 0.010179979 0.06964392
0.05891684 0.07810329 0.16613884 0.08344764 -0.18569542 0.19034116 0.13626195 -0.18821467
0.17450783 0.1516113 -0.16665125 0.033201158 0.18415596 -0.18162827 0.22226314 0.16087434
-0.11002001 -0.13042311 0.1494979 0.2151495 -0.021587184 0.15103702 0.10188862 0.029177452
-0.08925479 0.19383289 0.18327329 -0.22056147 -0.023254596 0.17045203 0.21721196 0.17980735
0.22678861 0.04376109 -0.03582942 0.058731645 -0.12609039 -0.06663907 0.1153041 -0.14597835
0.13851964 0.24591047 -0.21171202 0.092980795 -0.05292555 0.1529226 0.12540731 0.10032756

lstm.bias_hh_l0_reverse f4 [80]
00000000: cd8f 3a3d 147f dd3d f982 7a3b b0a4 683e
00000010: 3692 103e 01ed a33e 45b0 df3d 7a38 e83b
00000020: d9eb df3d 56cb 503e ef0a a43e 1662 053e
00000030: e658 d83d 61f4 a9bd 773b 973d 5379 0fbd
00000040: e5c9 943c 938e 303e 3220 4f3c cfba 363c
00000050: 70f6 df3d 3fb0 2c3d 868e b13d c0d5 d83d
00000060: 8d4f 023e 3b84 9cbc 97d0 4bbe 60af 173e
00000070: 2045 753e 2c57 903d b1b9 febc c808 123d
00000080: 51af 99be a7ba 1dbe c8eb 39bd c86f 74bd
00000090: 8da9 31be d58c a03d 53fd d43a 2eb2 69be
000000a0: 626a 653d 09ab 8a3d 63ff 8fbd 18f1 a3bd
000000b0: a23f 703d cfc0 23be 1449 f2bd 1194 55be
000000c0: b543 ed3d c2b2 973d 6488 1c3d 2b8d 043e
000000d0: e4ff 03be 9c8d 1bbe d54a 6f3e a38d 16be
000000e0: 3597 953d 89d8 bc3d e934 4dbd 25c1 a53d
000000f0: 9edc 1f3e 7b74 593d 3b13 14bd 4523 ff3d
00000100: c7e6 99bd 9dd7 8d3e c168 1c3e 8d3e 6c3e
00000110: 215b dd3d a3d9 db3c 6dac ac3e 3a1c 063e
00000120: ffb9 683e ef95 71bd 8350 283d 08a0 82bc
00000130: 498a 433e bdd3 26be d994 80bc a600 a43b
0.045547295 0.10815254 0.0038225038 0.22719073 0.14118275 0.32016757 0.109222926 0.0070868107
0.10933656 0.20390067 0.32039592 0.13025698 0.10563831 -0.08298565 0.07384389 -0.035027813
0.018162677 0.17241888 0.012641953 0.011152937 0.10935676 0.04216027 0.08669762 0.105876446
0.12725659 -0.019106021 -0.1990379 0.14812994 0.2395215 0.07047877 -0.031094404 0.035652906
-0.30016568 -0.15403233 -0.045390874 -0.059676915 -0.17349835 0.078393616 0.0016249813 -0.22821876
0.056009658 0.067709036 -0.07031133 -0.08004969 0.058654435 -0.1599152 -0.11830345 -0.20857264
0.1158518 0.07407142 0.03821601 0.12944476 -0.12890583 -0.15190738 0.2336839 -0.14702468
0.07304231 0.09220988 -0.050099287 0.0809348 0.15611503 0.0530896 -0.036151152 0.12457899
-0.075147204 0.27703562 0.15274335 0.23070736 0.10808397 0.026837176 0.337253 0.13096705
0.22727202 -0.05898088 0.041092407 -0.01594545 0.1909572 -0.16291709 -0.015695976 0.00500496

lstm.weight_ih_l1 f4 [80, 40]
00000000: 7a27 b53e dfc7 7dbb 293a 8ebb 9cd0 53bd
00000010: 059b 103e 6158 113e a43c 1e3e 477c 9ebd
00000020: fb45 12be 25d0 9cbc d87b f4bd a3f8 01be
00000030: bfd9 24be 5099 28be d170 443e 946f 38bc
00000040: 3b5a 303e 8535 cb3d 0f72 783c 2ea2 4fbe
00000050: bf79 0ebc b2f4 e8bd 2fb7 063e b192 683e
00000060: 84f8 12be add3 4ebe eb4f 2bbe d0e0 20be
00000070: 8196 6bbc 2d8e 2f3e 8fd5 32be 6261 a23c
00000080: 10a2 0e3e ed33 543e 7870 613d 1e5e 3a3e
00000090: 5779 d23d 4ddd f1bd ec3a 8cbe 67fc 2fbe
000000a0: 4e62 67be cadd 53bd 0556 6cbe 0c0a b53d
000000b0: 6a15 29be 4dc6 b53e b721 083e 3477 a83d
000000c0: b5e5 743e 5fce 33bd 5761 5c3e e0d6 bc3d
000000d0: ef7c 813e 4357 d43d fb77 2fbe 2743 9bbd
000000e0: a750 53be 093d de3d b2cb 943d 7161 f0bc
000000f0: 5a29 ecbc c005 7cbe eeb8 14bd 2be1 b83d
00000100: 6f8a 04be 694f 6abe bc45 9f3a ccf4 d0bd
00000110: 18af 083e ad77 753e 8450 92bd 6bb0 19bd
00000120: 9521 3c3e a89c bb3c 3b41 e03c b8d2 733d
00000130: 8c00 313e 69c3 86bd ddf9 2e3d 4a5a 1fbe
00000140: b8b2 2b3c 02cb 073d 3b79 053e 8582 a03c
00000150: 3841 ecbd 70be c43d d380 7d3c 69a0 ea3c
00000160: e099 793e 1090 8bbd 06de 9e3d ab89 24be
00000170: 1eb9 293e fd12 0e3d 616d f13d 7fdc 32bd
00000180: 8fc9 18be c418 6b3e 447d 3d3e efec 583e
00000190: 0a74 513e 4d3c 90bd 6e50 05be b8ca 5f3e
000001a0: 69ad f3bd e3fa 91be eb22 ba39 1149 70bd
000001b0: da9b 5cbe db8c 8d3e 43a7 20be 9604 02be
000001c0: 1522 0abe a2fa 40be a8b8 7abb cd6e 33bc
000001d0: 5aaf 06be 0809 79be 401c 023e ec76 b63e
000001e0: 017b 073e e247 32be ebe6 1fbe 2b93 be3d
000001f0: 6bc3 093e d5fd 9ebd 57ca 2ebe 9ded 453e
00000200: 760d d73d 7fa7 2ebe 543a c83d 1899 133e
00000210: e949 d93d 5981 37bd d3f5 623e f843 d1bd
00000220: 6a2e 58bd f6cb 7d3c 0d03 85be 61a6 3f3e
00000230: 4efe f8bd cb9a a0bd a53b b5bc 0d81 f1bd
00000240: 4169 0abe 70ec 7bbd 61f2 b6be 7551 87be
00000250: 0fa9 76bd b03b 16bf 58dd 77be 35ca 343e
00000260: a6e4 06be dfa7 96be 0aba c73c a0eb 823e
00000270: 73f8 753d 7fe8 23be be98 e3bd b532 1fbe
00000280: 51b9 4b3e ad2a 25bc d73b 253d 9c74 603e
00000290: 4e36 0ebe 4d56 9bbd 1f5e ed3d 50cc 073e
000002a0: 2155 eabd d74a 79bd 005f 713d 7673 c63c
000002b0: 6738 293e bd28 1e3e 8e44 38bc 1b54 363e
000002c0: 87a5 fe3d f552 593c 14d0 3f3e 846f 63bd
000002d0: 6ddf 14bc 3e61 d0bd a307 73bd 6dea 8c3e
000002e0: c428 21be 2b32 55be bbe2 af3d 274f b3bd
000002f0: c68e 133e e9c4 0f3d 59f5 d13d d221 0f3e
00000300: d68f c83d 6078 2c3d 0be3 21be 63d8 9cbb
00000310: 8390 973e 5524 07bc e9cc 15be a044 c53d
00000320: c97b b33e 5acf bfbd 93fb f6bd 4e07 4abd
00000330: 3fc9 163d ad90 503d e447 c53d 4288 eebd
00000340: 0b73 17be a470 62bd aebf 543e ce20 efbd
00000350: 274a 75bd 4692 1f3d 0d5e ac3d 36ee f93d
00000360: 43e8 41be 3749 653e d47d a0bd 0bc9 bfbd
00000370: 76ca 5abd 7a16 45be 2f06 ddbd 7a05 013e
00000380: e241 4f3e b827 ee3d 7119 8abe efe9 e23d
00000390: 44de 4dbd e7f6 9b3d c1af 93bd 15b5 753e
000003a0: 021a a8bd ac41 f93d 4cb9 fcbd 86f0 6f3d
000003b0: 9657 77be f797 b63c 660a 07be 7a5e 56bd
000003c0: 0e1a 9e3d 8b8e 273d 4de1 1dbe 3e5d 01be
000003d0: 6225 58bc aad5 7c3e 8610 7c3c 8313 5bbc
000003e0: da3c cebd 44cf dabb 06c0 3d3e cca1 4d3e
000003f0: 88a2 c53e c3ff 133e 1797 abbe c04b 00bd
0.3538168 -0.0038723869 -0.0043404293 -0.051712617 0.14121635 0.1419387 0.1545282 -0.07738548
-0.14284508 -0.01914222 -0.11937684 -0.12692504 -0.16098689 -0.16464734 0.19183661 -0.011257071
0.1722192 0.099223174 0.015163912 -0.2027671 -0.008696019 -0.11374797 0.13155816 0.22712208
-0.14352614 -0.20197935 -0.16729705 -0.15710759 -0.014379145 0.1714408 -0.17464279 0.019821826
0.1392901 0.20722933 0.0550389 0.18199965 0.1027705 -0.11809788 -0.27388704 -0.17186128
-0.22596094 -0.051725186 -0.23079689 0.08839807 -0.16512075 0.35502854 0.13294111 0.08225861
0.23915751 -0.043897983 0.21521507 0.09220672 0.2529063 0.10368206 -0.17135613 -0.07581168
-0.20636235 0.10851485 0.07265414 -0.029343339 -0.028828312 -0.24611568 -0.036309175 0.090273224
-0.12943433 -0.22881855 0.001215152 -0.10202941 0.13348043 0.23971434 -0.071442634 -0.03752176
0.18372186 0.022901848 0.027374854 0.05952713 0.17285365 -0.0658024 0.042718757 -0.15561786
0.010479622 0.033152588 0.13034527 0.019593487 -0.11535877 0.096066356 0.015472609 0.028640943
0.24375105 -0.06814587 0.07757191 -0.16068141 0.16574523 0.034686077 0.117884405 -0.043667313
-0.14920639 0.22958666 0.18504816 0.21184133 0.20454422 -0.070427515 -0.13018963 0.21854675
-0.1189831 -0.28511724 0.000355027 -0.05866343 -0.21543828 0.27646527 -0.15688805 -0.12697062
-0.13489564 -0.18845609 -0.0038257036 -0.01095171 -0.13152829 -0.24319851 0.12706089 0.35637605
0.13230516 -0.17410234 -0.15615432 0.09305414 0.13453452 -0.07763258 -0.17069374 0.19328924
0.10500614 -0.17056082 0.0977675 0.1441387 0.106098 -0.04480109 0.22164087 -0.10218042
-0.05277864 0.015490523 -0.2597889 0.18715812 -0.1215788 -0.078420244 -0.022123167 -0.117921926
-0.13516714 -0.06150478 -0.35731795 -0.26429334 -0.06021982 -0.58684826 -0.2420553 0.17655261
-0.1317316 -0.2942495 0.024380703 0.25570393 0.060051393 -0.16006659 -0.11113118 -0.15546687
0.19894911 -0.0100809755 0.04034027 0.21919483 -0.13887903 -0.0758482 0.11590218 0.13261533
-0.11442018 -0.06086239 0.05892849 0.024224978 0.16525422 0.15445228 -0.011246813 0.17805521
0.124339156 0.013264407 0.1873172 -0.05552627 -0.009086472 -0.101747975 -0.059333455 0.27522603
-0.15738207 -0.20819919 0.08588167 -0.087553315 0.14409932 0.035099898 0.102518745 0.13977745
0.097930595 0.042106986 -0.15809266 -0.0047865375 0.2960244 -0.008248408 -0.14628948 0.0963223
0.35055378 -0.09365721 -0.12059703 -0.049323373 0.036813017 0.050919224 0.09632853 -0.11647083
-0.14789979 -0.055283204 0.20776245 -0.11676179 -0.05988517 0.038957857 0.08416376 0.12203638
-0.18936257 0.2239121 -0.078365 -0.09364518 -0.053415738 -0.19246855 -0.10792195 0.12599745
0.20239976 0.116286695 -0.26972535 0.110797755 -0.050260797 0.07615452 -0.07211257 0.23994859
-0.082080856 0.12170729 -0.1234003 0.05857899 -0.24154505 0.02228926 -0.1318756 -0.052336194
0.07719813 0.040907424 -0.15417977 -0.12633225 -0.0131925065 0.24690881 0.015384799 -0.013371351
-0.100702 -0.00667754 0.18530282 0.20081252 0.38600564 0.14453034 -0.3351371 -0.03132224

lstm.weight_hh_l1 f4 [80, 20]
00000000: a991 513e 28d7 cabd e71e 643e 7031 043e
00000010: 95e0 4fbe 4a68 86be 6875 9c3b abf7 eebd
00000020: ae12 85be 42b9 5ebd 0889 853c 4a1b a53c
00000030: 82d0 143e bfbc 633e 19ce b73e 9c0f 2c3c
00000040: 5b60 54be 5d7b 103e c0cd c3bc ea9b 5e3e
00000050: 253e 4bbe a6bf d53b 5605 15bd 5ff8 843e
00000060: 3c0c 553e 982e 313e 9bd6 153d 192e 16be
00000070: 0313 963e b763 b63e 3de2 e83d 4439 e83d
00000080: a563 9a3d 6efe 9b3d 8704 e7bd 8714 2e3d
00000090: 05e3 a5be 024b 03be 5624 2c3e c361 57be
000000a0: 52f8 713e 8352 4f3e 3b1f 92be 2e7a 293e
000000b0: 2659 1a3e c3d0 083d 4528 06bf a1de 373e
000000c0: e523 c43d a15d 1f3d f9e2 223e c468 03be
000000d0: c5e0 7db9 264c d0bd 3e46 853d 2dac 513e
000000e0: a28c 883c 31e5 46be 1296 093e f2f3 2a3c
000000f0: fc64 5a3e f003 303e cc7d 9ebd 4d75 49be
00000100: fb86 863e 7937 78bd 34b1 d4bd f145 0c3e
00000110: 3383 de3d d10b 393e f8e1 4bbd 5804 d13d
00000120: 53e1 283e 852b 533d 5abc 1c3e 5b4c d43d
00000130: 9617 a73e b45a a1bd a698 1cbe 5e27 d53d
00000140: a283 efbd 9dd3 ab3e 12d6 9dbe 930b ab3d
00000150: 3360 cebc 2796 01bc cda7 07be 5fa7 553e
00000160: 63c3 04be 2a3e 083d 2f1f 5f3e 0a21 363d
00000170: 2183 99be 1968 15be 75d1 8fbc 3a69 71bd
00000180: 099e b53c c8e5 bebd 6deb a3bd ce0a 06bd
00000190: c2cb 6cbd 66ca 023e 6590 b4bd 099e 2fbd
000001a0: 78c6 9c3d 89b9 d1bd 2aac bfbe 5fa1 90be
000001b0: 29e4 013d bc1d b4be c7e2 28be 269d 363d
000001c0: eeb4 16be 668c 15be 0b92 b4bb a1d3 1d3e
000001d0: 1a16 1cbe bac6 8abd 40fb acbc 0917 93be
000001e0: 1dea 81bc 9567 083f f07d 89bd b3a4 123e
000001f0: 85eb 10bd fbe6 fc3d 05bc b1be 1db4 623d
00000200: 5f06 733d 6cb9 77bd ffba c8bc 2b37 86bd
00000210: db80 233e 564e d53e 5b5e bc3b 6c61 05be
00000220: 13d7 20be de20 4c3d a056 253e b94d 7c3d
00000230: adf1 493d ad11 2fbd cf8e 8d3c d334 623e
00000240: a981 13be 0ec0 cbbd 74a7 65be 3fa2 233d
00000250: 8302 943d 6c01 483e 6d85 9cbd c985 2f3e
00000260: e42c e43c 4ee3 723c e173 7a3e 588e 333e
00000270: 1f84 2c3e e8e6 0abd 2cf1 2f3e a0f5 4bbe
00000280: 1767 b6bd dca9 f03d b173 0c3e c0ce 6ebd
00000290: c21b 34bd f870 b93e a152 d43e 32d4 993e
000002a0: 78fb 8b3d 1505 df3e 63f1 13be a574 70be
000002b0: 3845 3ebe 7984 10be d749 61bd 1b6b 993d
000002c0: 827d 9fbd 930d a4be 4271 c1bc 1e7a bf3d
000002d0: 2d2a 803e 9a38 2cbe 23b5 463e 8342 4e3e
000002e0: 7a21 7b3d a3a0 56be ff82 81be ed2d 4abd
000002f0: 3424 463c 109a 3cbe 1259 07bc 31e1 9d3e
00000300: 9899 ed3d 9e21 bd3e 3a11 6bbe dd47 62be
00000310: ffe4 c0bd 36f8 a93d 0ea6 8c3e f700 a83d
00000320: 7293 913b 855c c4bd 3aac ed3d 2bc2 3abd
00000330: 1193 a3bd 74a3 31bb 73b6 9dbd aaba 7f3d
00000340: 5638 683e 6e7f 293e 58cd 52be 6cf5 09be
00000350: d979 79be e9b1 bdbb 80ac 663e 4a3e 063e
00000360: e48b d53d 501b 75be 33e6 f93b 013c 4bbe
00000370: 00cc 5d3e 169a cabd e471 27bc ea35 593e
00000380: ef18 863e 05b4 543e 919d 1cbe 9786 8e3d
00000390: da8d d7bd 006c c9be e1c1 2fbe 75b1 3c3e
000003a0: 8e2b 3c3d 3989 623c f7ea 0aba 1748 abbd
000003b0: df5c 1e3e 53b5 323c 024c 853d be3f be3d
000003c0: 446f a5be 50ac c1be 5ebd 88bd 648b d63d
000003d0: 8a44 61bd a107 c73e cafd 563d 7988 393d
000003e0: 19c2 1fbe 699e 49bc d1f5 2dbe cabd c0bd
000003f0: 5aeb 21be 8e31 45be 7b43 b23d 8196 acbe
0.20465721 -0.09904319 0.22277413 0.12909484 -0.20300515 -0.2625144 0.004774738 -0.11668333
-0.25990814 -0.054375894 0.016300693 0.020154614 0.14532664 0.2223997 0.35899428 0.010501768
-0.20739882 0.1410956 -0.02390182 0.21739164 -0.19847925 0.0065230904 -0.036382042 0.25970742
0.20805448 0.1730293 0.036581617 -0.14666022 0.2931138 0.3562295 0.113712765 0.113390476
0.07538537 0.07616888 -0.112801604 0.042500045 -0.32399765 -0.12821582 0.16810736 -0.21033387
0.23629883 0.2024632 -0.28539452 0.16550514 0.1507307 0.033402216 -0.52405196 0.1795602
0.09577159 0.03890765 0.15906896 -0.12832934 -0.00024211693 -0.10170774 0.06507538 0.20475836
0.016668621 -0.19423367 0.13436154 0.010434138 0.21327585 0.17189002 -0.077388376 -0.19673653
0.26274857 -0.060599778 -0.10385361 0.13698556 0.10864868 0.18070914 -0.049776047 0.10205907
0.16492204 0.051555175 0.15306225 0.10366126 0.32635182 -0.078786284 -0.15292606 0.10407899
-0.11695029 0.33559886 -0.30827385 0.08351817 -0.025192356 -0.007909334 -0.13247605 0.20864628
-0.12965159 0.03326241 0.2178924 0.044465102 -0.29982856 -0.14590491 -0.017555932 -0.058938242
0.022170084 -0.09321171 -0.08003888 -0.032725148 -0.057811506 0.12772521 -0.088166036 -0.042875323
0.076550424 -0.10240466 -0.37436038 -0.28248116 0.03171173 -0.35178936 -0.16492759 0.044583462
-0.14717457 -0.14604339 -0.0055105737 0.15412761 -0.15242806 -0.06776185 -0.0211159 -0.28728512
-0.015858704 0.53283054 -0.06713474 0.1432064 -0.03538086 0.123487435 -0.3471376 0.05534755
0.059332248 -0.060479566 -0.02450323 -0.06553491 0.15967123 0.41661328 0.0057485527 -0.13025445
-0.15707044 0.049836032 0.16146326 0.06159756 0.049302746 -0.042741466 0.01728001 0.22090463
-0.1440493 -0.09948741 -0.2242716 0.03994965 0.072270416 0.19531792 -0.076426364 0.17140879
0.027853437 0.0148247015 0.24458267 0.17534769 0.16847275 -0.033911616 0.17181844 -0.19917917
-0.089063816 0.11751148 0.13716008 -0.05830264 -0.043971784 0.36219 0.4146929 0.30044705
0.06835073 0.43558565 -0.1444755 -0.23481996 -0.18581092 -0.14113034 -0.05500206 0.07491132
-0.077876106 -0.32041606 -0.023613576 0.09349464 0.25032178 -0.16818467 0.19405036 0.2014256
0.061311223 -0.20959716 -0.25295255 -0.049360204 0.012093592 -0.18418145 -0.008260982 0.3083587
0.11601561 0.3693971 -0.2295579 -0.22097726 -0.094186775 0.082992956 0.2747044 0.08203309
0.0044426257 -0.09587959 0.11605115 -0.04559533 -0.07987035 -0.0027105482 -0.07700815 0.062433876
0.2267774 0.16552517 -0.20586145 -0.13472527 -0.24362887 -0.005789031 0.22526741 0.13109699
0.10427073 -0.239362 0.007626319 -0.19847108 0.21659851 -0.09892671 -0.010220025 0.21211973
0.26190898 0.20771797 -0.15294482 0.06959265 -0.10525103 -0.3934021 -0.17163803 0.1842707
0.045939974 0.013826662 -0.0005299295 -0.083633594 0.15465115 0.010907489 0.06508638 0.092895016
-0.3231145 -0.37826777 -0.06676744 0.104758054 -0.054997005 0.38873008 0.052488126 0.045296166
-0.15601386 -0.012305834 -0.16988303 -0.094111994 -0.15812436 -0.19257185 0.08704277 -0.33708575

lstm.bias_ih_l1 f4 [80]
00000000: 8e24 19bd f290 fdbd f427 ff3d 2505 c0ba
00000010: 724f 39be 5ceb 063e fa83 153e 0d4d 97bc
00000020: 516b 44bd 2e8c 91bd 2382 273e af12 15be
00000030: 60d4 563e 22d4 89bd 3768 573e 212c 49be
00000040: 2576 f93d 7324 2dbe 1094 563c c20e d63c
00000050: c3f8 203d 5a62 dbbd 127e 9cbd 3e2e a33e
00000060: af41 21be efa7 d43c 05ee f6bc f6f9 e6bd
00000070: 1c73 183d 5039 a33d c727 823d 5ca7 3fbd
00000080: 842e 11bc 020b ccbc 42b5 533e 8e04 363c
00000090: 30c3 47bd 9965 7e3d 6b09 5b3e 777d 243e
000000a0: cd40 63be eec6 c0bd 6c45 21bc 3aa8 43be
000000b0: 56ae 463e da99 483e fb75 42be 1733 383d
000000c0: 38a8 0abe cf15 4bbe 32e2 f6bd dfec 2abe
000000d0: 2032 1fbe 65f1 e5bc 0ec7 0abe fa0c 053e
000000e0: e035 9cbd b663 d0bd 9a88 63bd 8e2d 23be
000000f0: afb5 083e 1f19 8a3d 5fcf 803d 2547 5a3e
00000100: 009f 61bd 95ab 393e 90d9 2fbd 8d1e 93bd
00000110: 9b16 a2bd b6dd 05be 25c2 f2bd 4cca 3b3e
00000120: 32e0 c339 96d3 833c 6f21 113e 74d8 1b3e
00000130: 0fe9 373e 049a 663e 5ac3 143e 93cc 853e
-0.037388377 -0.12381162 0.12458792 -0.0014649971 -0.18096712 0.1317572 0.14601126 -0.018469358
-0.047953907 -0.07106815 0.16358237 -0.14557908 0.20979452 -0.06729914 0.21035849 -0.1964574
0.121807374 -0.16908436 0.013096824 0.026130084 0.039299738 -0.107121184 -0.076412335 0.31871217
-0.15747713 0.025958983 -0.030142793 -0.11278145 0.03721915 0.07969916 0.06355243 -0.046790466
-0.008861188 -0.024907593 0.20674613 0.011109484 -0.04877013 0.06210861 0.21390311 0.16063486
-0.22192688 -0.09412943 -0.009843212 -0.19107142 0.19402441 0.1958994 -0.18990318 0.044970598
-0.13540733 -0.19832538 -0.12054862 -0.16691922 -0.15546465 -0.028069207 -0.13552496 0.12993231
-0.07627463 -0.10175268 -0.055550195 -0.15935346 0.13350557 0.06743073 0.06289553 0.21316202
-0.055083275 0.1813186 -0.042932093 -0.071835615 -0.07914468 -0.13072857 -0.118534364 0.18338889
0.00037360337 0.016092103 0.1417291 0.15219289 0.17959999 0.2251969 0.14527646 0.2613264
