data/embD/hoc18/model_5/hoc18_best.pt (torch, 343117 bytes, 87 tensors)

embedding.weight f4 [12, 20]
0.0 0.0 0.0 0.0 0.0 0.0 0.0 0.0
0.0 0.0 0.0 0.0 0.0 0.0 0.0 0.0
0.0 0.0 0.0 0.0 0.8449533 -0.53788877 -0.9825855 -1.8693223
-0.07179009 -0.4055022 0.92542404 -0.32922095 -0.53633046 0.82127255 0.17990114 -1.8598069
0.9781975 -0.5548132 -0.41716164 0.024305707 1.0555685 0.4167598 0.5904919 0.6159169
-0.43311873 1.7354026 -0.13400748 0.23733419 -1.155299 0.12469616 -1.0950643 -0.637054
-0.13931583 -0.40361062 0.1719956 -0.856643 -0.6222448 2.6902232 -0.68451774 -0.4512805
1.4542704 -0.3356036 -0.44097948 -1.0777758 -0.5844786 -0.9766739 -0.5038061 0.2889497
-1.9641756 0.08340797 0.10636082 0.333793 -1.1877216 -1.9579743 -0.56114256 -1.4903241
-0.1573025 -0.28192568 -0.5042372 2.636284 0.2522295 0.8634114 -1.1883134 2.3820748
0.720137 0.3532743 1.5558472 0.19584315 0.6869069 2.1492817 0.588568 0.5123585
0.044760484 -0.32339263 -0.30650142 1.1871938 1.1643664 0.16339514 0.45820984 -0.8721172
-1.3014504 -0.20024915 -1.3972582 0.30189 -0.23146966 0.38515314 1.1359948 0.7731032
0.7490242 -1.0818335 2.765265 -1.0452679 0.33424383 -0.45962968 -0.22713031 -1.7022575
-0.016002482 -0.8713525 0.7468597 -2.8034225 1.5943185 0.8498077 -2.034012 -0.3754281
-0.7616755 -0.066978775 -0.06995041 -1.1723996 -0.11898518 0.19876821 -1.5648909 0.016997144
1.1706088 -1.1496631 1.4954453 -1.1187444 0.4571782 -0.6066523 0.36047614 0.30775598
0.78248745 -1.1404649 -1.0788823 -0.91604334 0.48998842 0.60658926 -0.61399144 -0.5628819
0.4203755 0.28019053 0.3567773 -2.1615171 0.2566075 0.15526146 -1.7921859 0.47151744
-0.8929898 0.39388016 3.1490254 0.5026373 0.7931788 -1.4025012 -1.9060806 0.5183084
0.11976091 -0.9385206 0.97482127 -2.8830328 -1.6816776 0.5436298 -0.8535453 -0.6511418
-1.385594 -0.24398471 0.38854462 -0.074173234 -1.3779235 -0.19593509 -0.9379026 -0.18795355
-0.102624215 -1.45048 -0.7014378 0.5213549 -0.7679669 -0.24959041 -1.7322091 -0.29093024
0.12470021 1.6318321 0.30023694 0.94581 1.1384434 -0.5593918 0.33309254 -0.005655916
0.48073226 -0.027029146 0.26313442 -0.7642892 -1.3922448 -0.9540896 -0.61166674 0.28938523
0.33747077 0.16275789 -1.2696931 -0.08517436 0.47632232 -0.5176617 0.23165485 -0.48440275
-1.8415998 -1.5582207 0.072725266 -0.82510513 -0.43435386 1.1569247 0.092580974 0.72175014
0.2951681 -0.091798194 0.83033985 -0.5214346 1.3072163 -1.2321049 1.5029773 -1.419563
-0.3567652 -0.18358615 -0.6202213 -0.50030696 -0.072478555 0.30579495 0.96866524 0.09175423
0.20627463 0.14025763 0.8730376 -0.97259647 -0.50812817 0.07996966 -0.5765253 -0.66585046
00000000: 0000 0000 0000 0000 0000 0000 0000 0000
00000010: 0000 0000 0000 0000 0000 0000 0000 0000
00000020: 0000 0000 0000 0000 0000 0000 0000 0000
00000030: 0000 0000 0000 0000 0000 0000 0000 0000
00000040: 0000 0000 0000 0000 0000 0000 0000 0000
00000050: dc4e 583f 14b3 09bf b98a 7bbf f445 efbf
00000060: af06 93bd fc9d cfbe 97e8 6c3f a68f a8be
00000070: f44c 09bf eb3e 523f 0138 383e 270e eebf
00000080: 276b 7a3f 3d08 0ebf 3696 d5be c31c c73c
00000090: de1c 873f 8a61 d53e 7a2a 173f bbac 1d3f
000000a0: bdc1 ddbe ac21 de3f 4239 09be bc07 733e
000000b0: d6e0 93bf b360 ff3d 112b 8cbf f915 23bf
000000c0: cfa8 0ebe 0da6 cebe 9d1f 303e f54c 5bbf
000000d0: 6f4b 1fbf 9e2c 2c40 8e3c 2fbf 3d0e e7be
000000e0: 8825 ba3f 3cd4 abbe 10c8 e1be 8ff4 89bf
000000f0: 64a0 15bf 4d07 7abf 70f9 00bf 37f1 933e
00000100: 1b6a fbbf ccd1 aa3d b4d3 d93d ebe6 aa3e
00000110: 4307 98bf e79e fabf 0aa7 0fbf f1c2 bebf
00000120: e813 21be 9058 90be b015 01bf e1b8 2840
00000130: 3a24 813e 8808 5d3f a71a 98bf ea73 1840
00000140: e65a 383f 5ee0 b43e 0026 c73f 1b8b 483e
00000150: 21d9 2f3f d58d 0940 64ac 163f ed29 033f
00000160: c556 373d b893 a5be c1ed 9cbe f7f5 973f
00000170: f509 953f 0e51 273e 7b9a ea3e 1343 5fbf
00000180: ed95 a6bf 1d0e 4dbe 5bd9 b2bf 5391 9a3e
00000190: 6206 6dbe cb32 c53e 4768 913f 17ea 453f
000001a0: 0dc0 3f3f 8579 8abf 1afa 3040 57cb 85bf
000001b0: 0222 ab3e 9554 ebbe d994 68be 93e3 d9bf
000001c0: a317 83bc f510 5fbf 3332 3f3f 466b 33c0
000001d0: a112 cc3f ff8c 593f 412d 02c0 1d38 c0be
000001e0: 2afd 42bf 2b2c 89bd 2942 8fbd 3111 96bf
000001f0: 81ae f3bd e589 4b3e 584e c8bf 983d 8b3c
00000200: 82d6 953f 2928 93bf c06a bf3f 0433 8fbf
00000210: 4313 ea3e 914d 1bbf 5490 b83e 3192 9d3e
00000220: 1951 483f c1fa 91bf d118 8abf d181 6abf
00000230: c3df fa3e 6f49 1b3f 8b2e 1dbf 0719 10bf
00000240: 753b d73e 2275 8f3e 84ab b63e 4c56 0ac0
00000250: 0f62 833e dcfc 1e3e 5966 e5bf bc6a f13e
00000260: fb9a 64bf a9aa c93e a289 4940 d7ac 003f
00000270: c40d 4b3f 2985 b3bf 73fa f3bf dcaf 043f
00000280: 3545 f53d e342 70bf e38d 793f 9c83 38c0
00000290: 3641 d7bf 532b 0b3f f281 5abf 3bb1 26bf
000002a0: 255b b1bf 21d7 79be 52ef c63e 23e8 97bd
000002b0: cc5f b0bf 35a3 48be 631a 70bf e576 40be
000002c0: a52c d2bd 54a9 b9bf 6d91 33bf 8477 053f
000002d0: 7b99 44bf a194 7fbe 07b9 ddbf cff4 94be
000002e0: d362 ff3d e0df d03f a8b8 993e 9b20 723f
000002f0: 83b8 913f 4d34 0fbf 1b8b aa3e 4355 b9bb
00000300: 8a22 f63e 3a6c ddbc 8eb9 863e 75a8 43bf
00000310: 1435 b2bf 373f 74bf 3196 1cbf 4d2a 943e
00000320: f8c8 ac3e 01aa 263e 4e85 a2bf e56f aebd
00000330: 85e0 f33e 7a85 04bf ee36 6d3e a303 f8be
00000340: 8bb9 ebbf c773 c7bf fcf0 943d 173a 53bf
00000350: a163 debe 1c16 943f 189b bd3d 9ec4 383f
00000360: 4620 973e b100 bcbd 2791 543f bd7c 05bf
00000370: dd52 a73f 9db5 9dbf 8f61 c03f 3eb4 b5bf
00000380: eea9 b6be 02fe 3bbe d3c6 1ebf 1e14 00bf
00000390: a36f 94bd 2891 9c3e 72fa 773f a4e9 bb3d
000003a0: a839 533e b29f 0f3e 647f 5f3f 15fc 78bf
000003b0: b014 02bf 22c7 a33d 2997 13bf 2d75 2abf

lstm.weight_ih_l0 f4 [80, 20]
-0.21008983 0.09007149 -0.1094111 -0.21897209 0.020767272 -0.10388998 0.06452991 0.15774842
0.25224632 -0.032819785 0.11977723 -0.1511853 0.11279399 -0.15893106 0.076414794 0.26944587
0.13810828 0.03332189 -0.21126552 0.43793535 -0.23216674 -0.12656598 -0.30491757 0.10062759
0.0794521 0.038372897 0.0150887305 -0.12147262 0.03347672 0.00038682565 0.08067523 0.009046737
0.05530469 0.26101756 0.16604728 0.106156945 0.2508992 -0.119110554 0.16882364 -0.06531893
0.12810881 -0.03541702 -0.25264964 0.022781435 -0.0801115 -0.0034591185 -0.0743228 -0.35927173
0.060410876 -0.11873282 -0.16327974 -0.05022388 -0.24726406 0.09714321 0.0138183795 -0.07580939
0.20881741 0.10645388 0.037207182 0.0037296116 -0.19801967 0.05704795 -0.15883268 -0.5999717
-0.60168993 -0.04687227 -0.09316415 -0.23774146 -0.30272064 0.105388 -0.04150788 -0.43986374
-0.28250322 0.013888873 -0.188943 -0.106664464 0.05539092 -0.24955846 0.056998443 -0.14135641
-0.116697535 0.37308317 -0.06343536 0.016901288 0.060890835 0.061714273 0.19809039 0.18699418
0.108103804 -0.22915867 -0.15061921 -0.19264425 0.31350726 0.29778165 0.001940785 -0.12633307
0.24479474 0.28864205 0.0020660493 0.10268776 -0.18445809 -0.089201234 -0.33706516 -0.2548482
-0.078362994 0.094210066 0.055401795 -0.1708088 0.2319884 0.042976562 -0.12814867 0.17065406
-0.020068644 -0.015493426 0.2624606 0.30545008 -0.015733099 0.17439193 0.082113236 0.22217932
0.028390575 0.088027485 -0.06351719 0.16134742 0.028126309 0.07540515 0.19048207 -0.21533518
0.030988589 -0.13654168 -0.14479087 -0.06940621 -0.1266603 0.22574235 0.20986228 -0.23187397
0.044318397 0.26681498 -0.17714946 -0.06492254 0.38038665 -0.23454963 -0.03428638 -0.13129868
0.20566556 0.20180146 0.25971258 0.019299375 -0.23778765 0.2540427 -0.21209204 0.08047035
0.4170808 -0.43047103 0.00020444048 0.034526054 0.20650898 -0.21481223 0.029751893 0.20681079
0.00042326417 -0.16177166 0.18138275 -0.024430241 0.29633692 0.005215262 0.070088156 -0.19652623
-0.020379115 -0.07038874 -0.2592801 0.07851078 0.15526928 0.134153 0.33828568 0.06692575
0.026373547 0.1717294 -0.3215302 0.24163947 -0.16613187 0.1790985 -0.26175824 0.025500208
-0.16588461 -0.03189987 0.046533056 0.2042171 0.19131951 -0.1229181 -0.0096188905 0.029922662
-0.1721162 -0.017184898 -0.050232023 -0.33964926 0.12299537 0.033031102 0.14800885 -0.09146489
-0.05295438 -0.06949349 -0.043402184 -0.05323121 0.06363138 0.08377844 0.040794004 0.03410059
0.21758647 -0.28996205 0.13214284 0.15962982 -0.21401961 0.1788765 0.02999642 -0.127842
0.21837492 -0.048332963 -0.4193402 0.25565943 -0.043447074 0.2011137 0.14500901 0.1233874
0.44122893 0.057757176 -0.15787125 0.04059739 0.30371493 -0.11800741 -0.18634947 0.1415199
0.09213047 -0.28984433 0.32377988 0.0030602815 -0.041851327 -0.025421014 0.06803884 0.08980578
-0.12030727 -0.05114734 0.03586046 0.18268661 -0.35968646 0.34615606 -0.07946703 0.056501318
-0.24719572 -0.039455347 -0.3215256 0.26814318 -0.43384317 -0.1347953 -0.124798216 0.40755597
00000000: ca21 57be 6777 b83d ed12 e0bd 383a 60be
00000010: 2020 aa3c 45c4 d4bd 4228 843d cd88 213e
00000020: 6e26 813e 0a6e 06bd c44d f53d 52d0 1abe
00000030: 8900 e73d d3be 22be 5c7f 9c3d cff4 893e
00000040: 426c 0d3e 897c 083d fd55 58be 1039 e03e
00000050: 1ebd 6dbe 839a 01be 281e 9cbe d715 ce3d
00000060: c8b7 a23d e62c 1d3d b936 773c a3c6 f8bd
00000070: e31e 093d dcce ca39 0e39 a53d c438 143c
00000080: 2c87 623d 18a4 853e 4c08 2a3e d068 d93d
00000090: dc75 803e 3cf0 f3bd 1be0 2c3e eec5 85bd
000000a0: f52e 033e 7011 11bd 4b5b 81be 22a0 ba3c
000000b0: 8011 a4bd 61b2 62bb 8d36 98bd 77f2 b7be
000000c0: 6571 773d 312a f3bd ce32 27be 8eb7 4dbd
000000d0: ca32 7dbe 05f3 c63d 7c66 623c f441 9bbd
000000e0: 3bd4 553e 7e04 da3d 8f66 183d 806c 743b
000000f0: abc5 4abe 1cab 693d 09a5 22be bf97 19bf
00000100: 5a08 1abf 23fd 3fbd d9cc bebd 7f72 73be
00000110: 33fe 9abe aad5 d73d 2b04 2abd d235 e1be
00000120: 43a4 90be 288e 633c 467a 41be e672 dabd
00000130: 97e1 623d 418c 7fbe 3377 693d bcbf 10be
00000140: 1eff eebd c204 bf3e 66ea 81bd 9274 8a3c
00000150: ab68 793d 1bc8 7c3d 35d8 4a3e 677b 3f3e
00000160: 8765 dd3d 92a8 6abe ec3b 1abe 8944 45be
00000170: 0684 a03e d676 983e f061 fe3a 755d 01be
00000180: 79ab 7a3e e4c8 933e 8e66 073b f64d d23d
00000190: 95e2 3cbe 23af b6bd ce93 acbe 777b 82be
000001a0: c77c a0bd 35f1 c03d feec 623d 81e8 2ebe
000001b0: 5e8e 6d3e 3108 303d 6839 03be f0bf 2e3e
000001c0: ff66 a4bc 23d8 7dbc 3c61 863e f463 9c3e
000001d0: b3e2 80bc cc93 323e fc2a a83d fa82 633e
000001e0: 5a93 e83c c147 b43d 4d15 82bd 4238 253e
000001f0: 2569 e63c 046e 9a3d bb0d 433e d380 5cbe
00000200: c8db fd3c 95d1 0bbe 0f44 14be d824 8ebd
00000210: 3db3 01be 0129 673e 23e6 563e 5f70 6dbe
00000220: 3587 353d f99b 883e ab66 35be 1cf6 84bd
00000230: 0ac2 c23e c72d 70be e06f 0cbd 2973 06be
00000240: fe99 523e 0ba5 4e3e 0cf9 843e b919 9e3c
00000250: 9b7e 73be e311 823e a82e 59be a4cd a43d
00000260: 9d8b d53e b366 dcbe 135f 5639 316b 0d3d
00000270: 1777 533e bdf7 5bbe 3eba f33c 35c6 533e
00000280: 8ee9 dd39 78a7 25be 66bc 393e ee21 c8bc
00000290: 79b9 973e cae4 aa3b 618a 8f3d 2c3e 49be
000002a0: 1af2 a6bc f927 90bd 5cc0 84be 43ca a03d
000002b0: e9fe 1e3e 675f 093e c833 ad3e 5e10 893d
000002c0: 560d d83c d5d9 2f3e 9b9f a4be 5670 773e
000002d0: 791e 2abe 9965 373e 2d05 86be d0e5 d03c
000002e0: a8dd 29be 70a9 02bd 7299 3e3d 4a1e 513e
000002f0: 43e9 433e 7cbc fbbd 8d98 1dbc 5f20 f53c
00000300: 3b3f 30be 58c7 8cbc 18c0 4dbd 82e6 adbe
00000310: ffe4 fb3d 9f4b 073d a28f 173e f251 bbbd
00000320: b1e6 58bd 9a52 8ebd 7dc6 31bd f808 5abd
00000330: 2b51 823d 0894 ab3d 9d17 273d 0fad 0b3d
00000340: fdce 5e3e e875 94be 7450 073e 0076 233e
00000350: f527 5bbe 672b 373e 0dbb f53c 03e9 02be
00000360: ad9d 5f3e c9f8 45bd c2b3 d6be cbe5 823e
00000370: 8ff5 31bd c0f0 4d3e 3e7d 143e 88b2 fc3d
00000380: c2e8 e13e ca92 6c3d 00a9 21be 7349 263d
00000390: 8680 9b3e dead f1bd 65d2 3ebe 98ea 103e
000003a0: e6ae bc3d 7a66 94be 7ac6 a53e 018f 483b
000003b0: 4c6c 2bbd bb3f d0bc f357 8b3d 18ec b73d
000003c0: a863 f6bd e07f 51bd 6be2 123d 3312 3b3e
000003d0: d328 b8be 5e3b b13e 9cbf a2bd ed6d 673d
000003e0: e020 7dbe ee9b 21bd 019f a4be 104a 893e
000003f0: b120 debe c707 0abe 3596 ffbd 2dab d03e

lstm.weight_hh_l0 f4 [80, 20]
-0.29580972 0.4699175 -0.34182024 -0.12920225 -0.012150558 -0.26385787 -0.737527 -0.1259784
0.057321943 -0.067429975 0.076773115 -0.39987606 -0.04294943 0.164658 -0.5360261 0.23065636
-0.008083926 -0.060344364 0.06317674 -0.26761535 -0.26907283 0.40855643 -0.5471263 -0.1446203
0.26685062 -0.34410402 0.028840713 -0.39890832 -0.60666037 0.2536004 -0.06274316 -1.0533963
0.27118325 0.28715205 -0.0821673 -0.09336438 -0.40265346 -0.06908935 -0.08283303 0.28300717
-0.06116636 0.28524265 0.029733272 -0.10220851 0.7135883 0.06372248 0.016704438 -0.20359287
-0.34636155 -0.2585823 0.019296484 -0.55074733 0.110824786 0.088267654 -0.011261808 -0.16557398
0.11223232 -0.12444478 0.398296 -0.12648107 0.2963286 -0.42046335 0.5171064 -0.4147951
-0.16141365 0.17286697 0.1965039 -0.08795871 -0.08192879 0.5173675 0.55896914 -0.049126744
0.30648136 0.08033527 0.68018275 0.02909312 0.35048863 -0.22812885 0.14822231 -0.273992
0.48872516 0.4859499 -0.22244719 0.3980848 -0.240653 0.17084129 -0.3654304 -0.049439806
-0.3312995 0.042678382 -0.1299298 0.1074637 0.18260014 0.06262765 -0.13569877 -0.3620112
0.3882068 0.59666044 0.04100407 0.21543714 -0.053182747 0.09205112 -0.031920664 -0.4583099
0.29322958 -0.23787661 -0.28342932 0.3848786 0.25442195 0.21577224 0.29788375 0.29073322
-0.0650342 0.47550967 -0.051470947 -0.21879438 0.8525189 0.35865334 -0.14148791 0.12200493
-0.15201782 0.5222102 -0.18613584 -0.20497154 0.3498395 -0.0703978 -0.5227415 0.22759777
-0.37696907 0.030306494 -0.32024568 0.14474179 0.28593364 0.4305909 1.085335 0.36073524
0.17148371 -0.005701992 0.5887135 -0.75656545 -0.06680801 0.25765714 -0.51074433 0.14221054
-0.25891286 -0.1202081 -0.37082654 0.33825746 0.19037862 -0.24028082 0.09829908 0.29801738
0.30443558 0.62476563 -0.4156056 0.074813366 0.16655912 -0.11221814 -0.024470503 0.0289292
0.058261957 -0.47518173 0.18342094 -0.24998042 0.07258837 -0.13280842 0.43787673 -0.38956133
0.024950892 -0.052065488 -0.22513495 -0.6835351 0.19330327 -0.17443807 -0.086031154 -0.36208788
0.3427415 0.73256284 -0.16171947 0.37447685 -0.051720597 -0.069338165 0.29081753 -0.13534392
-0.24399765 -0.16004205 -0.050138235 -0.30441445 -0.43586662 0.0032543961 -0.39092392 0.29123327
-0.04066013 0.4303992 0.14836125 0.53929454 -0.20084743 0.06781473 0.09517293 0.12180964
0.015928918 -0.11700996 0.054659117 -0.273278 0.49713424 0.35345596 -0.08751233 0.03178998
-0.0151521275 -0.45178324 0.14865059 0.11141396 -0.15955316 -0.26682627 0.114788376 0.15027753
0.31777057 0.04153153 -0.22726046 0.12210094 0.47708404 -0.7950686 -0.13752161 0.50457126
-0.1847098 -0.30087504 0.3247919 -0.40983978 0.26502463 0.52101463 -0.03076659 -0.23281433
0.077573285 0.2900763 0.16438504 -0.4702303 -0.38554865 0.42285752 0.06521693 0.020503707
-0.47708043 -0.07012861 -0.15979055 0.019851245 0.1337918 -0.019774001 0.069630824 0.08912842
-0.05640067 -0.11769666 0.23787096 -0.5426073 0.22033694 0.14749008 -0.0634654 -0.051761184
00000000: 5f74 97be 0799 f03e 1003 afbe 984d 04be
00000010: 2213 47bc 6118 87be 92ce 3cbf 7b00 01be
00000020: 6aca 6a3d ba18 8abd 393b 9d3d 8ebc ccbe
00000030: beeb 2fbd 1b9c 283e 0239 09bf 2e31 6c3e
00000040: 7172 04bc a72b 77bd cf62 813d e104 89be
00000050: eac3 89be 4f2e d13e 7810 0cbf 5817 14be
00000060: a5a0 883e 672e b0be 5c43 ec3c b63d ccbe
00000070: 184e 1bbf e9d7 813e 7c7f 80bd b1d5 86bf
00000080: 88d8 8a3e 9805 933e 5447 a8bd d335 bfbd
00000090: 9828 cebe b87e 8dbd 5da4 a9bd 51e6 903e
000000a0: 9489 7abd 530b 923e 3193 f33c b252 d1bd
000000b0: b9ad 363f ee80 823d bfd7 883c a67a 50be
000000c0: 4d56 b1be e664 84be a913 9e3c c7fd 0cbf
000000d0: 1bf8 e23d acc5 b43d 7283 38bc 3a8c 29be
000000e0: 0fda e53d e8dc febd 74ed cb3e 4184 01be
000000f0: 62b8 973e f946 d7be 1661 043f 0660 d4be
00000100: 9f49 25be 0a04 313e 5238 493e b223 b4bd
00000110: 48ca a7bd 3272 043f 9a18 0f3f 2039 49bd
00000120: 20eb 9c3e d186 a43d 7520 2e3f b254 ee3c
00000130: 3f73 b33e 9c9a 69be 97c7 173e ae48 8cbe
00000140: 2f3a fa3e 6dce f83e 32c9 63be c5d1 cb3e
00000150: bd6d 76be 05f1 2e3e b219 bbbe 6581 4abd
00000160: 17a0 a9be 87cf 2e3d 510c 05be ee15 dc3d
00000170: 88fb 3a3e ed42 803d 9ef4 0abe 8859 b9be
00000180: 0bc3 c63e bdbe 183f e2f3 273d 8e9b 5c3e
00000190: 27d6 59bd 4c85 bc3d 3ebf 02bd 98a7 eabe
000001a0: 3022 963e ed95 73be a61d 91be cf0e c53e
000001b0: 9843 823e 66f3 5c3e 3884 983e fcda 943e
000001c0: a730 85bd 0176 f33e 33d3 52bd a20b 60be
000001d0: ae3e 5a3f 69a1 b73e 35e2 10be b9dd f93d
000001e0: 8faa 1bbe 91af 053f 659a 3ebe 0fe4 51be
000001f0: 2a1e b33e b92c 90bd 63d2 05bf 640f 693e
00000200: 1702 c1be 5345 f83c 3ef7 a3be 3137 143e
00000210: e565 923e 6976 dc3e 42ec 8a3f 4ab2 b83e
00000220: 6d99 2f3e c7d7 babb eeb5 163f 46ae 41bf
00000230: a3d2 88bd a3eb 833e 24c0 02bf a49f 113e
00000240: 3a90 84be aa2f f6bd fadc bdbe 1530 ad3e
00000250: 9df2 423e 2d0c 76be 0751 c93d bc95 983e
00000260: fbde 9b3e a4f0 1f3f 42ca d4be c037 993d
00000270: 798e 2a3e a0d2 e5bd 5d76 c8bc eefc ec3c
00000280: 17a4 6e3d 054b f3be b3d2 3b3e defa 7fbe
00000290: 36a9 943d eefe 07be 6131 e03e 9574 c7be
000002a0: d065 cc3c 9f42 55bd c789 66be 28fc 2ebf
000002b0: 4bf1 453e e59f 32be 1a31 b0bd 9563 b9be
000002c0: d07b af3e 3d89 3b3f ca99 25be 6ebb bf3e
000002d0: fad8 53bd 2b01 8ebd 09e6 943e 9997 0abe
000002e0: 85da 79be 10e2 23be c05d 4dbd 36dc 9bbe
000002f0: e929 dfbe b547 553b 2e27 c8be 871c 953e
00000300: 3d8b 26bd 495d dc3e 03ec 173e 350f 0a3f
00000310: f3aa 4dbe 73e2 8a3d 06ea c23d 5577 f93d
00000320: 5d7d 823c eba2 efbd 3de2 5f3d 18eb 8bbe
00000330: 6188 fe3e 2ef8 b43e aa39 b3bd 3636 023d
00000340: a140 78bc 2250 e7be dc37 183e 012d e43d
00000350: e761 23be 749d 88be 2b16 eb3d 5ae2 193e
00000360: d3b2 a23e f71c 2a3d f7b6 68be 0f10 fa3d
00000370: 5c44 f43e 9e89 4bbf 77d2 0cbe 952b 013f
00000380: 9124 3dbe 4b0c 9abe 204b a63e 85d6 d1be
00000390: 4fb1 873e 3761 053f 370a fcbc e166 6ebe
000003a0: bede 9e3d e184 943e 8d54 283e 07c2 f0be
000003b0: a266 c5be c880 d83e 7490 853d 64f7 a73c
000003c0: e343 f4be 979f 8fbd 22a0 23be 149f a23c
000003d0: b800 093e 16fd a1bc 9b9a 8e3d f688 b63d
000003e0: 6404 67bd f20a f1bd 7294 733e 50e8 0abf
000003f0: 02a0 613e a407 173e 26fa 81bd 8903 54bd

lstm.bias_ih_l0 f4 [80]
-0.13138694 0.0064599765 -0.07777681 0.13887419 0.28110656 0.11143189 0.34436107 0.044338763
0.17138912 0.089045525 0.2913261 0.28168327 -0.09688259 -0.22140485 0.31647643 0.28620386
-0.013017303 0.29225793 0.20172966 0.3043718 0.2608299 0.073697545 0.18851118 -0.03448075
-0.022188196 0.3331239 0.19062433 -0.12734452 0.20658138 0.41217408 -0.02151654 0.29943013
0.21953547 0.10722855 0.057403427 0.027699249 0.48100886 0.05209761 -0.027595751 0.05515271
0.048555236 0.19305655 0.10789264 -0.13537937 -0.001193656 0.12656724 -0.0743804 -0.16225441
0.18998003 0.10897395 -0.07378018 -0.0846553 0.0927643 0.07557631 0.089778796 -0.06502431
0.08270233 0.07546691 0.07676471 -0.15856135 0.12649682 0.0075105517 0.1520928 0.006671977
0.30057824 0.014932968 0.47652653 0.14331454 0.20462243 0.09014097 0.54792935 0.21438444
0.26104745 0.2898784 0.26072553 0.1069 0.02777452 0.23198798 0.20995964 0.36685514
00000000: 4c8a 06be 36ae d33b 7349 9fbd 0935 0e3e
00000010: 33ed 8f3e 6736 e43d 1850 b03e 909c 353d
00000020: a180 2f3e 805d b63d b228 953e ca38 903e
00000030: 616a c6bd f4b7 62be 3309 a23e 5089 923e
00000040: 8746 55bc d5a2 953e 3892 4e3e 9fd6 9b3e
00000050: 7f8b 853e bdee 963d 1309 413e b03b 0dbd
00000060: 05c4 b5bc 378f aa3e 0633 433e 9a66 02be
00000070: 128a 533e 7b08 d33e 7443 b0bc e84e 993e
00000080: e8cd 603e a49a db3d db1f 6b3d 89e9 e23c
00000090: cb46 f63e 4e64 553d 7c10 e2bc cfe7 613d
000000a0: dbe1 463d 9eb0 453e d1f6 dc3d e4a0 0abe
000000b0: 7374 9cba d89a 013e c054 98bd 0526 26be
000000c0: 208a 423e bc2d df3d 101a 97bd c25f adbd
000000d0: 36fb bd3d c1c7 9a3d f2dd b73d 772b 85bd
000000e0: d75f a93d 658e 9a3d d136 9d3d e85d 22be
000000f0: 6288 013e 131b f63b 37be 1b3e 9aa0 da3b
00000100: 64e5 993e 68a9 743c 49fb f33e 0cc1 123e
00000110: 8b88 513e d49b b83d 1945 0c3f 9887 5b3e
00000120: 03a8 853e f16a 943e d17d 853e 63ee da3d
00000130: 6487 e33c 428e 6d3e a9ff 563e 70d4 bb3e

lstm.bias_hh_l0 f4 [80]
0.062263153 0.24582642 0.16465284 0.08181204 -0.051348962 0.13200271 0.15948538 -0.047130395
-0.074916705 -0.0069656963 0.053834092 0.15630868 0.121996544 0.029735783 0.24414518 0.042220104
0.1208564 0.15341637 0.33666372 0.20409815 0.16281614 0.05198614 0.08060996 0.14449464
0.22308093 0.30159888 0.0032570781 -0.12535378 0.27928042 0.21646443 0.20321968 0.4485558
0.24943325 0.100975685 -0.02876138 0.14607936 0.063336596 0.08309529 0.25905994 -0.055432793
0.049351368 -0.18352303 -0.030612692 -0.16495119 0.14715841 0.19127865 -0.091514096 0.21553741
-0.0061963303 -0.042974167 0.2556828 0.0784117 0.13523361 0.07462459 0.16374579 -0.11059533
0.11782663 0.10435999 0.079275735 -0.05585764 0.27200451 0.14811505 0.28085527 0.33740416
0.1126661 0.21289098 0.14712963 -0.078201905 0.27444905 0.26947528 0.2773833 0.39474198
0.12075276 0.38837138 0.04876911 0.07933121 0.21664353 0.35620993 0.12020166 0.17248929
00000000: a607 7f3d ecb9 7b3e c19a 283e 128d a73d
00000010: 4a53 52bd b82b 073e 2350 233e cd0b 41bd
00000020: ee6d 99bd 7f40 e4bb 2381 5c3d 620f 203e
00000030: 53d9 f93d 7598 f33c 3201 7a3e fdee 2c3d
00000040: 8f83 f73d 2e19 1d3e 305f ac3e 1bff 503e
00000050: 46b9 263e 6bef 543d d616 a53d 67f6 133e
00000060: 546f 643e 2b6b 9a3e b474 553b be5c 00be
00000070: d8fd 8e3e daa8 5d3e d218 503e 1ba9 e53e
00000080: 6e6b 7f3e 57cc ce3d fc9c ebbc d495 153e
00000090: 9eb6 813d dd2d aa3d 81a3 843e 7f0d 63bd
000000a0: a924 4a3d 76ed 3bbe 78c7 fabc f7e8 28be
000000b0: b2b0 163e 8dde 433e be6b bbbd d7b5 5c3e
000000c0: 960a cbbb ae05 30bd dbe8 823e 5096 a03d
000000d0: ae7a 0a3e c7d4 983d faac 273e ce7f e2bd
000000e0: 174f f13d b1ba d53d 515b a23d fbca 64bd
000000f0: 2d44 8b3e 79ab 173e 43cc 8f3e 3dc0 ac3e
00000100: 7cbd e63d 1800 5a3e 26a9 163e 5228 a0bd
00000110: 9684 8c3e aaf8 893e 2f05 8e3e 9f1b ca3e
00000120: 394d f73d 9dd8 c63e 1ec2 473d 6778 a23d
00000130: cdd7 5d3e 2661 b63e 4a2c f63d 08a1 303e

lstm.weight_ih_l0_reverse f4 [80, 20]
-0.14856052 -0.22132654 0.122033626 -0.18897007 -0.16833213 -0.15517506 -0.15738524 0.104746625
-0.05428632 0.3439996 -0.047024652 -0.23736377 0.19781083 -0.06308288 0.004639095 -0.12693933
0.26891568 -0.06569656 0.12636723 -0.08002271 -0.12701605 0.14229558 0.23930953 0.005891251
-0.15341514 -0.21018781 0.063433066 -0.04300829 -0.27105623 0.14051089 -0.12669997 0.11773214
0.025320757 0.20547754 -0.18765604 0.25209662 0.067872025 -0.11300883 -0.095560074 -0.19474609
-0.1600218 0.31678504 -0.25248015 -0.14270984 -0.032477953 0.064098455 -0.06639659 -0.17906605
0.110497 -0.10346072 -0.22499163 0.027531922 0.043008953 0.08804344 -0.12392912 0.35454538
0.38707107 0.0070464984 -0.12016045 0.110219024 0.055450507 0.21610625 -0.4255203 0.18531318
0.07679382 -0.06753857 -0.044951335 -0.07854993 0.23754358 0.1660611 0.07517029 0.15805529
-0.17677385 -0.0050071757 -0.10789603 -0.054460026 -0.25337133 0.10193259 0.062112037 0.13755485
0.20137191 -0.061818514 -0.13765486 -0.007973145 0.07294239 0.048156083 0.034798834 -0.029379115
0.22795834 0.13658147 -0.2157457 -0.15826198 -0.08599355 -0.16884094 0.09373033 0.12507673
0.26814383 0.07626498 -0.18694341 0.16528358 -0.01789471 0.069051735 0.058707103 0.15475209
0.009411009 0.11653742 -0.20695981 0.012898118 0.37672654 -0.15572673 0.20190899 0.10461265
-0.3055105 0.3309906 0.17595541 -0.16221255 0.10910857 -0.16666093 0.050251856 0.17084984
0.3283159 0.00093448197 -0.3417786 0.18339536 0.44854024 0.03138164 0.19413483 -0.15195113
0.2469363 0.20357995 0.06446182 -0.038699545 -0.16444276 -0.18673873 0.17467466 0.07429851
0.15562403 0.010811481 0.0525001 0.036781695 0.13843289 0.15839612 -0.10919576 0.19170757
-0.3371131 0.058495753 -0.10675203 0.13739146 -0.37231648 0.13416086 0.08429207 -0.10181601
0.036948018 0.7424484 -0.021253217 0.38304365 0.08481152 -0.16129363 0.15090902 0.037004896
0.31308436 0.10801171 0.3015824 -0.059092924 0.23105703 0.17835456 -0.032102328 -0.15885137
-0.17941692 -0.07160756 -0.40716577 0.2207602 -0.2693551 -0.17364214 0.18934995 -0.07044575
-0.11032234 -0.11440427 -0.4513935 0.18718387 -0.16751283 0.11523013 0.1132505 0.14274895
-0.07094289 0.12454382 -0.15025195 0.07563601 0.039008606 -0.007588761 -0.0640074 0.25210944
-0.06579251 0.18653047 -0.0619406 -0.31093433 -0.29526365 -0.0560184 0.15803888 0.1469132
-0.11386169 0.20941192 0.06821625 -0.09650059 -0.076277204 0.05972149 -0.22101916 -0.10303167
0.12141839 0.0009178916 0.073049404 -0.049886208 -0.03443724 -0.1482699 -0.1396031 -0.35646614
0.13154931 -0.15444478 0.07548891 -0.003333252 0.037794065 -0.035177097 -0.029048245 -0.056731626
-0.28215298 0.66081554 -0.02063955 0.05695404 -0.21367812 -0.26492724 -0.0770798 -0.13725999
-0.11107452 0.038044102 0.028319271 -0.12999788 -0.0023922848 -0.14663212 -0.105778 0.083042055
0.28870425 0.039050788 0.34696782 -0.22870526 -0.025244884 0.11113555 -0.17778045 -0.0028160445
-0.12797028 -0.04313728 -0.2051387 0.2437185 0.040089976 0.23646002 -0.06520651 -0.23241423
00000000: 4020 18be 6da3 62be c4ec f93d 5f81 41be
00000010: 425f 2cbe 36e6 1ebe 9929 21be 6685 d63d
00000020: 555b 5ebd b720 b03e ec9c 40bd 7d0f 73be
00000030: ec8e 4a3e 9931 81bd 8d03 983b 62fc 01be
00000040: 51af 893e eb8b 86bd 6966 013e f2e2 a3bd
00000050: 7f10 02be efb5 113e 8f0d 753e 650b c13b
00000060: dc18 1dbe 793b 57be 32e9 813d 7629 30bd
00000070: e2c7 8abe 16e2 0f3e a3bd 01be 8c1d f13d
00000080: 7a6d cf3c b468 523e e828 40be cf12 813e
00000090: 7d00 8b3d 2c71 e7bd 00b5 c3bd 856b 47be
000000a0: c1dc 23be a631 a23e 1445 81be 8722 12be
000000b0: 9a07 05bd 0d46 833d effa 87bd 175d 37be
000000c0: 404c e23d 37e3 d3bd 3564 66be a08a e13c
000000d0: 282a 303d 1e50 b43d 8dce fdbd f986 b53e
000000e0: 2e2e c63e 50e6 e63b af16 f6bd 83ba e13d
000000f0: 1220 633d f54a 5d3e ccdd d9be bdc2 3d3e
00000100: 1446 9d3d a951 8abd e41e 38bd c9de a0bd
00000110: a03e 733e ec0b 2a3e e2f2 993d 3fd9 213e
00000120: 3404 35be 3c13 a4bb 98f8 dcbd 7a11 5fbd
00000130: e3b9 81be 09c2 d03d 3169 7e3d 2edb 0c3e
00000140: 7034 4e3e 6935 7dbd 65f5 0cbe cba1 02bc
00000150: d262 953d 503f 453d 3989 0e3d 78ac f0bc
00000160: e96d 693e 03dc 0b3e 71ec 5cbe 6e0f 22be
00000170: 631d b0bd a4e4 2cbe b0f5 bf3d 1d14 003e
00000180: 264a 893e d030 9c3d 186e 3fbe 1940 293e
00000190: ed97 92bc ff6a 8d3d dc76 703d 5577 1e3e
000001a0: a230 1a3c 2cab ee3d 46ed 53be a152 533c
000001b0: 4de2 c03e d476 1fbe 3bc1 4e3e 283f d63d
000001c0: df6b 9cbe 9a77 a93e a82d 343e 0c1b 26be
000001d0: 5074 df3d 2aa9 2abe e4d4 4d3d 43f3 2e3e
000001e0: 0619 a83e 06f8 743a 9bfd aebe fecb 3b3e
000001f0: 11a7 e53e 098a 003d 48cb 463e 1499 1bbe
00000200: dfdc 7c3e 4377 503e 8f04 843d 6a83 1ebd
00000210: af63 28be 7038 3fbe eadd 323e d129 983d
00000220: e85b 1f3e a322 313c 580a 573d 67a8 163d
00000230: 5ac1 0d3e 9832 223e 07a2 dfbd fd4e 443e
00000240: 179a acbe 3e99 6f3d cfa0 dabd 59b0 0c3e
00000250: 44a0 bebe 7761 093e 52a1 ac3d ea84 d0bd
00000260: ce56 173d 1911 3e3f 3a1b aebc 4c1e c43e
00000270: aab1 ad3d 282a 25be e587 1a3e 7292 173d
00000280: 984c a03e 3e35 dd3d 0269 9a3e 6c0b 72bd
00000290: 379a 6c3e 94a2 363e bb7d 03bd efa9 22be
000002a0: 12b9 37be fca6 92bd 0878 d0be f60e 623e
000002b0: e9e8 89be 3fcf 31be f4e4 413e dd45 90bd
000002c0: aef0 e1bd c94c eabd 0d1d e7be 21ad 3f3e
000002d0: 7c88 2bbe c6fd eb3d e1ef e73d c82c 123e
000002e0: 824a 91bd d510 ff3d a6db 19be 0de7 9a3d
000002f0: 7dc7 1f3d 24ab f8bb 5016 83bd 7d14 813e
00000300: 39be 86bd d801 3f3e 6db5 7dbd c932 9fbe
00000310: cc2c 97be 8d73 65bd f2d4 213e 6a70 163e
00000320: 5130 e9bd 1470 563e f6b4 8b3d 1aa2 c5bd
00000330: 3937 9cbd 859e 743d d952 62be 4502 d3bd
00000340: 34aa f83d aa9e 703a ed9a 953d 7b55 4cbd
00000350: 100e 0dbd 11d4 17be 1df4 0ebe bb82 b6be
00000360: ddb4 063e c626 1ebe ee99 9a3d b072 5abb
00000370: f3cd 1a3d dc15 10bd 96f6 edbc 6c5f 68bd
00000380: 5b76 90be 352b 293f 4614 a9bc a448 693d
00000390: 70ce 5abe 8ba4 87be 04dc 9dbd e28d 0cbe
000003a0: 0a7b e3bd 22d4 1b3d d1fd e73c 2a1e 05be
000003b0: e1c7 1cbb bb26 16be 23a2 d8bd f411 aa3d
000003c0: 0bd1 933e b8f3 1f3d c4a5 b13e b631 6abe
000003d0: 5cce cebc 099b e33d 140c 36be 638d 38bb
000003e0: a40a 03be b7b0 30bd e10f 52be 5891 793e
000003f0: 6335 243d 9322 723e fe8a 85bd fffd 6dbe

lstm.weight_hh_l0_reverse f4 [80, 20]
0.63513917 -0.06833184 -0.13284762 0.23865348 0.14843555 -0.07404771 0.522944 0.19794726
-0.32192537 0.04610476 -0.29771978 -0.29666385 0.04390453 -0.22514878 0.104342915 -0.0684443
0.15291746 -0.181495 0.09734216 -0.063919984 -0.22544894 -0.065783024 -0.070129715 -0.12598099
0.03873003 -0.26137632 0.82781994 0.29848376 -0.32597306 0.06573332 -0.25144336 -0.18880259
-0.09420782 -0.63034374 -0.41803992 0.42654508 0.2684431 -0.37875274 -0.23401962 -0.1176302
-0.07782651 -0.09154992 -0.24207838 -0.25695342 -0.23049468 0.10359001 -0.053028896 -0.29440528
-0.34262905 0.10315641 0.16730502 -0.27230737 -0.2398146 -0.032992482 -0.09603284 0.060585625
-0.19751771 -0.13065214 -0.22026253 -0.23272252 0.74193996 -0.15781896 -0.32351124 0.21131285
0.24670842 -0.372413 0.24221566 0.17555828 -0.14029361 0.20726857 0.19540331 -0.16809104
0.0792637 -0.26968366 0.19078572 0.5308847 0.2947464 0.10536289 0.14123413 -0.19664954
-0.07701906 0.06571206 -0.38774452 -0.07443767 0.0011519567 -0.08256344 0.1134137 -0.060886703
-0.12165107 0.21847627 0.14566079 -0.09504657 -0.7399941 -0.20927411 -0.24578865 -0.12096212
-0.08804381 0.014805692 -0.23599768 -0.12967092 -0.14667626 -0.06680049 -0.015682029 -0.017156912
0.114170276 -0.16770162 -0.28055698 0.16904342 -0.3069951 0.11989983 0.12106964 -0.33924076
0.31373104 0.004635282 0.015929248 0.067697346 -0.011434624 0.07673608 0.20646201 0.043211266
-0.08191743 0.12155793 -0.14554203 0.27069044 0.040658608 -0.20830613 0.33580822 0.07851359
-0.051142793 0.16505559 0.054812208 -0.69029796 -0.77717507 -0.016359765 0.15733588 0.010379208
0.20891926 -0.64670926 -0.2293297 0.033878244 -0.08383029 -0.12951256 -0.028810881 0.3795724
0.16063154 -0.2480361 0.055926725 -0.27629316 0.12964745 0.044130284 -0.14321771 -0.13418856
-0.10828924 0.07039393 0.15328625 0.09165379 -0.25212502 0.21450149 -0.14303589 0.57646656
-0.20057127 -0.16095015 0.05665277 -0.1893487 -0.1668791 0.1822101 -0.09101479 -0.27188838
-0.001456943 0.09879247 0.114694126 -0.2710263 0.3017534 -0.17708318 -0.05980866 -0.17952892
-0.17677799 -0.14628819 -0.16315147 0.031098085 0.59568727 -0.3271711 -0.116942264 0.24180578
0.6002377 -0.20706993 0.1172413 0.11338039 -0.1662009 -0.017201407 -0.41452664 0.03132831
-0.07770691 -0.2126455 -0.049225148 0.08783243 0.42855504 -0.25063583 -0.27037877 0.34141088
0.3275659 0.075666696 0.104886994 0.24137011 0.10994784 0.12890111 -0.0025021678 -0.108221725
-0.014445561 0.14031573 0.11047324 0.0572142 -0.0306131 -0.19417457 -0.39196533 -0.041765254
0.26953697 -0.4449758 0.16765152 0.7719901 0.4823018 -0.17039226 -0.11603154 0.21757877
0.27265826 -0.27466992 0.33644506 0.07684008 -0.093755685 0.30214667 -0.18974642 0.09712025
0.14537565 -0.046440214 -0.13084608 0.26609528 0.21520613 0.00894847 -0.22116593 0.16063286
0.12626354 -0.10431455 0.31215256 0.059687227 -0.020414844 -0.042555925 0.15182339 -0.31125426
0.031459097 -0.07969762 -0.059962485 0.086530596 0.12379881 0.46032795 0.051907483 0.0059178947
00000000: 7b98 223f 90f1 8bbd 3509 08be 9461 743e
00000010: 7dff 173e 53a6 97bd a8df 053f b0b2 4a3e
00000020: 67d3 a4be 58d8 3c3d ba6e 98be 53e4 97be
00000030: 3dd5 333d 678d 66be bdb1 d53d 862c 8cbd
00000040: 6596 1c3e d3d9 39be 545b c73d 7be8 82bd
00000050: 16dc 66be 40b9 86bd 2ba0 8fbd 2901 01be
00000060: 61a3 1e3d 1ed3 85be 02ec 533f ddd2 983e
00000070: f1e5 a6be 319f 863d 2fbd 80be 7755 41be
00000080: 08f0 c0bd 355e 21bf 5409 d6be 1e64 da3e
00000090: 6071 893e e1eb c1be d7a2 6fbe 1ae8 f0bd
000000a0: 8163 9fbd 867e bbbd 65e3 77be 668f 83be
000000b0: cc06 6cbe 0027 d43d d434 59bd 4abc 96be
000000c0: 136d afbe ab43 d33d 0252 2b3e df6b 8bbe
000000d0: f591 75be 2023 07bd deac c4bd a228 783d
000000e0: 1542 4abe adc9 05be 808c 61be d04e 6ebe
000000f0: c7ef 3d3f 4b9b 21be 44a3 a5be 6562 583e
00000100: 22a1 7c3e ebac bebe 6207 783e 8dc5 333e
00000110: 21a9 0fbe 363e 543e ce17 483e 0f20 2cbe
00000120: 0255 a23d fa13 8abe 555d 433e 0fe8 073f
00000130: 00e9 963e 80c8 d73d ae9f 103e 7f5e 49be
00000140: 2bbc 9dbd 0b94 863d 7386 c6be c772 98bd
00000150: 41fd 963a 0517 a9bd 7145 e83d 5664 79bd
00000160: 3224 f9bd 3eb8 5f3e 1a28 153e c7a7 c2bd
00000170: 4170 3dbf f44b 56be 05b0 7bbe fdba f7bd
00000180: 5050 b4bd 9393 723c 60a9 71be 74c8 04be
00000190: 4d32 16be b2ce 88bd 9977 80bc a78c 8cbc
000001a0: 1bd2 e93d f9b9 2bbe 2aa5 8fbe b819 2d3e
000001b0: 762e 9dbe 0b8e f53d 5cf3 f73d f7b0 adbe
000001c0: 5ba1 a03e 90e3 973b 0e7e 823c e8a4 8a3d
000001d0: 4a58 3bbc ce27 9d3d c76a 533e 4cfe 303d
000001e0: 53c4 a7bd 5df3 f83d f808 15be f097 8a3e
000001f0: a489 263d 344e 55be 0eef ab3e bccb a03d
00000200: 1b7b 51bd 5504 293e c482 603d 5eb7 30bf
00000210: f2f4 46bf ea04 86bc a81c 213e 8e0d 2a3c
00000220: eeee 553e bd8e 25bf 68d5 6abe eac3 0a3d
00000230: 37af abbd f19e 04be cc04 ecbc 5057 c23e
00000240: 987c 243e 2dfd 7dbe 6c13 653d 4c76 8dbe
00000250: 4dc2 043e f5c1 343d aaa7 12be ba68 09be
00000260: c0c6 ddbd b12a 903d 12f7 1c3e fbb4 bb3d
00000270: 8816 81be 47a6 5b3e 0078 12be 5093 133f
00000280: 8e62 4dbe 1ed0 24be bc0c 683d a0e4 41be
00000290: 5be2 2abe 4995 3a3e f665 babd f434 8bbe
000002a0: e5f6 beba b553 ca3d c1e4 ea3d f6c3 8abe
000002b0: 6c7f 9a3e 4b55 35be edf9 74bd 6ed6 37be
000002c0: 4a05 35be 92cc 15be 2e11 27be 69c1 fe3c
000002d0: f67e 183f f882 a7be 6d7f efbd ef9b 773e
000002e0: 2ea9 193f 240a 54be 351c f03d fa33 e83d
000002f0: 9230 2abe f7e9 8cbc d63c d4be 1d52 003d
00000300: cd24 9fbd bebf 59be 4fa0 49bd 7de1 b33d
00000310: 916b db3e 5753 80be 166f 8abe 68cd ae3e
00000320: b8b6 a73e 24f7 9a3d fece d63d ba29 773e
00000330: 552c e13d a7fe 033e 69fb 23bb 5aa3 ddbd
00000340: 13ad 6cbc edae 0f3e cb3f e23d 7059 6a3d
00000350: 53c8 fabc b3d5 46be aeaf c8be 0b12 2bbd
00000360: c000 8a3e ded3 e3be d7ac 2b3e 25a1 453f
00000370: 43f0 f63e 4f7b 2ebe f2a1 edbd f8cc 5e3e
00000380: dd99 8b3e 89a1 8cbe 8742 ac3e 555e 9d3d
00000390: fb02 c0bd f8b2 9a3e e34c 42be fbe6 c63d
000003a0: 5bdd 143e 1838 3ebd 84fc 05be a43d 883e
000003b0: ff5e 5c3e 9a9c 123c 5279 62be f17c 243e
000003c0: 3b4b 013e dea2 d5bd 76d2 9f3e 987a 743d
000003d0: 083d a7bc 1f4f 2ebd 9777 1b3e b85c 9fbe
000003e0: 41db 003d 8138 a3bd 399b 75bd f436 b13d
000003f0: 3b8a fd3d 1bb0 eb3e f19c 543d e6ea c13b

lstm.bias_ih_l0_reverse f4 [80]
-0.18204218 0.068177514 0.0791286 0.03066636 -0.023796828 -0.07274338 -0.18260232 -0.009615185
0.032997966 0.056479637 0.18677492 0.04240003 0.077692896 0.12924378 0.0034007104 0.19799253
0.123483814 0.12692857 0.3893482 0.15511745 -0.13338888 0.14768502 0.007792807 0.17023909
0.08115474 0.24635608 -0.04347143 0.22966802 -0.102882355 -0.12298394 0.06455959 -0.2168069
0.21637207 -0.01383748 0.1194477 0.065702684 0.13153505 0.05803419 -0.23780575 0.3037562
0.092995904 -0.10287457 0.09595233 -0.055545494 -0.09427827 0.07284365 0.0031777073 0.08592393
-0.0022427454 -0.197546 -0.009997062 0.04901007 0.21709166 -0.10941423 0.007981042 0.16576573
-0.061287396 -0.22238979 -0.15672025 0.15690728 0.11351831 0.2822983 0.015786951 0.0011300585
0.038095724 0.1978854 -0.14750566 0.30032262 0.21718618 -0.059854053 -0.109761305 -0.02645377
0.26948464 0.0043229824 -0.014313555 0.21848042 0.115698464 0.14399862 -0.10299538 0.16747442
00000000: 4469 3abe a7a0 8b3d 2d0e a23d 0538 fb3c
00000010: 91f1 c2bc 7bfa 94bd 1afc 3abe 0289 1dbc
00000020: e028 073d 3157 673d ed41 3f3e a7ab 2d3d
00000030: 741d 9f3d 7b58 043e 74de 5e3b 8ebe 4a3e
00000040: 15e5 fc3d 90f9 013e a658 c73e 1cd7 1e3e
00000050: 1897 08be be3a 173e ce5a ff3b 2853 2e3e
00000060: 7534 a63d c544 7c3e 190f 32bd 182e 6b3e
00000070: fcb3 d2bd 01df fbbd d137 843d a102 5ebe
00000080: a490 5d3e 99b6 62bc ffa0 f43d 218f 863d
00000090: 20b1 063e 42b5 6d3d 5a83 73be ef85 9b3e
000000a0: a374 be3d e7af d2bd a882 c43d ac83 63bd
000000b0: f714 c1bd 0d2f 953d 1541 503b e3f8 af3d
000000c0: 06fb 12bb 8049 4abe b8ca 23bc c8be 483d
000000d0: 474d 5e3e 9114 e0bd ebc2 023c 7ebe 293e
000000e0: 7e08 7bbd 26ba 63be 467b 20be 4dac 203e
000000f0: 4a7c e83d 6789 903e a353 813c 791e 943a
00000100: 430a 1c3d 78a2 4a3e b90b 17be e3c3 993e
00000110: 0e66 5e3e 8629 75bd 89ca e0bd 94b5 d8bc
00000120: e4f9 893e cea7 8d3b 6783 6abc 55b9 5f3e
00000130: 51f3 ec3d 6074 133e 3eef d2bd 6a7e 2b3e

lstm.bias_hh_l0_reverse f4 [80]
-0.04546521 0.13318738 -0.009877395 -0.037615363 -0.013990863 -0.09738583 -0.19274019 -0.03150238
0.051431905 0.21733949 -0.080645904 0.24342403 0.091569155 0.18064466 -0.077843934 -0.23646455
-0.25343943 0.15977709 0.35058564 0.33337888 0.073274195 0.0025708638 -0.002651128 0.23163338
-0.01674749 0.104444735 0.29341143 0.0009031505 -0.1697733 0.138249 0.09408137 -0.20646644
0.19521007 -0.10370382 0.2031548 0.023065008 -0.1919094 0.13449742 -0.13654444 0.03949102
-0.07583812 0.21529604 -0.017123526 0.055838995 -0.06465774 0.021855205 -0.12273363 -0.20184262
0.22574429 0.032118622 -0.07883857 -0.099038884 0.1328564 -0.2640963 -0.15585335 0.014174111
-0.19462076 -0.18946879 0.15803577 0.10524055 0.026116215 0.014310085 -0.06298309 -0.1603254
0.11699527 0.081220195 -0.06933271 0.10876419 0.2503433 0.18649715 0.18327619 0.09068075
0.16207346 -0.108486116 0.29158375 -0.105032355 -0.09402548 0.08935451 0.07228013 0.08080487
00000000: ba39 3abd 4662 083e ccd4 21bc 9112 1abd
00000010: ef39 65bc 3972 c7bd af5d 45be a408 01bd
00000020: 43aa 523d 3e8e 5e3e ae29 a5bd 2644 793e
00000030: 9c88 bb3d eafa 383e a46c 9fbd c323 72be
00000040: d0c2 81be 9b9c 233e f67f b33e a3b0 aa3e
00000050: c810 963d f07b 283b 8cbe 2dbb 4d31 6d3e
00000060: 0832 89bc 1fe7 d53d 063a 963e 67c1 6c3a
00000070: 0dd9 2dbe 2591 0d3e bcad c03d f06b 53be
00000080: 26e5 473e ab62 d4bd d007 503e d4f2 bc3c
00000090: e683 44be b1b9 093e 4ed2 0bbe 56c1 213d
000000a0: 0451 9bbd 9176 5c3e a346 8cbc 6eb7 643d
000000b0: 476b 84bd b009 b33c c55b fbbd d5af 4ebe
000000c0: 8329 673e d18e 033d 1e76 a1bd e6d4 cabd
000000d0: 820b 083e a137 87be 0598 1fbe 883a 683c
000000e0: aa4a 47be 1b04 42be 21d4 213e 5c88 d73d
000000f0: acf1 d53c d974 6a3c 47fd 80bd 572c 24be
00000100: 379b ef3d c656 a63d 4ffe 8dbd c2bf de3d
00000110: ff2c 803e 1cf9 3e3e c1ac 3b3e d4b6 b93d
00000120: 96f6 253e f82d debd 774a 953e 341b d7bd
00000130: 6e90 c0bd 7fff b63d 9b07 943d 067d a53d

lstm.weight_ih_l1 f4 [80, 40]
-0.14914487 0.009811429 0.053089354 0.06390014 -0.21459268 -0.20205021 0.12525153 -0.1735129
0.44830918 0.3572795 0.25564617 -0.2535944 -0.010688958 0.15554965 -0.2921719 0.20890908
0.16733944 0.01678325 -0.29766968 -0.17126404 0.13044858 -0.3250259 -0.18504551 -0.058773387
-0.14911316 -0.08616541 0.089440174 -0.12852608 0.230352 -0.13282566 0.0716376 -0.28105825
0.11290396 0.26018056 0.024924248 -0.020468747 0.1910579 -0.24997193 0.098323 0.10902109
0.1164066 -0.14672558 -0.19866236 -0.061673533 0.1734913 -0.08851123 -0.13365135 0.21094552
0.046862427 0.3364593 0.14969021 0.11692876 0.0254128 0.29481962 0.18964295 0.058174588
0.21922436 -0.21569033 0.05822426 -0.21989428 0.16786534 0.24946667 0.31427 -0.27777302
-0.22389613 0.22338161 -0.31620005 -0.51218283 0.19220267 -0.07053422 0.30370212 0.066299774
0.07816591 0.24021749 0.08447354 0.122553945 -0.17364976 -0.055959176 0.007530444 0.10341594
0.41766155 -0.36629757 0.36344036 -0.35539284 -0.091200925 0.2683788 -0.9073519 -0.3828017
-0.27683213 -0.18765616 -0.19626543 -0.05640268 0.5902584 -0.0015536514 0.097575255 -0.29255736
-0.51357496 -0.1700356 0.4561537 0.23274443 0.35802907 -0.41053972 0.09061872 0.37665215
-0.041414697 0.09114483 0.14688565 -0.28382653 0.222396 -0.01047444 -0.0768555 -0.19288178
-0.0858698 0.008766168 0.07169028 0.07301799 0.06750196 -0.66466063 0.20410673 0.40890002
0.29253224 -0.23808804 0.35764334 -0.080123335 -0.44708607 0.04334317 0.42892456 0.15353005
0.231187 -0.0731989 0.018645987 0.06483338 -0.103404135 -0.13534977 -0.122727826 0.30146104
0.08796972 -0.24300282 0.08068485 -0.13148507 -0.018748946 0.21828084 0.3046075 -0.3553379
-0.1281347 0.025578793 -0.12599052 -0.12789367 -0.10268464 -0.20669982 0.23359126 0.09724288
-0.34929624 -0.1496499 -0.15074173 -0.12457939 -0.11987786 0.012589701 0.02521874 0.036406595
0.3044608 -0.034206808 -0.010007996 0.16168766 -0.25332993 -0.14942478 0.45213422 0.39874914
0.3183134 0.014269069 0.16939403 0.072398044 0.07893308 -0.18363488 -0.019058596 0.07835025
-0.024857957 0.16972099 -0.09079499 0.06579761 -0.048889916 0.31693447 0.2794433 -0.24207261
-0.050006907 -0.013860626 0.10442232 -0.3163922 -0.13554628 -0.23267712 -0.15895265 0.09765111
-0.3559176 0.02168437 -0.24721624 -0.19852373 -0.22544457 -0.2128556 -0.25082535 -0.029802153
0.30353215 0.15124303 -0.31949022 -0.24061309 0.50108993 -0.016034171 0.07162283 -0.4054145
0.0981458 0.23784553 0.0060762246 -0.04917639 0.091434255 -0.019768659 0.055413242 0.24305706
-0.18992622 -0.14938061 -0.5223136 0.10646239 -0.18401454 0.09823625 0.47145933 -0.067800164
-0.046792198 -0.091335244 -0.045244038 -0.3952256 0.27274764 -0.13467035 0.19310072 0.06850381
0.103593476 0.056612562 -0.13646132 -0.35350892 -0.20469408 -0.09210194 0.056047957 -0.24707627
0.026771985 0.27413234 -0.12889516 -0.25267705 -0.38055667 0.22366363 0.016162694 -0.014088899
0.1417325 0.016296873 -0.2908211 0.7546908 0.14864409 0.01674184 -0.13133462 0.07955701
00000000: 6fb9 18be 1ec0 203c 3974 593d 14de 823d
00000010: 2fbe 5bbe 40e6 4ebe f041 003e 5ead 31be
00000020: c888 e53e 57ed b63e 0ee4 823e 20d7 81be
00000030: bd20 2fbc 6848 1f3e 8e97 95be 43ec 553e
00000040: 085b 2b3e 077d 893c 2968 98be d75f 2fbe
00000050: 5094 053e cb69 a6be 927c 3dbe 5dbc 70bd
00000060: 1fb1 18be 7e77 b0bd 692c b73d 579c 03be
00000070: 65e1 6b3e 7303 08be bcb6 923d dee6 8fbe
00000080: 313a e73d 6336 853e f02d cc3c 13ae a7bc
00000090: afa4 433e a4f8 7fbe 925d c93d 7346 df3d
000000a0: 9566 ee3d 3b3f 16be 256e 4bbe 639d 7cbd
000000b0: b4a7 313e 6045 b5bd e6db 08be 1a02 583e
000000c0: d1f2 3f3d 6544 ac3e 6448 193e 5978 ef3d
000000d0: 812e d03c 99f2 963e c331 423e 7a48 6e3d
000000e0: 5a7c 603e eddd 5cbe 907c 6e3d f72b 61be
000000f0: e4e4 2b3e 3174 7f3e ffe7 a03e 4438 8ebe
00000100: 0745 65be 26be 643e f9e4 a1be 6a1e 03bf
00000110: c7d0 443e 3f74 90bd d87e 9b3e 2dc8 873d
00000120: 7315 a03d 93fb 753e 7700 ad3d 90fd fa3d
00000130: 3ed1 31be 7335 65bd f1c1 f63b bdcb d33d
00000140: bcd7 d53e 5b8b bbbe db14 ba3e 0df6 b5be
00000150: 8dc7 babd f268 893e 3748 68bf 96fe c3be
00000160: f1bc 8dbe f028 40be cef9 48be 7f06 67bd
00000170: 2d1b 173f e4a3 cbba 89d5 c73d 14ca 95be
00000180: a679 03bf d01d 2ebe fa8c e93e 8e54 6e3e
00000190: 964f b73e 4332 d2be 4f96 b93d 8dd8 c03e
000001a0: 75a2 29bd 24aa ba3d 3169 163e b651 91be
000001b0: c7bb 633e fc9c 2bbc 6b66 9dbd cd82 45be
000001c0: 81dc afbd f99f 0f3c 5bd2 923d 758a 953d
000001d0: 783e 8a3d 3327 2abf 5b01 513e 585b d13e
000001e0: c9c6 953e 5acd 73be 071d b73e b417 a4bd
000001f0: 77e8 e4be 9c88 313d 009c db3e fb36 1d3e
00000200: 49bc 6c3e 4ee9 95bd 78bf 983c 5dc7 843d
00000210: 8cc5 d3bd 2199 0abe ba58 fbbd 1a59 9a3e
00000220: 7829 b43d bbd5 78be 193e a53d 06a4 06be
00000230: 6497 99bc 0385 5f3e 84f5 9b3e d9ee b5be
00000240: be35 03be 9e8a d13c a903 01be 8ff6 02be
00000250: 534c d2bd 1ea9 53be 8c32 6f3e 4627 c73d
00000260: f5d6 b2be d33d 19be 0a5c 1abe 7b23 ffbd
00000270: 8682 f5bd 0945 4e3c 8897 ce3c 151f 153d
00000280: 49e2 9b3e 701c 0cbd 94f8 23bc 7391 253e
00000290: 76b4 81be cf02 19be 237e e73e d928 cc3e
000002a0: f9f9 a23e d0c8 693c a175 2d3e 6d45 943d
000002b0: aba7 a13d c80a 3cbe c620 9cbc 1976 a03d
000002c0: eaa2 cbbc 57cb 2d3e b9f2 b9bd e6c0 863d
000002d0: cb40 48bd 3c45 a23e 3113 8f3e e2e1 77be
000002e0: 0bd4 4cbd ae17 63bc 5fdb d53d 29fe a1be
000002f0: a5cc 0abe e942 6ebe 7cc4 22be 4efd c73d
00000300: d53a b6be 6ba3 b13c 4126 7dbe ce49 4bbe
00000310: f1da 66be d2f6 59be 2e6c 80be a523 f4bc
00000320: 9168 9b3e 74df 1a3e 3994 a3be 4763 76be
00000330: 6e47 003f 185a 83bc feae 923d 7d92 cfbe
00000340: aa00 c93d c78d 733e 111b c73b 2f6d 49bd
00000350: e241 bb3d e2f1 a1bc fff8 623d f3e3 783e
00000360: 057c 42be 3bf7 18be 58b6 05bf f408 da3d
00000370: 4f6e 3cbe 1630 c93d 1e63 f13e d0da 8abd
00000380: 2da9 3fbd f90d bbbd d051 39bd 035b cabe
00000390: 94a5 8b3e 06e7 09be 32bc 453e ba4b 8c3d
000003a0: d128 d43d 93e2 673d 84bc 0bbe 1fff b4be
000003b0: 539b 51be f19f bcbd 8b92 653d 9001 7dbe
000003c0: ec50 db3c 135b 8c3e 18fd 03be e35e 81be
000003d0: 53d8 c2be 1408 653e a067 843c 20d5 66bc
000003e0: 5322 113e 0581 853c 81e6 94be 6b33 413f
000003f0: 2836 183e 2f26 893c 957c 06be c9ee a23d
