data/embD/hoc18/model_4/hoc18_best.pt (torch, 343117 bytes, 87 tensors)

embedding.weight f4 [12, 20]
000000 00 00 00 00 00 00 00 00 00 00 00 00 00 00 00 00
       0.0 0.0 0.0 0.0
000010 00 00 00 00 00 00 00 00 00 00 00 00 00 00 00 00
       0.0 0.0 0.0 0.0
000020 00 00 00 00 00 00 00 00 00 00 00 00 00 00 00 00
       0.0 0.0 0.0 0.0
000030 00 00 00 00 00 00 00 00 00 00 00 00 00 00 00 00
       0.0 0.0 0.0 0.0
000040 00 00 00 00 00 00 00 00 00 00 00 00 00 00 00 00
       0.0 0.0 0.0 0.0
000050 10 02 aa bf d8 bd 17 3f 69 b5 09 be 85 a8 a1 be
       -1.328188 0.59274054 -0.13448109 -0.31573883
000060 44 0e ad bf 01 b4 df bd 92 bd 47 3f c0 67 82 3f
       -1.3519979 -0.10923005 0.78023636 1.0187912
000070 a6 1a 05 c0 cc 5e 77 be 13 3a bd be 8c f2 ed 3e
       -2.0797515 -0.24157256 -0.3695837 0.4647411
000080 d2 d5 81 be 0a bc f4 3f d8 e8 39 bf b7 36 4b 40
       -0.25358444 1.9119885 -0.72620916 3.1752145
000090 d7 9c 05 bf a6 fb 07 3f 6e 1b a9 be f6 0d 82 3f
       -0.52192444 0.5311836 -0.3302874 1.016051
0000a0 20 f9 1a 3f f4 a8 d3 bd 08 85 a5 be 6c 1a ad bf
       0.60536385 -0.103349596 -0.32328057 -1.3523688
0000b0 65 ba 87 3f 65 f9 b0 bf df ab 6a bd 17 d2 98 3e
       1.0603758 -1.3826109 -0.057292815 0.29847786
0000c0 ce df 94 3e a1 a2 e1 bf e5 ce 7c bf dd aa ac be
       0.29077 -1.7627755 -0.98753196 -0.33724108
0000d0 4c 37 85 bf 36 4b d6 3a 37 ae a6 be b9 13 c2 be
       -1.04075 0.0016349319 -0.3255479 -0.37905672
0000e0 6e 29 9a 3e 05 8f 76 bf d5 7d 9f 3d f1 dc db 3e
       0.30109733 -0.9631198 0.077876724 0.42942002
0000f0 23 84 8c 3f 03 70 82 bf 41 1c 9c 3f 4b 3a ca 3d
       1.0977825 -1.0190433 1.2196122 0.098744
000100 38 68 7e bf 72 b0 50 bf 90 47 34 3e 20 76 70 3f
       -0.99377775 -0.81519234 0.17605424 0.93930244
000110 63 5e d8 bf 98 32 36 3f 3b 6e 75 3e 4e 90 4a bf
       -1.6903805 0.7117095 0.23967831 -0.7912644
000120 9c 74 ae 3f 4e 10 c8 3f ea 62 9a 3e ae b7 a7 3f
       1.3629336 1.5629976 0.3015359 1.310293
000130 d6 34 9b 3f 85 cf c2 bf 41 c9 1a bf ad 52 93 3f
       1.2125499 -1.521958 -0.6046334 1.1509606
000140 b1 fd a8 3f a8 e1 12 3f 5a ba 9c bf e0 c9 ca 3f
       1.320242 0.57375574 -1.224437 1.5842857
000150 0b 60 d0 be ab b2 27 3f ef 09 fe 3e 93 42 5d 3f
       -0.40698275 0.65507 0.49616954 0.8642971
000160 66 90 33 bf ee 22 ab bf 01 a1 82 3f f9 f6 53 be
       -0.7014221 -1.3370035 1.0205384 -0.20699681
000170 f7 de 67 3f 32 30 84 bf fb a4 0e 3f 8a bf 08 40
       0.9057459 -1.0327208 0.5572049 2.1366906
000180 82 b9 7c bf 0a 7a 95 3f 07 2b 05 bf 91 c3 0d c0
       -0.9872056 1.1677868 -0.5201878 -2.2150614
000190 c7 42 c8 3f d1 23 77 3f a2 d2 d2 3d 3d 84 2b bc
       1.5645379 0.96539026 0.10294081 -0.01046854
0001a0 8d d3 bb 3e 4e a4 64 c0 42 d9 aa be 57 e6 d3 be
       0.36684838 -3.5725284 -0.3336888 -0.41386673
0001b0 ef 4f 1b 40 45 4d 44 3f c7 c7 87 bf 25 5c b0 3f
       2.4267538 0.76680404 -1.0607842 1.377812
0001c0 3b 5b 62 3e 8d 8b 6e 3f 6c 06 c9 be 76 03 07 bf
       0.22105114 0.9318169 -0.39262712 -0.52739656
0001d0 1e d9 1f 40 0c 56 99 be d1 f1 14 3f 98 1b 1a bf
       2.4976268 -0.2994846 0.5818148 -0.60198355
0001e0 b9 20 33 bf af 88 cd be 3c 07 79 bf 13 5b 54 3f
       -0.69971806 -0.40143344 -0.97276664 0.8295147
0001f0 56 85 18 3d 6c 00 9f bf ec 5e 81 3f 74 4d 99 bf
       0.037236534 -1.2422004 1.0107093 -1.1976762
000200 af 29 da be 52 ee f5 be 33 07 52 bf 5f fd b0 3f
       -0.42609927 -0.48033386 -0.82042235 1.3827323
000210 a8 14 a8 3f 58 f4 1b 3f 6c 43 06 be e9 34 a6 3e
       1.3131304 0.60919714 -0.13111657 0.32462242
000220 8d e1 b4 3f 3a 7d 06 40 67 76 0a be 5a 32 1a 3f
       1.4131333 2.1013932 -0.1352173 0.6023308
000230 3f 70 6c be 50 5d fb bf ed d8 de 3e ac 37 5a 3f
       -0.23089693 -1.9637852 0.43524876 0.852412
000240 88 0c c4 be 0a 9c 47 bf 2d 8a 92 be 1e ca 6a bf
       -0.3829081 -0.7797247 -0.28621045 -0.91714656
000250 35 cb b0 bf 14 2c 1a 3f b7 bc a7 3e cb c5 9f 3f
       -1.3812014 0.6022351 0.32761165 1.2482237
000260 9b cb dc be 4b 4c 2b bf 0c 58 a0 bf 86 87 89 bf
       -0.4312409 -0.6691329 -1.252687 -1.0744483
000270 39 0e 3b c0 8c d1 1a bf dc 34 65 be 68 24 f3 3f
       -2.922743 -0.60475993 -0.22383446 1.8995485
000280 31 d7 10 3f 4c 99 7f 3f f5 0c d9 3e 41 94 a1 be
       0.56578356 0.9984329 0.42392698 -0.3155842
000290 d9 1b e8 bc 7d 53 12 3f 45 cf 14 3f 0c 68 f8 3e
       -0.028333591 0.57158643 0.5812877 0.4851688
0002a0 03 68 a2 3e f0 d7 8c 3f a8 67 50 3f 67 38 75 bf
       0.3171998 1.1003399 0.81408167 -0.9578919
0002b0 20 da 1d 40 56 e3 dc be 1b 3d 19 bf 9e de 9f bf
       2.4664383 -0.43142194 -0.59858865 -1.2489812
0002c0 46 ed fb bf 07 04 a7 bf 0a 76 e0 bf ca e5 d4 3e
       -1.9681785 -1.3048104 -1.7536023 0.41581565
0002d0 d1 48 8d bf a3 1d 12 c0 b3 15 5a 3e 99 98 f3 bf
       -1.1037847 -2.283059 0.2129734 -1.9030944
0002e0 53 61 79 bf e9 4b 40 bf 24 89 73 3f e6 c6 01 40
       -0.9741413 -0.7511583 0.95131135 2.0277648
0002f0 1f 1a 5f 3f 38 b6 02 40 af 2b f7 3c 79 1f 9e 3e
       0.8714923 2.0423717 0.030172197 0.30883387
000300 b1 f7 25 3f e6 22 83 3d 94 06 d5 be 26 62 2f 3f
       0.6483107 0.06403141 -0.4160658 0.6850914
000310 89 27 3f 3e 99 5f 94 3f 17 92 60 3d f6 ac 28 bf
       0.18667425 1.1591674 0.054826822 -0.6588892
000320 ac 66 7c 3f 44 e8 16 3f fc e4 d2 bf 5c 96 a1 bf
       0.98594165 0.5894816 -1.647613 -1.2624011
000330 4a 84 90 3f 0d 35 58 3e b3 ab 0c 3e a5 f0 88 bf
       1.1290371 0.21113987 0.13737373 -1.0698439
000340 ef 54 49 3f 1d c0 19 bf 3b 0c 3b bc 78 cf d8 bf
       0.78645223 -0.60058767 -0.01141649 -1.6938314
000350 b1 a8 08 3f a8 55 66 3f 86 b7 00 bf 6b 89 16 3f
       0.533824 0.8997445 -0.50280035 0.58803433
000360 2a 89 8a 3f 0c e2 9d 3e 8e b4 be be 58 c6 0a 3f
       1.0823109 0.30836523 -0.37247127 0.542089
000370 ce 6a b0 3d 89 f0 b1 bf ed d4 86 3f bc ca 1f bf
       0.086141214 -1.390153 1.053373 -0.62418723
000380 37 7f 24 3f a9 1d a6 3f 2a b7 9a 3e a7 0b a5 3f
       0.64256614 1.2977802 0.30217868 1.2894181
000390 81 df 77 3f cc bc dc 3f 9a fb 34 bf a3 c1 60 bf
       0.96825415 1.7245116 -0.70696414 -0.87795466
0003a0 66 69 f7 bf f4 fc 17 be ee 57 9a 3e d7 e7 16 3f
       -1.932904 -0.14842588 0.3014521 0.5894751
0003b0 80 80 a0 3e 52 cb 46 3f c4 9d 2b bf f0 e3 3b bf
       0.31348038 0.7765399 -0.67037606 -0.7339468

lstm.weight_ih_l0 f4 [80, 20]
000000 11 d7 3a be cd 1e 40 be 6d c5 ee 3d 69 bd 12 bd
       -0.18246104 -0.1876175 0.1165875 -0.035825167
000010 83 48 1c 3e e9 b4 07 bf d3 86 05 3d 19 ad 56 be
       0.15262036 -0.5301042 0.03259928 -0.20964469
000020 4a 79 14 be 13 53 75 3e e7 2d 89 bc 8e f1 ed 3e
       -0.14499393 0.23957472 -0.01674552 0.46473354
000030 5b 67 a0 bd a0 d5 26 be 63 3e 7d be 6a 2f a8 3d
       -0.078322135 -0.16292429 -0.2473083 0.082121685
000040 80 f2 32 3e d6 4d 84 bd d5 d8 d3 3d c4 8b 49 bc
       0.17475319 -0.064601585 0.10344092 -0.012301389
000050 fd 45 87 3e 6f c1 00 3f c8 81 b5 3d 4a 78 04 be
       0.26420584 0.50295156 0.088626444 -0.12936512
000060 10 ae 44 be 1a f5 08 be 73 9d 64 be 71 cf 71 3e
       -0.19207025 -0.13374749 -0.22325687 0.23614289
000070 b8 69 c5 3d e5 f7 5a 3e d1 1c 46 be 79 81 5d 3d
       0.09639305 0.21383627 -0.1934693 0.054078553
000080 86 73 18 3e a7 43 08 3e 2a b3 7b 3d 15 0f a2 3e
       0.14887819 0.13307057 0.06145016 0.31652132
000090 85 66 c4 bd 73 c7 0e bd 81 80 8c be 78 96 2c be
       -0.095898665 -0.03485818 -0.2744179 -0.16854274
0000a0 94 e7 81 be ac 72 de 3d 7b f3 0e 3e 14 35 9f be
       -0.25371993 0.10861716 0.13960068 -0.31095183
0000b0 4f 18 e9 bc 70 21 4c be 14 ed 02 bd 22 6d af bd
       -0.028453974 -0.1993463 -0.031964377 -0.08565737
0000c0 d7 33 81 3d 36 99 b1 3e 45 d7 26 be b5 fc 1d 3d
       0.06308716 0.34687203 -0.16293056 0.03857108
0000d0 92 43 e9 3e 9a e8 d7 bc 8d 57 28 3d 20 e0 8d bd
       0.45559365 -0.02635603 0.04109912 -0.06927514
0000e0 8c d1 2f 3e 16 d3 22 3e aa 28 52 bd b9 81 ec 3d
       0.1716978 0.15900835 -0.05130831 0.1154818
0000f0 11 5c b8 3e 32 cf 3d be 8f 23 b4 bd 3f 8b b4 3e
       0.3600774 -0.1853607 -0.08795845 0.35262486
000100 8b 45 27 3e 5a 1e 0b be d4 e9 b7 3d c4 bb 58 3e
       0.16335122 -0.13585797 0.08980146 0.21165377
000110 9c be 38 be 0e 76 52 3d 4f 77 46 3e 08 b0 62 3e
       -0.18041462 0.051382117 0.1938145 0.22137463
000120 3a ad 8a 3e 28 45 a4 3c 67 bf 1a 3e cd b6 83 3e
       0.27085286 0.020052508 0.15112077 0.25725403
000130 f0 1d a6 3d ba ac df 3c ec e9 6c 3e bf 1f 23 be
       0.08111179 0.027304042 0.23136109 -0.15930079
000140 33 39 03 bd e9 7f b7 bd b3 d7 02 bd 31 60 86 be
       -0.03203697 -0.08959944 -0.031943988 -0.26245263
000150 e1 f6 c4 bd 97 29 40 be dc ad eb 3d c6 78 15 3e
       -0.09617401 -0.18765865 0.115077704 0.14596853
000160 57 98 6b be e3 11 a0 be 49 d7 a2 bc 55 2a 43 be
       -0.23007332 -0.31263646 -0.019878047 -0.19059117
000170 e5 02 85 3e c3 3c 83 3e 04 fc 4e 3d f3 c0 58 bd
       0.2597877 0.25632295 0.05053331 -0.052918386
000180 2e 86 2a bd 8a 82 e3 3b 24 f0 5e 3d 01 03 6d 3e
       -0.04163187 0.0069430517 0.054428235 0.23145677
000190 3f 1f b9 3d c5 87 52 be 94 e9 76 3e f3 3d 83 3d
       0.09039163 -0.20559604 0.2411254 0.064083
0001a0 68 cc 01 3d 1a 95 da be 58 6d af bd 6f 98 83 bd
       0.031689078 -0.4269188 -0.085657775 -0.06425559
0001b0 e2 dd 03 3c 3c 2c a7 3e 8f 9a 83 bd ba 41 02 3f
       0.008048506 0.32650936 -0.06425964 0.5088154
0001c0 ad 42 44 bd 62 81 19 be f1 67 03 bd bb 4b 20 3e
       -0.04791515 -0.14990762 -0.032081548 0.15653889
0001d0 fc 6f 34 3d d8 53 0d 3d f7 21 ba 3e 2f ca c7 3d
       0.04405211 0.034503788 0.36354038 0.0975536
0001e0 da 9d ed 3d 70 37 21 3e 07 54 7c bc 0d 63 f7 3a
       0.116023734 0.15743804 -0.015400893 0.0018874124
0001f0 d8 16 fb bd 62 7f 62 3e 08 5d 0c 3f f9 5a bb 3e
       -0.122602165 0.22118905 0.54829454 0.36592844
000200 8f 1e b7 3d 12 da ae 3e 71 97 de 3d f2 f4 2f 3c
       0.089413755 0.3415075 0.10868729 0.010739552
000210 37 2d 19 3f 0d f3 c3 3c c1 c0 bf 3d a9 4d 32 3e
       0.5983462 0.023919607 0.09362937 0.17412437
000220 6b fe 84 3e b5 46 86 3d f8 0a e4 be 20 1d 7a bd
       0.25975356 0.06556455 -0.44539618 -0.061062932
000230 93 35 7e 3e b5 92 6a 3d 62 01 8c bd 5a 6a 2c 3e
       0.24825124 0.057268817 -0.06836201 0.16837445
000240 00 cf 4a be 38 74 4b be 74 c1 12 3e e8 b3 8f bc
       -0.19805527 -0.19868553 0.14331609 -0.01754184
000250 7d 91 20 3e 43 e0 66 3d a9 a5 62 3d 3a 96 86 3e
       0.156805 0.056366216 0.055333767 0.2628649
000260 65 a1 89 3d b4 3d 8a be 78 75 1c 3e be a5 88 bd
       0.06720237 -0.270002 0.15279186 -0.06672238
000270 8e 38 16 be b1 1c 6a 3e 1f 1f ea bd 62 8f 1d be
       -0.14670011 0.22862507 -0.11431717 -0.15386727
000280 0d 6a 47 3d 16 1f 4d be ea 7b 54 3e 97 38 43 be
       0.048685122 -0.2003139 0.20750394 -0.19064556
000290 99 22 2f 3e b6 0e de be 5a 45 df 3d d3 43 aa bd
       0.17103042 -0.433706 0.109019 -0.08313718
0002a0 0b c4 43 3c ba a6 73 3d fa 35 6a be a9 7c 07 be
       0.011948596 0.059485175 -0.22872153 -0.13231148
0002b0 39 a7 e9 3d 6f 0e 3f bc b8 86 5e be f3 a1 5c 3e
       0.11408848 -0.011661156 -0.21731079 0.21546154
0002c0 9d 1f 81 3e e3 08 e4 3d ad eb d7 bd 2f 33 a2 3e
       0.25219432 0.111345075 -0.105429985 0.31679675
0002d0 75 65 90 3d 9d 36 c1 3e 8c 83 5a be f8 fa 0e be
       0.070506014 0.3773698 -0.21339244 -0.13962924
0002e0 a2 e2 32 3d 84 e5 5b be 9b 56 28 be 79 17 08 bc
       0.043673165 -0.21474272 -0.16439287 -0.008306378
0002f0 f1 18 51 3e 0d cf 6c bd cd 69 f1 bd 39 d5 8f bd
       0.2041967 -0.057814647 -0.11787758 -0.07023091
000300 10 61 f5 3b 2e 74 9b be 0c 76 71 3e 21 bf f3 bd
       0.0074883774 -0.30362076 0.23580188 -0.11901689
000310 a3 be 8f 3d ca be 76 be 01 fc a8 3d b2 65 88 be
       0.07018783 -0.24096218 0.08251191 -0.26640087
000320 c1 03 2c 3e ef ba 94 bd 1a b5 6b 3c 87 83 37 be
       0.16798307 -0.07262217 0.01438644 -0.17921267
000330 c6 d0 54 bd 38 25 1e 3d c2 cb a5 3d df 39 9d bd
       -0.051956914 0.038609713 0.08095504 -0.07677054
000340 0c 61 a8 3d c1 70 71 bc d0 02 50 3d 2a 41 56 3b
       0.08221635 -0.014736355 0.050783932 0.003269265
000350 24 5a 14 3e 7c 30 2b be c9 88 e7 bd e8 a8 02 3d
       0.14487511 -0.16717714 -0.113053866 0.031899363
000360 4c 8c 29 3e 52 c5 72 3d 62 71 09 3e 57 a5 07 3d
       0.16557425 0.05927021 0.13422158 0.033116665
000370 09 24 88 3e 6b 6a bf bd f2 b7 11 be 08 21 b1 3c
       0.26589993 -0.093464695 -0.14230326 0.021622196
000380 d3 d5 15 be b8 2c 0b be dd 8b 6f 3e e6 86 1a 3e
       -0.14632349 -0.13591278 0.23393197 0.15090522
000390 7e c0 67 be c7 c2 27 3e aa 55 d0 3e b5 bf f7 bd
       -0.22632024 0.16382895 0.40690356 -0.12097112
0003a0 94 ff a4 3e 77 b1 eb be 59 f5 06 3c 14 13 63 be
       0.3222624 -0.46033832 0.008237206 -0.22175246
0003b0 c4 33 94 be 32 16 4b 3e 1f 92 39 be 87 a8 84 bd
       -0.28945744 0.19832686 -0.18122147 -0.064774565
0003c0 ee f8 ef 3d b0 3f ba bd b2 b2 8b be 1f 0e 67 3e
       0.117174014 -0.09094179 -0.2728477 0.2256398
0003d0 3e 37 56 be 80 25 29 be 26 1b 28 3e 81 a0 b2 3d
       -0.2091951 -0.16518211 0.16416606 0.0872202
0003e0 e9 c8 b7 3d d1 04 da bd 68 53 51 bb b0 3b cf bd
       0.089738674 -0.1064545 -0.0031940583 -0.10118806
0003f0 c2 95 55 be eb e2 86 be ba 88 09 3e 42 06 32 bd
       -0.2085791 -0.26345 0.13431063 -0.043463

lstm.weight_hh_l0 f4 [80, 20]
000000 02 cf 1e 3f 9f fd 0e bc fb d6 35 be 3a 0f d3 3e
       0.6203462 -0.00872746 -0.1775779 0.41222554
000010 00 2a 2a 3d 05 98 e3 bd 10 0f 24 bd 1c 69 e6 bd
       0.04154396 -0.1111298 -0.040053427 -0.11250517
000020 5e 5c 3d 3e f6 02 49 be e1 8a 43 bc df 12 63 3d
       0.18492267 -0.19630036 -0.011934967 0.05543792
000030 90 cc d9 3d fb 2a 1a be 48 6b 6a 3c f2 25 5b be
       0.1063472 -0.15055458 0.014307804 -0.21401194
000040 b2 a0 9e 3e 1e b3 10 3d 8f 81 d6 3d 93 96 bf bb
       0.30981976 0.03532707 0.1047393 -0.0058468073
000050 74 d2 49 bd 11 b6 df bb da 1c 5c be 46 1c d9 bd
       -0.04927297 -0.006827124 -0.21495381 -0.10601096
000060 f7 cd 8e bc 8b 81 61 bd cd ee cc 3e 90 28 a3 be
       -0.017432196 -0.055055182 0.4002594 -0.31866884
000070 54 1f 9f 3e 37 5b 0f be 4d aa 0b 3e fb ea 6d bb
       0.3107859 -0.1399964 0.13639183 -0.003630339
000080 b3 cc c6 be ca 81 42 bd af f2 b7 3e 4d 39 65 3e
       -0.38828048 -0.047487058 0.3592734 0.2238514
000090 74 d8 04 bd e4 83 6a be 25 28 4f bd 65 0e 46 be
       -0.03243299 -0.22901875 -0.050575394 -0.19341429
0000a0 db 75 a3 be 3a 3c e3 be c6 e5 57 3e ab 00 9d bd
       -0.31925854 -0.44381887 0.21083745 -0.07666143
0000b0 d3 8f b7 bd 17 53 a1 3c 9c 89 05 bf 5a 70 4b bd
       -0.08962979 0.01969294 -0.521631 -0.049667694
0000c0 83 6f 07 be 16 0d 80 3e 98 fb 81 3e 79 6f 9e be
       -0.13226132 0.25009984 0.25387263 -0.30944422
0000d0 12 f8 bd 3d 6b 32 bd 3c 7f 93 3a 3e 4d 63 de be
       0.09275831 0.02309533 0.18220328 -0.43435135
0000e0 94 d5 fb 3c a1 db ef 3d f2 23 9b 3e c1 f3 11 bf
       0.03074149 0.11711813 0.30300862 -0.57012564
0000f0 62 68 1a 3f e9 3c 76 3e 65 2e d6 be d5 73 dc 3b
       0.60315526 0.24046673 -0.4183227 0.0067276754
000100 17 b1 7c 3e 4f a8 05 bf 0d eb 67 3e 19 79 9c 3e
       0.2467693 -0.52209944 0.22648259 0.3056114
000110 47 a9 bd bd b1 38 29 be 80 27 23 be 6a d5 33 be
       -0.09260803 -0.16525532 -0.15933037 -0.1756188
000120 f1 64 dd bd 1c 17 8c bd 28 63 49 3e 47 7f 0f bd
       -0.10810269 -0.06840345 0.19666731 -0.03503349
000130 90 8e a3 3e 14 1d 6c be 1f 2e fe be 9c 4a 00 3e
       0.31944704 -0.23057967 -0.49644563 0.12528461
000140 27 07 b6 be 3a 01 ff 3d df db 6c 3e c2 fd 89 bd
       -0.35552332 0.12451406 0.23130749 -0.067378536
000150 22 d1 88 3e 53 21 8c 3e 84 6b 08 3e 98 7a db 38
       0.26722056 0.27369174 0.13322264 0.000104655686
000160 07 75 c3 bd eb c9 ab be 66 ee 82 3e f1 53 55 bd
       -0.095438056 -0.3355249 0.2557251 -0.052082006
000170 36 b7 12 3e 33 be ef bd b9 24 ff 3d 66 4c 2f bf
       0.14327702 -0.117061995 0.12458176 -0.6847595
000180 b2 45 47 3e fb 52 4e be fc 60 b4 3d 54 0b e3 3d
       0.1946018 -0.20148842 0.08807561 0.11086145
000190 14 7a 99 be ae 04 ee bc 4a 79 ea bc 2c 4a d2 3c
       -0.2997595 -0.029054966 -0.028622288 0.025670134
0001a0 82 e1 5c 3d 37 21 64 bc bf a0 1f 3d 04 63 73 be
       0.053926 -0.013923935 0.03897166 -0.2376824
0001b0 84 63 8d be 12 c7 a7 bd 30 0e b2 3c c9 cd 67 3e
       -0.27614987 -0.081922665 0.02173528 0.22637095
0001c0 f6 72 04 be fa 4b 0e be db b1 5c 3d f2 7c 50 bd
       -0.12934479 -0.1389617 0.053880554 -0.050900407
0001d0 3f 71 b4 be 86 06 39 bc 0c 35 c8 bd 4f 5b 85 be
       -0.3524265 -0.011293059 -0.09775743 -0.26046225
0001e0 6a 21 a2 be 7f d2 ab be 23 a9 3b bd 17 ff d5 3b
       -0.31666118 -0.33559033 -0.0458156 0.006530653
0001f0 36 21 54 3e e3 18 7c 3d 60 a8 fc 3c fe d5 33 be
       0.20715794 0.06154717 0.030842006 -0.175621
000200 0b 75 e0 bd 10 83 85 3e ae 78 a5 3e ad d3 e5 bd
       -0.10959824 0.26076555 0.32318634 -0.112220146
000210 13 13 76 3d 2a 3e df be bb f4 5e 3e a8 15 21 bf
       0.060076784 -0.43602115 0.21773045 -0.6292367
000220 72 1f aa 3d 51 34 13 3e 92 db c1 3e 20 48 e3 bd
       0.08306779 0.14375426 0.3786283 -0.11097741
000230 c9 9b 6d 3d 56 3f 7e 3e 2f 0a 8b be 08 55 56 3e
       0.058009896 0.24828848 -0.27156207 0.20930874
000240 16 6b f3 3d 9c 6b aa bd 17 fb a7 3e ed 91 a7 be
       0.118856594 -0.08321306 0.32808754 -0.3272852
000250 c5 46 da bc ae d2 34 be 0a c9 8e 3e 33 a6 3c be
       -0.026645074 -0.17658493 0.27887756 -0.18422775
000260 c4 94 69 be 08 91 62 be 38 09 f9 3d 4b aa 39 bc
       -0.22810656 -0.22125638 0.121599615 -0.011332105
000270 10 8a 84 3d 9e 20 ac bd 88 d1 3c bd 71 5c 38 ba
       0.06471646 -0.08404659 -0.046098262 -0.0007032818
000280 35 25 07 be 6c a1 de bd 73 b3 35 bb 27 48 8f be
       -0.13197787 -0.108706325 -0.0027725368 -0.27984735
000290 6d 34 cd 3e e2 d4 a2 bd 18 b1 03 be 43 63 29 3e
       0.4007906 -0.079507604 -0.12860525 0.16541772
0002a0 f3 47 bb 3e c2 a5 32 bd 5f b5 8f 3d 63 36 f8 3c
       0.3657833 -0.04361511 0.07017016 0.030299371
0002b0 18 2c 61 be 44 b3 1b 3e 8f b0 da 3e 55 ac 06 3c
       -0.21989477 0.15205103 0.4271283 0.008219798
0002c0 9a 48 e2 3e af 74 20 bd b8 c4 53 3f 7d e9 db bd
       0.44196016 -0.03917378 0.82722044 -0.10737894
0002d0 e9 1a 1b bf ba 72 9a 3e 1e 5a 23 bd fd af 04 3e
       -0.60587937 0.30165654 -0.039880864 0.12957759
0002e0 28 98 e8 ba a3 f6 b8 be cb 51 5f 3e c5 34 a2 3e
       -0.0017745541 -0.3612567 0.21808545 0.31680885
0002f0 56 d2 91 3d 7c ac 96 be 85 9f 6e 3c 78 6e 79 be
       0.071201965 -0.2942847 0.0145644 -0.24358547
000300 ed 44 ca 3e f8 c8 a7 be 89 72 2e 3e 35 9d f8 3d
       0.3950571 -0.32770514 0.17035879 0.1213936
000310 30 07 41 3e cd 0c 89 be 4e 81 32 be 2b 9c cb 3d
       0.18850398 -0.2676758 -0.17432138 0.09941896
000320 7f 45 0e 3e 0d 26 18 be 74 3c 16 3e 68 b7 38 3e
       0.13893698 -0.14858265 0.14671499 0.18038714
000330 11 33 1d 3e e0 99 63 3e 10 33 e6 be d2 d0 14 be
       0.15351512 0.22226667 -0.44960833 -0.14532784
000340 5e 76 87 bd 3e c6 0d 3f e2 28 b5 3e 38 d3 b0 3d
       -0.066143736 0.5538062 0.35382754 0.08634037
000350 2d 23 19 bc 7a 70 9e 3d 7b 02 25 3e 32 66 7b 3d
       -0.0093467655 0.07736297 0.16114227 0.061376758
000360 56 6e 1e 3e 21 0f 49 be 11 b2 13 be 27 80 13 3d
       0.15471777 -0.19634677 -0.14423396 0.036010887
000370 57 de 9d 3e f3 12 80 be e5 c3 42 be 8a a1 0a 3f
       0.30833694 -0.25014457 -0.1902004 0.5415274
000380 e6 d2 e6 3e 8c a9 53 be 78 b2 ea be b7 ec 1f be
       0.45082778 -0.20670146 -0.45839286 -0.15617643
000390 ed 8f d6 be 7f 10 1b 3e 1f 08 c4 be 11 8d 03 bf
       -0.41906682 0.15143012 -0.38287446 -0.51387125
0003a0 4d 80 8a 3e 2d a4 74 bb f5 e8 31 3d 9b a0 2c be
       0.2705101 -0.0037329302 0.043435056 -0.16858141
0003b0 dc 23 af 3e ad f6 91 be a4 bf 08 3f d8 4a d9 3d
       0.34207046 -0.2850851 0.5341742 0.106099784
0003c0 d8 71 13 3f 44 ad 1e 3e 8d b2 89 be d3 9e f3 3d
       0.57595587 0.15495783 -0.26894036 0.11895528
0003d0 de a9 87 3d 26 73 ad be 19 34 11 3e ec 1a c4 bc
       0.066241965 -0.33876914 0.1418003 -0.023938619
0003e0 1c 8e 1e bd 0a 65 4e 3e 97 3a 99 be 74 67 8f be
       -0.038709745 0.20155731 -0.29927513 -0.28008616
0003f0 48 c6 a4 bc 5a e7 28 be 5d 71 42 3e 39 51 cf 3d
       -0.02011408 -0.16494504 0.18988557 0.10122914

lstm.bias_ih_l0 f4 [80]
000000 58 4f 8c bb 07 1b 11 3e a2 e6 8f 3d b7 fe 7a 3e
       -0.0042819194 0.14170466 0.070264116 0.24511229
000010 62 d8 8c 3e c9 b2 fe 3d f3 63 51 bd 0f 3b ea 3e
       0.27508837 0.12436444 -0.05112071 0.45748183
000020 58 fc 00 3e c6 cc 1d be cf 7f 9e 3e 20 b9 c7 3d
       0.12596262 -0.15410146 0.30956885 0.09752107
000030 81 58 8e bd 07 e8 3b 3e 26 01 a7 bd 7d c4 e8 bd
       -0.069504745 0.1835023 -0.08154516 -0.11365602
000040 d4 e8 08 be a1 2c 96 3e d9 dc ab 3e 54 03 77 3e
       -0.13370067 0.29330924 0.3356693 0.24122363
000050 ff d9 78 3e 97 99 73 3e 38 fb 43 bc 53 06 10 3e
       0.24301909 0.23789059 -0.011961751 0.14064912
000060 42 31 83 bc 2e 9d 1a 3e 77 cb fb 3d 10 e6 97 3d
       -0.016014699 0.15099022 0.12294667 0.07416928
000070 6a e4 40 3e 97 9d 90 3e 21 3e 67 3e 74 b6 a6 3c
       0.18837133 0.28245232 0.22582294 0.020350672
000080 7b a3 88 3d 77 4d f9 3d fe d6 f1 3c e9 5c 2b 3e
       0.066718064 0.12172978 0.029521462 0.16734661
000090 ca c9 c5 bd 93 66 4b 3e 83 83 cf bd 67 68 18 3e
       -0.09657629 0.19863348 -0.10132506 0.14883576
0000a0 40 30 38 3e 39 c1 9e 3d 7b d8 0c be 99 eb 4b 3e
       0.17987156 0.07751698 -0.13754456 0.19914092
0000b0 62 07 5e be 6d 46 29 be 06 d2 44 be 0a f8 74 3e
       -0.21682504 -0.16530772 -0.19220743 0.23922744
0000c0 8c 75 27 be da 37 a5 3d f5 d9 39 be c2 a4 94 be
       -0.16353434 0.080672935 -0.1814955 -0.2903195
0000d0 1f 98 16 3e ad 69 53 3e da 1c 79 3e c6 d8 43 3e
       0.14706467 0.20645781 0.24327412 0.19125661
0000e0 4d 93 5e 3e be 4e 4c 3c fb ac d7 3c d4 0a cd 3d
       0.21735878 0.0124699455 0.0263276 0.10011831
0000f0 a1 23 18 3f 3d 64 95 3e a6 eb 4f 3e 51 38 6c 3e
       0.59429365 0.29178038 0.20304736 0.23068358
000100 94 8b 55 3e 36 6d 31 3b 53 26 4c bd 21 8d eb 3e
       0.20854026 0.0027073151 -0.049841236 0.4600611
000110 3f cc b3 3e f7 29 a4 3e 49 c1 3f 3c 54 c1 da 3e
       0.35116765 0.32063267 0.011703798 0.42725623
000120 46 01 fb 3d 47 8a cc 3d 4c 53 2d 3e 97 2f 14 3e
       0.12256102 0.09987312 0.16926306 0.14471279
000130 aa e1 48 3e 2d 1a 92 3e 9d f2 0d 3d 83 eb 02 bb
       0.19617334 0.28535596 0.034655202 -0.0019976802

lstm.bias_hh_l0 f4 [80]
000000 be f8 f1 3d 00 b2 18 3e 87 6b 14 bd a1 54 99 3c
       0.11815022 0.14911652 -0.03623536 0.018717112
000010 72 20 92 bd 98 43 04 bd 98 6b f5 3d 33 4b 58 3e
       -0.07135095 -0.032291025 0.119834125 0.21122436
000020 d4 ee 54 3e 33 65 16 3e e6 45 32 3d 25 e6 c9 3d
       0.2079423 0.14687042 0.04352369 0.0985835
000030 2d 61 3c 3e 73 b3 6b 3e de 7f 67 3e ad 35 7d 3d
       0.18396445 0.23017673 0.22607371 0.061818767
000040 16 1e 4a 3e e8 35 34 3e 11 42 4f bd 9d 85 14 be
       0.1973804 0.17598689 -0.050600115 -0.14504094
000050 26 11 9f bc 78 99 84 3e 9a 61 12 3e 03 4b 22 3e
       -0.019417357 0.25898337 0.14295045 0.15848927
000060 11 e7 da 3d 0b 27 24 bd ae 39 b1 3e bd af 4b 3c
       0.10688604 -0.040076297 0.3461432 0.012432036
000070 da 20 5f 3e ed 72 07 3e fb a4 ac 3e 07 6e 18 3d
       0.21789876 0.13227434 0.3371962 0.037214305
000080 31 13 94 3d c0 fc 46 3e 3c f6 99 3e 8b 0c b7 3e
       0.07230223 0.19432354 0.30070674 0.35751757
000090 a8 61 df bd f9 11 4f 3e 66 7f e0 3d e9 3e 14 3e
       -0.10907298 0.202217 0.10961799 0.14477123
0000a0 0d a4 33 be a8 1a 30 3e e0 7a 3c be 1e 12 3a be
       -0.17543049 0.17197669 -0.18406248 -0.18170974
0000b0 8d 33 fa 3d 46 0d 40 be d4 21 07 3d f6 b0 b9 bd
       0.12216864 -0.18755063 0.032991245 -0.09066956
0000c0 ba 36 8a bd e0 c7 b3 3d 7e 81 45 3d 2a 65 a3 3d
       -0.067487195 0.087783575 0.048219196 0.0797828
0000d0 79 30 a2 3d c1 e7 18 3c 4f cb 11 3e 30 58 9c 3d
       0.07919402 0.009332598 0.14237712 0.07634008
0000e0 b1 d8 60 3d b4 3e a5 bd ca fe b5 bd ca f0 6e be
       0.054894153 -0.080686 -0.08886488 -0.23334041
0000f0 b2 7d c2 3e 26 47 10 3e b9 7a 0b 3c 80 3b 70 3e
       0.37986523 0.14089641 0.008513146 0.23460197
000100 14 ad a7 3e 65 96 62 3e dc e2 c3 3d a8 7d 52 3e
       0.32749236 0.22127683 0.09564754 0.20555747
000110 b3 c9 67 3e 4a be 7e 3d 43 dd de 3e 8b a4 cc 3d
       0.22635536 0.062193193 0.43528184 0.099923216
000120 fc 2f 9d 3d dd 9a ac 3e 36 67 3f 3e cc e8 af 3d
       0.07675168 0.337119 0.18691716 0.08589324
000130 8e e5 2c bc 80 6f 99 3e bb 16 66 3e 21 ee 60 3e
       -0.010552777 0.2996788 0.22469608 0.21965839

lstm.weight_ih_l0_reverse f4 [80, 20]
000000 34 67 3c 3e b7 c7 c6 3d b9 47 bc 3c 8a c8 e4 3d
       0.18398744 0.09706061 0.022983419 0.11171062
000010 bd 2c a6 3d 17 e0 c6 3d d6 1e 52 3e 75 85 ac bd
       0.08114002 0.097107105 0.20519575 -0.084238924
000020 fe 29 1f be f2 7a e5 bd f7 3c 1b be 0f cb 07 bc
       -0.15543362 -0.112050906 -0.15159975 -0.008288159
000030 a5 38 cd 3d 1f 6c 0c be ff 21 37 3c cd 60 3f 3e
       0.1002057 -0.1371312 0.011177539 0.1868927
000040 64 d6 1c 3e 53 a2 80 bd e7 f1 0e be 18 47 20 be
       0.15316159 -0.06280961 -0.13959466 -0.1565212
000050 68 10 db 3d fe 25 1b bd b4 f2 bc 3d 42 f8 c5 3c
       0.106964886 -0.03787803 0.092259794 0.02416623
000060 50 57 1f be 30 6b 77 be e5 7c 12 bb 78 21 32 bc
       -0.15560651 -0.24161983 -0.0022352275 -0.010872237
000070 f7 f7 8a 3e df 0b cf 3d 89 00 1d 3b e3 c3 2c be
       0.27142307 0.10109686 0.0023956618 -0.168716
000080 13 08 c5 3e af 1e e4 bd d6 5a 5f 3e bf 33 f2 bd
       0.38482723 -0.11138665 0.21811995 -0.11826276
000090 30 9a 49 3e e6 a9 05 be 4b e3 81 be 9e 6d 30 3e
       0.19687724 -0.13053092 -0.25368723 0.17229316
0000a0 89 bf 12 be 60 15 53 be 4f 2f 20 bd d8 cd fe bd
       -0.14330877 -0.20613623 -0.039107617 -0.12441605
0000b0 3b f0 d9 be 76 b3 1f 3e 04 cc ad 3e 38 4e ae bd
       -0.42566094 0.15595803 0.33944714 -0.08511013
0000c0 09 c1 37 be 96 01 07 3e d4 de 4f 3e a2 c4 87 3e
       -0.17944731 0.13184199 0.20299846 0.26517206
0000d0 80 5a 5c 3e 7e a0 22 3e e4 aa 42 be 5c 5b 2a 3e
       0.21518898 0.15881535 -0.19010502 0.16636413
0000e0 42 82 9a bd 2e 65 05 3d ab 5d ca bd b7 70 49 3e
       -0.07544376 0.032567196 -0.09881147 0.19671904
0000f0 dc 5c 2c be aa a8 bb 3d 14 06 5d 3e ef 1c c5 be
       -0.16832298 0.091630295 0.2158435 -0.38498637
000100 6c 1e 8a 3d 15 23 8d be a4 a4 06 be b2 53 8b 3e
       0.06744084 -0.27565828 -0.13148743 0.27212292
000110 ac d7 2c 3e 33 5b 4e bc ac 90 5f 3e 04 56 1a be
       0.16879147 -0.012594986 0.21832532 -0.15071875
000120 f8 bc df bd 45 89 70 ba d3 64 9a be 3d a2 de bd
       -0.10924715 -0.0009175728 -0.30155048 -0.10870788
000130 cb cb 15 3e e2 bb 43 ba de dd 06 be 4b 6a f4 3d
       0.14628522 -0.00074666564 -0.13170573 0.11934336
000140 cd e9 2a be 8f bf 5a be 96 37 0c 3e 65 01 03 bf
       -0.1669075 -0.21362136 0.1369308 -0.51174
000150 66 6b 0d bd 07 9a b1 be 72 df 01 3e c6 7c 2e bd
       -0.03452625 -0.34687826 0.12682894 -0.042599462
000160 ce bd e0 3c 49 c2 a6 be 30 79 c9 be f2 1a c4 3d
       0.027434256 -0.32570103 -0.3935027 0.09575452
000170 43 c6 cb bd 21 14 32 be 2e ad dc 3d f0 ff da bd
       -0.09949925 -0.17390491 0.10775219 -0.106933475
000180 f3 b3 3a bc 84 ef 10 3c 16 38 3e 3e 2f 65 19 be
       -0.011395442 0.0088461675 0.18576083 -0.14980005
000190 fa 9a 58 3e b0 92 f5 3d 0b aa ad 3d cd 4a 42 3d
       0.21152869 0.11990869 0.08479699 0.047434617
0001a0 60 26 04 bd 20 31 ac 3d 53 14 61 bd 51 62 2c 3d
       -0.03226316 0.08407807 -0.054951023 0.04208595
0001b0 b4 d7 ab be 42 00 c2 be 0b ac 03 bd 32 1a bd 3d
       -0.33563006 -0.37890822 -0.032146495 0.09233512
0001c0 ab cc 51 be a5 c5 65 be 61 eb 14 be 84 39 34 3d
       -0.20488231 -0.22438677 -0.14542915 0.044000164
0001d0 e5 e7 d7 be 43 71 e4 bd 73 8f 04 be a1 f2 8d bd
       -0.4216911 -0.111544155 -0.12945347 -0.069310434
0001e0 c4 35 d1 be 74 b1 26 be ab cc 26 be 63 0d f8 3e
       -0.40861332 -0.1627863 -0.16289012 0.48447713
0001f0 e5 1e 8e be fc e0 82 3e fd 1e be 3e 7c be 85 be
       -0.27757946 0.25562274 0.37133017 -0.2612189
000200 3b c2 c0 be e9 57 41 3d e5 04 d5 3e ca 91 7a 3e
       -0.37648186 0.04720298 0.41605297 0.24469677
000210 fc a6 21 3e 8a a8 28 be 21 29 fb be 2c 71 77 3e
       0.15786356 -0.16470543 -0.49054816 0.24164265
000220 6e 5e d9 be d8 fe 3b 3e 06 b3 91 be 23 22 fc 3d
       -0.42454857 0.18358934 -0.28456897 0.123111986
000230 1b 57 13 3e b5 d7 83 be d9 91 12 be f2 b5 fe bc
       0.14388697 -0.2575051 -0.14313449 -0.031092618
000240 d5 97 f2 bd 23 f4 64 be be c7 5a bd 0e 45 6f 3e
       -0.11845366 -0.22358756 -0.053413145 0.23366186
000250 18 ba c7 bd c5 ba 70 3e 2d 0a 8a 3c ab 29 21 3e
       -0.097522914 0.23508747 0.016850555 0.15738551
000260 09 9c 57 3c 2c cb 0d 3d 68 50 58 3e 95 11 c5 3c
       0.01315976 0.034617588 0.21124423 0.024056235
000270 d9 d0 83 3e 2f d7 a1 3d 5a 50 60 3e 8d 2d 26 be
       0.25745276 0.07902371 0.21905652 -0.16228314
000280 7d 67 18 3e 0b 23 f0 bb b2 4a 38 3d ee 2c 3f 3e
       0.14883228 -0.007328396 0.04499311 0.18669483
000290 e5 ab 8d be f2 48 5c bc e8 aa b2 3e 82 1f 30 3c
       -0.27670208 -0.013445126 0.34896016 0.0107497
0002a0 66 d3 f9 3d df 34 2e be 22 b9 88 3d 7d 8e 8c 3e
       0.12198524 -0.17012356 0.06675936 0.2745246
0002b0 62 4d c0 3d dd 00 52 3d 74 e5 2a be aa 69 12 3e
       0.093897596 0.051270355 -0.16689092 0.1429812
0002c0 28 68 a3 bd f5 dc 49 3e 22 78 b0 3d 32 4d fb bd
       -0.079788506 0.19713195 0.086166635 -0.12270583
0002d0 2b aa f9 be 3c a9 64 bc 2a 07 88 3d ab 0b 4c be
       -0.4876264 -0.013956364 0.066419914 -0.19926326
0002e0 48 4d 77 be 91 8c e9 3d 9e 29 86 3e 5a 13 cc bd
       -0.24150574 0.11403764 0.26203626 -0.099646285
0002f0 b1 c4 f2 bd 7d ac 12 3e a9 ea a7 bd ef 8a 47 3e
       -0.11853922 0.14323612 -0.08199055 0.19486593
000300 4b cb 7f 3d a9 b7 1e be d3 db 92 bd 3e 27 e2 3c
       0.062449735 -0.15499748 -0.071708344 0.027606603
000310 74 ec 1f be 4d a7 bb bc 1b a4 6f bd f8 68 60 bc
       -0.15617543 -0.022906924 -0.058506113 -0.0136969015
000320 2d 6e f2 3d 15 5f b8 bd 53 ed 59 be cf 4c 06 be
       0.118374206 -0.090025105 -0.21281938 -0.13115238
000330 d4 5a 80 3e b1 ad 3b be 4d 78 42 3d 72 2b 72 3e
       0.25069296 -0.18327977 0.04747801 0.23649386
000340 e1 2d 9d 3d 1e 9d 77 be 6e 23 1c bd 97 fb 53 bd
       0.07674766 -0.24181029 -0.038119726 -0.051753607
000350 1d 48 19 3e a3 a8 b7 3c 69 92 f6 3d 05 dc 56 be
       0.14968915 0.02241928 0.12039644 -0.20982368
000360 17 3f de b8 9c 18 d5 be 7c b1 14 be d4 8e 15 3e
       -0.00010597536 -0.41620338 -0.1452083 0.14605266
000370 f1 38 19 3e 56 85 b5 bd 63 6d c5 bd 05 85 97 bc
       0.14963128 -0.088633224 -0.096400045 -0.018496046
000380 41 93 69 3e a3 4c c2 bd 30 b1 60 be e9 42 d9 be
       0.22810079 -0.094872735 -0.21942592 -0.4243386
000390 09 ee 44 be 61 42 52 3e 47 f4 44 3b 70 dc 14 3d
       -0.19231428 0.20533134 0.0030052827 0.036343038
0003a0 6e 17 97 3d d7 ef be bd 3b 5a 63 3d 07 9c 8b be
       0.07377516 -0.093230896 0.055505972 -0.27267477
0003b0 7f 0d 4c bd 4c 1d 11 bf 3b af 80 bc 8e fe 66 3d
       -0.04981756 -0.5668533 -0.015708556 0.056395106
0003c0 f1 a2 f9 3d 80 d4 4a 3d a0 ac 63 be cf 90 01 3e
       0.12189282 0.049519062 -0.2223382 0.12652896
0003d0 5f 49 05 bd c5 94 57 3e 4a 35 e5 3d 4a fd 87 bd
       -0.032540675 0.21052845 0.11191805 -0.06640108
0003e0 33 39 7f bd f9 a5 3c be e6 a7 82 3e ed a1 8f bd
       -0.06231041 -0.18422689 0.2551872 -0.07013307
0003f0 02 23 18 be 5d 62 8b be d4 be 73 be 16 08 22 be
       -0.14857104 -0.27223483 -0.23803264 -0.15823397

lstm.weight_hh_l0_reverse f4 [80, 20]
000000 26 d7 17 3f 3e 16 0a be 3a 3e 37 be d6 28 17 be
       0.59312665 -0.13485047 -0.17894831 -0.14761671
000010 7b ec 68 3d 7f 74 2d be e7 85 34 3f 3c 18 7e 3e
       0.05686615 -0.16938971 0.7051682 0.24813932
000020 bd d0 87 3e cb 61 9b 3d fd 78 95 bd 41 bb f6 3d
       0.26526442 0.07587012 -0.07298467 0.120474346
000030 cb b6 89 3e 27 48 11 3f d8 34 cc 3c e5 6e 58 3e
       0.26897272 0.5675072 0.024927542 0.21136053
000040 3c d7 c0 be ec 86 ce bd 41 da de 3e ff cc 58 3e
       -0.3766421 -0.10084328 0.4352589 0.2117195
000050 02 d4 8d 3e e1 27 ea bd f4 b4 89 3e 56 e7 44 3d
       0.27700812 -0.114333875 0.2689587 0.04807218
000060 37 f6 54 be 18 a2 07 be 65 18 96 3c e3 6d 1e 3e
       -0.20797049 -0.13245428 0.01832218 0.15471606
000070 48 2c 75 3d 4d 88 3f 3f 87 ae 37 be 8a d7 99 3e
       0.059856683 0.74817353 -0.1793767 0.30047256
000080 bf 15 32 3e e6 bf 5e 3e ff 06 c5 be 4f 2f e5 bb
       0.17391108 0.21752891 -0.384819 -0.006994165
000090 07 5b fd bd 2a f1 dc be 25 99 e5 3d 63 58 25 3e
       -0.12370878 -0.43152744 0.112108506 0.16146998
0000a0 fa 4d 8c 3e b9 38 d3 bd 7d 67 04 3e 30 4b 1a be
       0.2740324 -0.10313553 0.12930103 -0.15067744
0000b0 d1 70 b1 3c f5 10 fc 3c 1e 6b a5 3d 00 d3 3e 3e
       0.02166024 0.030769804 0.080770716 0.18635178
0000c0 b0 c3 87 3e c4 47 4f 3c 7f 5d b6 3e d5 31 88 3e
       0.26516485 0.012651388 0.35618207 0.2660052
0000d0 2c a9 0a be 07 7a 0f bd 56 b7 d9 3d 49 4e f8 3d
       -0.13541096 -0.035028484 0.10630672 0.12124307
0000e0 58 53 bd be c5 06 e6 bd c6 07 2d 3e f9 3f 81 be
       -0.3697765 -0.1123176 0.16897497 -0.2524412
0000f0 f2 c6 b1 3e 2d ad 16 bf dc b0 20 be 5a d4 de be
       0.34722096 -0.58857995 -0.15692466 -0.43521386
000100 45 c4 53 be 41 be 97 be b7 e4 01 bf ca b8 84 be
       -0.2068034 -0.2963734 -0.50739616 -0.25922233
000110 88 fb 1d 3f 03 ae db 3e b3 57 d3 be 4e b0 56 3f
       0.6171193 0.42906198 -0.41277847 0.8386277
000120 3b 5a 31 3a 90 67 c3 3e ce d6 d6 3d 63 ff ef be
       0.00067654595 0.3816495 0.104901895 -0.46874532
000130 66 d3 7d bb 5f 0b 78 3d cc 68 32 3f fc 11 03 bf
       -0.003873074 0.06055772 0.6969116 -0.51199317
000140 00 cc 41 be 53 ad 28 be 86 c5 e6 be fc dc c6 be
       -0.18925476 -0.16472368 -0.45072573 -0.38840473
000150 59 74 a3 3d 1f 3b 66 be 9c d9 fb 3e 0d 94 b8 3c
       0.07981176 -0.2248349 0.4918946 0.022531534
000160 e8 87 14 be 11 ab cc 3c 5a 2c e8 3e 19 fc 8c 3d
       -0.14504969 0.024983915 0.45346338 0.06884021
000170 76 7b b1 3d 80 13 19 3f 01 7a 20 3e e8 f3 a7 bc
       0.086661264 0.5979538 0.15671541 -0.020502046
000180 21 dd bf be 4f 69 f6 3d d5 57 12 3d b2 a7 c8 be
       -0.37473395 0.12031805 0.035728294 -0.3919044
000190 5d f7 3f 3b fe c6 e2 bd 42 c8 0d 3c f8 74 56 bc
       0.0029291727 -0.11073111 0.008653702 -0.013089411
0001a0 e8 17 61 be 2f 86 d4 be d3 56 d8 3e 9f a6 23 be
       -0.21981776 -0.41508624 0.42253742 -0.1598153
0001b0 e1 c5 d8 be db aa 61 3d b1 6f 1b be 14 81 b4 bd
       -0.4233847 0.05509458 -0.15179326 -0.08813682
0001c0 35 be 0b 3f 22 b7 f7 be 35 34 ac bd 32 85 3a bf
       0.5458711 -0.48381907 -0.08408395 -0.7285949
0001d0 9d 2c 10 bf bf 70 80 be 8b 64 5d bb c8 f0 20 bf
       -0.56318074 -0.25086018 -0.0033781852 -0.62867403
0001e0 87 d8 a8 3e ad 3c 8a be 4b 24 cc bd 01 f7 5c 3e
       0.32977697 -0.26999417 -0.0996786 0.215786
0001f0 4a fe 8f be fc 7e 50 3e 55 81 a4 be ae 9e 0e be
       -0.28123695 0.2036094 -0.32129923 -0.13927719
000200 45 a8 0c be 61 84 bf 3d 96 2a 3a be 42 92 5e 3e
       -0.13736065 0.09351421 -0.18180308 0.2173548
000210 48 6b 36 3e 16 bc 1a 3e 26 78 fd bc df cf 44 3c
       0.17814362 0.15110812 -0.03094108 0.012012451
000220 86 53 f6 be e8 e9 39 be 7c 90 28 be de bb 66 be
       -0.48110598 -0.18155634 -0.16461366 -0.22532603
000230 a8 1e af 3e d6 79 75 be 59 8e 96 be 6c 5b e4 be
       0.34203076 -0.23972258 -0.29405478 -0.44601
000240 4d af 96 3d eb 1e c8 3d a9 04 42 be de 5b 4f 3e
       0.07357655 0.09771522 -0.1894709 0.20249888
000250 3e 85 d1 3d 51 e7 c3 3e 66 64 e0 3e bf 26 ac 3c
       0.10230492 0.38262418 0.43826598 0.02101457
000260 04 61 14 3e ec 98 86 3e 9c 0a 82 bd 37 7c c5 be
       0.14490134 0.26288545 -0.0634968 -0.3857133
000270 ef a0 a7 bc e3 7a 38 be 80 34 0d 3e 8e 4e e5 bd
       -0.020462481 -0.18015628 0.13789558 -0.11196624
000280 0b 1d 75 bd 8c 54 c4 3c 6d 97 9a 3c 22 56 4c 3f
       -0.05984215 0.023966096 0.018871034 0.7981893
000290 c4 c4 a1 bd 0c 33 d4 bd 2e a0 c1 be d8 80 b0 be
       -0.07898858 -0.10361299 -0.3781752 -0.344733
0002a0 f5 c2 b6 3c a9 59 39 be f8 f0 76 bd 4d a0 03 be
       0.02230976 -0.18100609 -0.0602884 -0.12854119
0002b0 40 1e bc bd aa fd 4a bf 7b db f1 bd d3 dc 41 be
       -0.09185457 -0.7929331 -0.11809441 -0.18931894
0002c0 7d 40 a7 3e ac e2 b3 3e 7c cc 86 3e 50 f0 52 3f
       0.32666388 0.35133874 0.26327884 0.8239794
0002d0 33 91 ac 3c ed 33 15 3e 15 cd ab be d7 70 84 3e
       0.02106533 0.1457059 -0.33554903 0.2586734
0002e0 c9 3a c6 3d bc 4b 5c be 98 26 f0 be af a6 be bd
       0.09679181 -0.21513265 -0.46904445 -0.09309136
0002f0 e8 1e e6 be 6e 4b 71 bd 9f cd 80 3e 68 0e b7 3d
       -0.44945455 -0.058909826 0.25156876 0.08938295
000300 be b2 54 3e ca 2a 44 3f 83 27 e0 3d 1d 25 61 3e
       0.2077131 0.7662779 0.10945036 0.21986814
000310 f5 54 bf be d8 d4 27 be 8f a3 3d bc 2a 24 00 be
       -0.37369505 -0.16389787 -0.01157464 -0.12513795
000320 73 3c 67 be f0 17 b5 bd fd 69 1a 3f 6f 43 21 bf
       -0.22581653 -0.08842456 0.60317975 -0.6299352
000330 ec d5 2b bd a2 10 bc be 8c 4a 79 be 0c f3 78 bd
       -0.04195206 -0.3673144 -0.24344844 -0.060778663
000340 cd 2d 2d bf d0 6f 0f bd b0 be 85 3d bb 61 0b 3f
       -0.6764801 -0.035018742 0.065305114 0.54446
000350 ed f6 76 3f 19 3e 25 be 0a 7b e5 be 8d 7b c2 3d
       0.9647053 -0.1613697 -0.44820434 0.09496222
000360 f2 c9 6f be ea 03 dd be a9 f3 d7 3e 29 a4 23 3d
       -0.2341688 -0.4316705 0.42178085 0.039951477
000370 c3 87 89 3e c6 e9 90 be 2e b4 e0 3d 60 7b 28 be
       0.2686139 -0.28303355 0.109718665 -0.16453314
000380 f5 d4 f5 bc ad 7f c8 be d9 e8 98 bd 89 12 9a 3e
       -0.030008772 -0.3915991 -0.07466287 0.30092266
000390 92 65 94 3d 24 6a 17 be d8 18 01 3e 6e 1e d3 bd
       0.072459355 -0.14786583 0.12607133 -0.103085384
0003a0 0e a1 de 3e 94 1b 1b 3e 9e b8 bd bd 72 81 8f 3d
       0.4348225 0.15147239 -0.092637286 0.070071116
0003b0 e1 d4 2a be e8 0a f2 be 24 53 00 3f 8b 6f 23 3d
       -0.1668277 -0.47273946 0.5012686 0.039901298
0003c0 93 ae 06 be 2a 2c 16 bd 9d e1 51 3e 73 79 99 3f
       -0.13152532 -0.036663212 0.20496221 1.1990188
0003d0 0a 22 c3 3e 53 17 ce 3e ea 59 a2 3e 00 12 ef 3d
       0.38111907 0.4025217 0.31709224 0.11673355
0003e0 60 c9 84 be 63 35 07 be b1 71 da be 9a e2 b4 3e
       -0.25934887 -0.13203959 -0.42664865 0.35329133
0003f0 cf 64 35 3f 6f 59 5f bf 63 6a f8 3c b5 93 e5 be
       0.70856947 -0.8724584 0.030324167 -0.44839254

lstm.bias_ih_l0_reverse f4 [80]
000000 aa 5e 3a 3e 12 f8 09 3e c4 80 bf 3d 2b 75 bb 3e
       0.18200174 0.13473538 0.09350732 0.3661283
000010 77 17 83 bd b2 d8 5e 3e e3 3b 61 bd 66 4b 2f 3d
       -0.0640096 0.2176235 -0.054988753 0.042796515
000020 25 30 27 3e b4 8f 98 3d 4d 4f 9a 3e 6b 6f 38 bd
       0.1632696 0.07449284 0.30138627 -0.04502813
000030 82 70 1f 3d 71 4c 03 3c 27 f8 01 be 6b 58 7c 3d
       0.038925655 0.0080138305 -0.12692319 0.06160776
000040 c0 78 74 3e f4 ab f7 bc b5 5e 11 be 39 fe a8 3e
       0.23874187 -0.03023336 -0.14196284 0.33006456
000050 88 6d 02 3e cb 07 ba 3d b3 06 e4 bb a2 f7 98 3e
       0.12737095 0.09083518 -0.0069588064 0.2987643
000060 7d 3b bc bc 96 ae 87 bd 7b 12 bb bd 12 dd d4 bd
       -0.022977585 -0.066250965 -0.09134384 -0.10393728
000070 68 89 0d 3e 25 cf 99 3e 3e b8 19 be 3b e8 a8 3d
       0.13821948 0.3004085 -0.15011689 0.082474194
000080 71 7c 12 be 57 64 bc 3d dd f1 74 3c e5 19 c7 3d
       -0.14305283 0.09198826 0.014950243 0.09721736
000090 ff 6e 93 3e 87 9f f9 bd 25 4e 99 3e bb 09 bd 3c
       0.2879562 -0.121886306 0.29942432 0.023075929
0000a0 17 a8 df bd 8a d1 65 be 77 48 c3 3c 5f f2 08 be
       -0.109207325 -0.22443214 0.023838265 -0.13373707
0000b0 24 78 c5 3b 58 4e 62 bc 65 ef c2 3c 84 c4 82 3e
       0.006026285 -0.013812624 0.023795793 0.25540555
0000c0 ba e8 6e be 52 90 6e be af cc c9 bd d0 e1 1d be
       -0.23330966 -0.23297241 -0.098534934 -0.15418172
0000d0 3e fc 58 3e 5f 2d 44 3d 38 21 d6 bd 4e 4b dd bd
       0.21189973 0.04789483 -0.10455555 -0.10805379
0000e0 6d 3e 4e 3d 18 bf 81 be 58 75 ac 3c 29 10 80 be
       0.050352503 -0.25341105 0.021052048 -0.2501233
0000f0 b0 50 47 3e ea 58 ca 3d 37 17 91 bd de 96 9e 3e
       0.19464374 0.0988024 -0.07084506 0.30974478
000100 7f 51 9b 3e c5 f0 96 3e 83 ac a3 3d be 53 3e be
       0.30335614 0.29480568 0.079918884 -0.18586633
000110 23 94 04 3f af a4 a5 3e cd e9 94 3e 98 87 1b 3e
       0.5178854 0.32352206 0.29084626 0.15188444
000120 5d d3 1f 3e 6a 3d 4f 3e 1b 53 9e bd 6d 71 eb bd
       0.15607972 0.20238271 -0.07730695 -0.114962436
000130 ba c5 03 3d 89 73 43 3b 1f b1 a6 bd 31 72 8b 3e
       0.03217099 0.0029823503 -0.08139252 0.2723556

lstm.bias_hh_l0_reverse f4 [80]
000000 a3 0a a3 bd c2 4e 1e 3e ea 23 ab 3e 33 9d 2f 3d
       -0.07961013 0.15459731 0.33425838 0.042874526
000010 14 ec 9f bc a4 48 75 3e f3 ad 37 3e e9 51 42 3d
       -0.01952175 0.23953491 0.1793745 0.047441397
000020 3e 8c 1e 3e 09 37 92 bd 0f 5e 01 bd 50 3a 18 bd
       0.15483186 -0.071394034 -0.031583842 -0.037164986
000030 bc c3 fd bd 40 14 a2 3e 5c 41 57 be 74 31 a3 3d
       -0.12390849 0.31656075 -0.21021026 0.07968417
000040 80 86 ad 3e fd ac 57 3d 6b 04 a6 bd 98 c8 67 bd
       0.33891678 0.05265521 -0.081063114 -0.056587785
000050 e8 85 22 bd cd 0c 3e 3d 7d 46 88 bc a9 ce cd 3d
       -0.039678484 0.046398927 -0.016635174 0.10049183
000060 d6 8a 18 3e e2 03 3f be ee bf 38 3e 27 eb 89 3c
       0.14896712 -0.18653825 0.18041965 0.016835762
000070 f6 10 d5 bd 30 44 22 3e 21 22 55 be de 99 b0 bd
       -0.10403626 0.15846324 -0.208138 -0.08623098
000080 91 af 1e be 40 ed 31 3c 92 0f 09 be 39 e7 16 3d
       -0.15496661 0.010859787 -0.13384846 0.036841605
000090 e6 20 30 bd 3e ed 11 3e 41 24 69 bc ba 5f 27 be
       -0.043000124 0.14250657 -0.014229835 -0.1634511
0000a0 b8 fb 6e 3d 39 d5 b6 bd dc 14 5f 3d 1e c3 a4 bd
       0.058345526 -0.08927388 0.054463252 -0.08045028
0000b0 c5 99 34 be 67 cb 05 be 0d f7 f7 3d 01 35 90 3d
       -0.17636783 -0.13065873 0.12107668 0.0704136
0000c0 e8 1a 07 bd f2 02 7d 3c 0c 2d 8d 3e 52 05 10 bd
       -0.032984644 0.015442597 0.2757343 -0.035161324
0000d0 35 c0 01 bd 80 64 50 3e 02 0e 11 3e 24 f1 d5 bc
       -0.031677444 0.20350838 0.141655 -0.026115961
0000e0 ae 52 33 3e 72 f5 d5 bd b0 4b 94 3c 93 c6 66 be
       0.17512009 -0.104472056 0.018102497 -0.22536688
0000f0 32 cc ab 3e e7 b6 56 3e 99 55 a9 3e dd 56 54 3e
       0.33554226 0.20968209 0.33073118 0.2073626
000100 44 3d 3f 3e 5f 9b 97 3e ab ce 70 3e a4 c8 ca 3b
       0.18675715 0.29610726 0.23516338 0.006188469
000110 4a ad f1 3d 42 d2 02 bd 22 27 4b 3d c2 64 cf bd
       0.118006304 -0.0319388 0.049597867 -0.1012664
000120 7c a5 13 3e 46 61 68 3e 48 93 8c 3b f7 66 0e be
       0.14418596 0.22693357 0.004290018 -0.13906465
000130 da 85 06 3d b8 1f 03 3e e7 ad 0f be 2c 1f 3a 3e
       0.032842495 0.12805068 -0.14031182 0.18175954

lstm.weight_ih_l1 f4 [80, 40]
000000 b5 97 43 be 78 d6 8c 3e 10 32 8b 3d db 54 24 be
       -0.1910084 0.27507377 0.06796658 -0.16047995
000010 20 9c 66 be 98 4d 71 3d 25 98 98 bd 82 b0 9a be
       -0.22520494 0.05891189 -0.07450894 -0.3021279
000020 56 6a 99 be c5 14 b2 bd 3b 3b 21 3e 83 9e 46 be
       -0.2996394 -0.08695368 0.15745251 -0.19396405
000030 ed 54 23 3d d2 41 67 be 34 ab 5f 3e 03 81 d0 3d
       0.039875913 -0.22583702 0.21842653 0.10180857
000040 f2 b8 8d 3c 00 34 3b 3e 9f bd b7 3b 24 da 08 bc
       0.017300103 0.18281555 0.0056073214 -0.00835279
000050 0c ee 36 be f4 ab ab 3d aa 24 ec bd 3b be e8 3d
       -0.17864245 0.08382407 -0.115304306 0.113644086
000060 d2 1d d8 3c 8c 19 df bd 4c 26 dc 3e 9c f1 4d 3e
       0.026381407 -0.108935446 0.42997968 0.20111698
000070 00 94 82 3e d5 24 97 be 59 0f ba bd 66 3e d3 3d
       0.2550354 -0.29520288 -0.090849586 0.10314636
000080 1c da 6b 3e 0a 67 a5 3e f2 41 8f be c5 40 02 3e
       0.23032421 0.32305175 -0.2798 0.1272002
000090 88 1b da 3e be a4 d3 be f6 dc 5e 3d 36 88 5c be
       0.4259913 -0.41336626 0.054409944 -0.21536335
0000a0 47 96 45 be 5b 18 bd 3d 76 c3 a2 bd b0 1a 70 bc
       -0.19295608 0.09233161 -0.079474375 -0.0146548
0000b0 e4 c4 a6 be 9b 28 d5 3d cf 84 5c bd cf 85 87 be
       -0.3257209 0.104081355 -0.053837594 -0.26469275
0000c0 dc c1 3a 3e c2 55 19 be 4b f4 49 bd 4b cc 3b 3c
       0.18238014 -0.1497412 -0.04930524 0.011462281
0000d0 10 81 32 3e e1 23 10 3d 1e 05 b0 3d c8 73 a2 be
       0.17432046 0.035190467 0.08594726 -0.3172896
0000e0 62 74 30 3e e8 61 a0 bd 02 64 ae be 75 6e 19 bd
       0.17231897 -0.07831174 -0.34060675 -0.037458856
0000f0 bb ca e2 bd 39 70 ec 3d e9 e5 81 be da 87 a1 3d
       -0.11073824 0.11544842 -0.2537072 0.0788724
000100 22 b2 65 bc fd b2 a8 be 6f 31 c8 3e 79 2b ef bd
       -0.014019521 -0.32949057 0.39100215 -0.116782136
000110 d7 0e a7 bd d1 99 6a be da 14 11 3c 6c 16 5e 3d
       -0.08157127 -0.22910239 0.008855069 0.054220602
000120 6a e9 92 be 2a 2d 16 bc fb 53 8b 3d 76 50 fc 3d
       -0.28693706 -0.009166041 0.068031274 0.12320034
000130 f4 99 84 bd 2e a7 19 3e c8 f4 41 bd 8a 48 24 bd
       -0.06474677 0.1500518 -0.047352582 -0.04010824
000140 ce b1 b9 bd 2b d0 2d 3e ee b3 34 3e d4 44 da 3d
       -0.09067117 0.16973941 0.17646763 0.10657659
000150 7a a3 a8 be 5b 2b da bd 13 64 e9 3c 6e 3b 2f 3e
       -0.32937223 -0.10652801 0.028490102 0.17112514
000160 a4 fa 86 3e ef 2f 04 3e 6b 01 f0 3d 51 90 52 bd
       0.263631 0.1290891 0.117190205 -0.051407162
000170 ed 79 3d be 05 4f ea 3d 98 b4 b5 3d 0d 3f 77 be
       -0.18503542 0.11440853 0.08872336 -0.24145146
000180 7b 3d 98 3e af 61 df bc 78 25 2d bd 11 82 25 be
       0.29734406 -0.027268259 -0.04227206 -0.16162898
000190 d5 44 9c bd fd f8 db 3d a4 c4 3c be 0a 5e 25 3e
       -0.07630316 0.1074085 -0.18434387 0.16149154
0001a0 ca b5 dd bd d2 7b eb 3d b7 f3 11 3f c4 7a 56 3d
       -0.10825689 0.11498226 0.57012504 0.052363172
0001b0 ea 52 33 bf cc c0 80 be f2 6b c5 3d 78 e4 a6 be
       -0.7004839 -0.25147092 0.096397296 -0.32596183
0001c0 3c 01 36 3d 69 f8 e9 3d 75 ec f7 3d ee c1 47 3e
       0.04443477 0.114243336 0.121056475 0.19507572
0001d0 0c b9 5a be 65 5b c7 bd 5f 96 1d be b1 02 7a 3d
       -0.21359652 -0.09734229 -0.15389393 0.061037723
0001e0 82 10 8e 3e 03 b1 1d 3e 20 cf ff 3c fe d8 57 bd
       0.2774697 0.15399556 0.031226695 -0.052697174
0001f0 e9 31 02 3e 9d 9d 80 be 33 41 97 be 39 fd 91 bd
       0.12714352 -0.2512025 -0.2954193 -0.071283765
000200 bb e0 08 bf 1d 6f ef bd 4a 36 1d 3e 6e 74 ec bc
       -0.5346791 -0.11691115 0.15352741 -0.028864112
000210 d1 3b 32 3e d6 ce 8c 3e 96 d3 47 3e 81 d6 89 be
       0.1740563 0.27501553 0.19514307 -0.26921466
000220 36 f5 f9 3c 02 52 1b bd 00 44 db bd a2 6f bf 3c
       0.030512433 -0.037920006 -0.10706329 0.02336866
000230 fc 27 9c b9 47 31 b9 be 80 0b 80 3e dd e3 b0 3d
       -0.0002978443 -0.36170408 0.25008774 0.086372115
000240 8c c1 07 be 36 5d 3a be 92 8f 7a 3e 8a dc 32 3e
       -0.13257426 -0.1819962 0.2446883 0.17466941
000250 ac c3 9d bd 56 fb 9b 3e 32 13 5b be 07 47 72 3e
       -0.07703337 0.30465192 -0.21394041 0.23659907
000260 2e 01 bd bd e2 e4 96 be 4b c4 11 3e 27 0f 1a be
       -0.09228741 -0.294715 0.14235036 -0.15044843
000270 ef cc 94 be 6d 76 87 3d e7 66 2c 3e 70 a6 9d 3d
       -0.29062602 0.06614385 0.16836129 0.07697761
000280 65 14 5c 3d 18 04 12 be 65 ce 86 be 1f 8f 01 bd
       0.053730387 -0.14259374 -0.26329342 -0.03163063
000290 7e 36 2a 3f 28 45 a2 be d8 16 4e 3e 31 ad 93 be
       0.664894 -0.31693387 0.20125902 -0.28843072
0002a0 2b 42 8a be 88 03 84 be c9 18 6c 3d 8b a5 05 3d
       -0.27003607 -0.25783944 0.057640824 0.032628577
0002b0 74 6b a8 bc 60 6b ce 3e 05 cd 40 3d 90 7f 00 bf
       -0.02055905 0.40316296 0.04707052 -0.50194645
0002c0 a5 f3 8d 3e fb 77 90 3e 6d 1b 23 3d e8 47 9e 3e
       0.2772495 0.28216538 0.039821077 0.30914235
0002d0 90 ef d6 3d 27 a9 65 be 02 03 9b 3e 3f bb 00 3e
       0.10494912 -0.22427808 0.30275732 0.12571429
0002e0 a6 f4 9c 3d 8d 0b 74 bd b1 a5 98 3e 70 79 46 3e
       0.076638505 -0.05958133 0.29813913 0.19382262
0002f0 dd 10 22 bf 7b d4 27 3e d4 f9 95 3e 51 0d 6a 3e
       -0.6330698 0.16389649 0.29292166 0.22856642
000300 2a fe f0 3d 88 53 6b bd 07 3b 9c be 7b 61 85 be
       0.11767228 -0.05745271 -0.30513784 -0.26050934
000310 98 cf bc be 71 9b 3a bd 53 12 0a be cc 3a ad be
       -0.3687713 -0.045558397 -0.13483553 -0.3383392
000320 70 db 9a be 77 c7 1b be 53 d7 ba bd e7 78 01 be
       -0.30245543 -0.15212809 -0.09123101 -0.12643777
000330 7a 2c 6c 3e 78 4b 6f be 1d e1 ad 3d aa f6 90 bd
       0.23063841 -0.23368633 0.084902026 -0.070782974
000340 d9 2e f1 bd 11 c5 e0 3d 70 0a 0a be f7 42 b7 3d
       -0.117765136 0.109750874 -0.13480544 0.089483194
000350 db 74 fe 3c 6a 47 11 bd 97 9d e1 bd 07 8f 05 3e
       0.03106158 -0.035468496 -0.11016386 0.13042842
000360 ab 27 16 3e c6 fe 32 3c 2e 19 a4 bc ca 9e ad be
       0.1466357 0.0109250005 -0.020031538 -0.3391021
000370 a7 0d 24 3e aa 8c 45 bd a3 92 02 be 95 c1 8f 3e
       0.16020833 -0.04822985 -0.1275125 0.2807738
000380 0a f4 d1 3c 9f 64 8d 3c fd ca 3b be b1 c2 03 3e
       0.025629062 0.017259894 -0.18339153 0.12867238
000390 4a d2 c0 be c4 27 fd bd 88 11 32 bd 8a 52 54 be
       -0.37660438 -0.123611 -0.04347375 -0.20734611
0003a0 41 e0 ff bc 5e e6 8a bc cb 77 af 3a 96 a6 8a bc
       -0.031234862 -0.01695555 0.0013387142 -0.016925137
0003b0 1d 93 9e 3e be 84 3e bd 2e 4c 57 3d be d9 f2 3d
       0.30971614 -0.04651331 0.052562885 0.11857937
0003c0 7b 6b 28 bf d3 10 10 3e bf c8 6d 3e b7 a5 2b 3e
       -0.65789 0.14068918 0.2322111 0.16762434
0003d0 da 19 0d 3e 75 a6 8b 3e 3d 20 85 be 06 9d d4 bd
       0.13779393 0.27275434 -0.26001158 -0.10381512
0003e0 06 86 7f 3e 31 d4 08 bd de 87 bd 3e a1 45 59 bd
       0.2495347 -0.033405486 0.3701772 -0.05304492
0003f0 29 73 e0 3c ba eb 11 3d 54 8d 2c be db da bd be
       0.027398663 0.035625197 -0.16850787 -0.37081036
